demo_mnist/AE_mnist20x20.pth (torch_old, 9552 bytes, 7 tensors)

conv1.weight f4 [8, 1, 5, 5]
0	0xbb8dddc7	-0.0043294164
1	0x3c8a9995	0.016918937
2	0x3cb67827	0.02227409
3	0x3cdd6a75	0.027028302
4	0xbde6b911	-0.11265767
5	0xbd57266c	-0.052526876
6	0x3d94d794	0.07267681
7	0xbdd85051	-0.10562194
8	0x3d465f7b	0.0484309
9	0x3d32846c	0.04358332
10	0xbe0ec8dc	-0.1394381
11	0x3e3e722e	0.18598244
12	0xbe2365b0	-0.1595676
13	0xbd025e33	-0.031828117
14	0x3ebbc71f	0.36675355
15	0xbdd15819	-0.102218814
16	0x3dc27bfc	0.094963044
17	0xbd9607c0	-0.07325697
18	0x3db507a9	0.08839352
19	0xbea45efc	-0.32103717
20	0xbdaaddb5	-0.083430685
21	0x3d54db2e	0.05196684
22	0x3d60b954	0.054864243
23	0xbd0dca25	-0.03461661
24	0x3e13217e	0.14368245
25	0xbdb68264	-0.08911589
26	0x3dd81541	0.10550929
27	0x3d78d539	0.06075022
28	0xbdf8227e	-0.12115954
29	0xbd8f8df8	-0.070095
30	0x3db7fb88	0.08983523
31	0xbdf76b9f	-0.12081074
32	0x3cf30b0b	0.029668352
33	0x3e5b1043	0.21392922
34	0x3e209347	0.15681182
35	0x3cb172f3	0.021661257
36	0x3d217a71	0.03942341
37	0x3d542650	0.05179435
38	0xbdec52ed	-0.11539254
39	0x3d9cdf87	0.07659822
40	0x3d5827f4	0.052772477
41	0xbe222d70	-0.15837646
42	0xbc7c4771	-0.015397892
43	0x3d44e5a7	0.048070576
44	0x3e5478bc	0.20749182
45	0xbd4bc7c9	-0.049751077
46	0x3e0be2c9	0.1366073
47	0xbe1fe0f4	-0.15613157
48	0xbc8c79d0	-0.017147928
49	0xbd857622	-0.06516673
50	0x3e2c9000	0.16851807
51	0x3dcaf3a2	0.099097505
52	0x3e0a5771	0.13509919
53	0x3dbf11b3	0.09329548
54	0xbd8ee311	-0.06976903
55	0xbd570cc1	-0.052502397
56	0xbe4ee62b	-0.2020499
57	0xbd819218	-0.06326693
58	0x3dbecc3d	0.09316299
59	0x3e093361	0.13398506
60	0xbd1e3208	-0.038621932
61	0xbe50aa82	-0.20377544
62	0xbe49ce87	-0.1970769
63	0xbe69aa4b	-0.22818868
64	0x3dcb5a62	0.099293485
65	0xbda9385f	-0.08262705
66	0xbe86e304	-0.26345074
67	0xbe3b0481	-0.18263437
68	0x3c7ee45e	0.015557377
69	0x3d0c8b02	0.034312256
70	0xbd60fe5b	-0.054930072
71	0xbce17a0d	-0.027524019
72	0xbd43c317	-0.047793474
73	0x3ce12515	0.027483502
74	0x3d9d6b61	0.076864965
75	0xbd6974b1	-0.05699605
76	0xbcf0d74e	-0.02939954
77	0xbceba11e	-0.02876335
78	0xbe30f2a1	-0.17280056
79	0xbd90086d	-0.07032857
80	0xbd7e4ada	-0.062083103
81	0x3bf313fa	0.007418153
82	0xbc2063a4	-0.009789381
83	0x3d91fdf4	0.07128516
84	0xbe944d2a	-0.28965122
85	0xbc8c15f3	-0.01710031
86	0xbddcc927	-0.10780554
87	0x3cac5dac	0.02104076
88	0x3e14b2a4	0.14521271
89	0xbd6f3166	-0.05839672
90	0x3e39b70b	0.18136232
91	0xbe8d15fc	-0.27555835
92	0xbe86f486	-0.26358432
93	0xbe077821	-0.1322942
94	0xbd9e0652	-0.07716049
95	0x3b084dcf	0.002079833
96	0x3d9c37aa	0.076278046
97	0x3e39bd92	0.18138722
98	0x3e017a39	0.1264428
99	0x3e069564	0.13142926
100	0xbe3e9bfb	-0.1861419
101	0x3d801f5a	0.0625598
102	0xbdfd0a47	-0.12355476
103	0xbd3fb150	-0.046799958
104	0xbc7404fa	-0.014893765
105	0x3d9e1cf5	0.07720367
106	0x3d91830b	0.071050726
107	0x3c38deb5	0.011283566
108	0xbea38fea	-0.31945735
109	0x3d638179	0.055543397
110	0x3e32fe50	0.17479825
111	0x3c60075e	0.0136736315
112	0x3e8aef51	0.2713571
113	0x3da6064c	0.0810667
114	0xbdf1a886	-0.117997214
115	0x3d06bfef	0.032897886
116	0x3c0e7fc0	0.00869745
117	0x3e6029a7	0.21890889
118	0xbe19cd58	-0.15019739
119	0xbd663ddc	-0.056211337
120	0xbca5bd7f	-0.02023196
121	0xbd152857	-0.036415424
122	0x3e103979	0.14084424
123	0xbe1d5172	-0.153631
124	0x3dcb3bf2	0.09923543
125	0xbd0314b3	-0.032002162
126	0x3dec5738	0.11540073
127	0x3c53d9a9	0.012930312
128	0x3c1c1130	0.009525582
129	0xbd937850	-0.07200682
130	0xbd0a111b	-0.03370772
131	0xbcb7c22f	-0.022431461
132	0xbd2e68ed	-0.042580534
133	0x3cbd228c	0.023087762
134	0x3e1aaa33	0.15103988
135	0xbd6d6561	-0.05795801
136	0x3e2f9d39	0.1714982
137	0xbd80102f	-0.06253087
138	0xbccc961f	-0.024973927
139	0x3e22383e	0.15841767
140	0x3e5a087c	0.21292299
141	0xbe3bfc88	-0.18358052
142	0x3e3893e9	0.18025173
143	0x3ddf4afe	0.109029755
144	0x3e43a436	0.1910561
145	0x3e15eaa5	0.14640291
146	0x3dfd945b	0.12381812
147	0xbc21d221	-0.009876759
148	0xb98ec157	-0.000272284
149	0xbd058273	-0.03259511
150	0xbd0bc359	-0.034121845
151	0x3d1950b8	0.037430495
152	0xbd9239e3	-0.07139947
153	0xbd9fddeb	-0.07805999
154	0x3dfd0e9b	0.123563014
155	0x3d997c51	0.074944146
156	0xbe14f242	-0.14545539
157	0x3e05e037	0.13073812
158	0x3d71294a	0.058877267
159	0xbea04eaa	-0.31310016
160	0xbe2a6de8	-0.16643488
161	0xbe8fc478	-0.2807958
162	0xbe158e2f	-0.1460502
163	0xbe9f1931	-0.31073907
164	0x3da5f442	0.08103229
165	0x3cdd7668	0.027034
166	0xbe976454	-0.29568732
167	0xbdb1b844	-0.08677724
168	0x3ccc7ff7	0.024963362
169	0xbd384bea	-0.044994272
170	0xbd3f2248	-0.046663553
171	0x3d2e7cf2	0.042599626
172	0xbe8de915	-0.2771689
173	0xbda9c01a	-0.082885936
174	0xbccf0b5c	-0.025273971
175	0xbcdc28e8	-0.026874974
176	0x3d80d6f6	0.062910005
177	0xbd806db1	-0.06270922
178	0x3e007241	0.12543584
179	0x3cf2ea4c	0.029652737
180	0xbd8840f9	-0.066530176
181	0x3e614416	0.21998629
182	0x3e972677	0.29521534
183	0xbd810cf9	-0.063013025
184	0xbdfc54a8	-0.123208344
185	0x3dc39475	0.095498
186	0x3e1505c3	0.14552979
187	0xbd5a6746	-0.053321145
188	0x3e06a780	0.13149834
189	0xbd97e673	-0.074170016
190	0x3d90bd1e	0.07067321
191	0x3e974f86	0.2955286
192	0xbd719ba2	-0.058986314
193	0xbd01d938	-0.031701297
194	0x3e1ac9c8	0.15116036
195	0x3e234afa	0.1594657
196	0x3e3160da	0.17322102
197	0x3e0ccbee	0.13749668
198	0x3d4715ec	0.04860489
199	0x3c5d5ebb	0.013511355

conv1.bias f4 [8]
0	0x3e88ee0c	0.26744115
1	0x3d29baa3	0.041437756
2	0x3cf80dbd	0.030279988
3	0xbd8d543b	-0.06900831
4	0x3d448a8a	0.047983684
5	0xbdd0ca69	-0.10194857
6	0x3ddc7b76	0.10765736
7	0xbc1b3463	-0.009472939

conv2.weight f4 [4, 8, 5, 5]
0	0x3c017758	0.007901989
1	0xbc422a08	-0.011850841
2	0xbcda61a2	-0.026657883
3	0xbd101efa	-0.03518579
4	0xbd00f662	-0.03148497
5	0x3bd7bbe0	0.0065836757
6	0xbd06ae1d	-0.03288089
7	0x3d226e9a	0.03965626
8	0xbd2312ab	-0.039812725
9	0x3c5c76c0	0.013456047
10	0x3ceb6b64	0.028737731
11	0xbae3d440	-0.0017381981
12	0x3c7b4ca0	0.015338093
13	0xbd3e4e68	-0.046461493
14	0x3bc0eb80	0.005887449
15	0x3be47090	0.0069714263
16	0x3d8a8583	0.067637466
17	0x3c7b55c8	0.015340276
18	0xbd36cffd	-0.044631947
19	0xbbc60890	-0.006043501
20	0x3d6fc6d2	0.05853922
21	0xbd070dc2	-0.032972105
22	0xbd1a1801	-0.03762055
23	0x39df9200	0.00042642653
24	0x3d51d9c0	0.051233053
25	0xbd4f628e	-0.0506311
26	0xbc4db977	-0.012556425
27	0xbdb2ace1	-0.0872438
28	0xbdbb3879	-0.09141631
29	0xbd5d9a9a	-0.054102518
30	0xbe02f447	-0.12788497
31	0xbde28965	-0.11061362
32	0xbd9ebb53	-0.07750573
33	0xbd936495	-0.07196919
34	0xbd04f14a	-0.032456674
35	0xbde4fd4d	-0.11181126
36	0xbe0529bf	-0.13004206
37	0xbe036982	-0.12833217
38	0xbc70fe91	-0.014709131
39	0xbb196fb6	-0.0023412532
40	0xbd2c6661	-0.042089824
41	0xbde206f7	-0.11036485
42	0xbe001d74	-0.12511235
43	0xbdadad82	-0.084803596
44	0xbda6a5b1	-0.08137072
45	0xbd613cc7	-0.054989602
46	0xbda25dd8	-0.079280555
47	0x3c2b7271	0.010464297
48	0xbd22d5cc	-0.039754674
49	0xbcc24345	-0.023713717
50	0xbbc0b16f	-0.0058805267
51	0xbc10ac2e	-0.008830113
52	0xbdb30575	-0.08741275
53	0xbcced5c0	-0.025248408
54	0xbdb17971	-0.08665741
55	0xbde3e887	-0.111283354
56	0xbb4c2898	-0.0031152125
57	0xbdffb246	-0.12485175
58	0xbcf63282	-0.03005338
59	0xbe04cd48	-0.12968934
60	0xbd0d76c9	-0.03453711
61	0xbdc7cc3d	-0.09755752
62	0x38e3ae7c	0.00010856704
63	0xbdc7b540	-0.097513676
64	0xbca220e5	-0.019791076
65	0x3c2dd829	0.010610619
66	0xbd93cfe7	-0.072173886
67	0xbcd90f29	-0.026496487
68	0xbd8a3f5d	-0.06750367
69	0xbba3c944	-0.004998358
70	0xbc9b410b	-0.018951913
71	0xbace3c5b	-0.001573454
72	0xbdb2ac7a	-0.087243035
73	0xbdc7b857	-0.09751957
74	0xbd538baa	-0.051646866
75	0xbd78955d	-0.06068932
76	0xbd9ce192	-0.076602116
77	0xbbdb2289	-0.0066874665
78	0x3c1da46b	0.00962172
79	0xbb9c1267	-0.004762936
80	0xbd8dbfe8	-0.06921369
81	0xbd097edd	-0.033568252
82	0xbdf9bb90	-0.12193978
83	0xbd7e5068	-0.0620884
84	0x3a9ef756	0.0012128155
85	0xbd9defc9	-0.07711751
86	0x3a3282ed	0.00068096706
87	0xbd163c57	-0.03667864
88	0x3c1128c7	0.00885982
89	0xbdd9c9ee	-0.10634218
90	0xbda14bcd	-0.07875786
91	0xbd9c284d	-0.07624874
92	0xbe020429	-0.126969
93	0xbd32fd6d	-0.043698717
94	0xbdc876a0	-0.09788251
95	0xbd8cdaea	-0.06877692
96	0xbdf61fc5	-0.12017778
97	0xbd03b7c1	-0.032157663
98	0xbdd6a30f	-0.1048032
99	0xbdc78a0e	-0.09743129
100	0xbdb67949	-0.08909852
101	0xbd9f23e1	-0.07770515
102	0xbda830da	-0.08212443
103	0xbdeed13d	-0.11661003
104	0xbcc1c52a	-0.023653585
105	0xbd7bdef7	-0.061491933
106	0xbd9c2eee	-0.07626139
107	0xbd061558	-0.0327352
108	0xbdf81eab	-0.121152245
109	0xbc43adfb	-0.011943336
110	0x3b279100	0.0025568604
111	0xbda924ef	-0.08258998
112	0xb914b716	-0.00014182585
113	0xbdd4203f	-0.10357713
114	0xbd8cd139	-0.068758436
115	0xbcf800bc	-0.030273788
116	0xbd7b9a9e	-0.06142675
117	0xbdf7c2ee	-0.12097727
118	0xbda1a0ce	-0.07891999
119	0xbd1daf8c	-0.038497493
120	0xbd934d04	-0.07192424
121	0xbcf873c3	-0.030328637
122	0xbdc370db	-0.0954301
123	0x3bb68b1d	0.005570783
124	0xbce00e5b	-0.027350595
125	0xbd77e60e	-0.06052213
126	0xbdc2f22d	-0.095188476
127	0xbd1f57f3	-0.038902234
128	0xbdc75bf0	-0.097343326
129	0xbd4ee0cc	-0.05050735
130	0xbdf79d06	-0.12090497
131	0xbcf7a971	-0.030232163
132	0xbdbf4c59	-0.09340734
133	0xbd4e7098	-0.050400347
134	0xbcb7e286	-0.022446882
135	0xbdbf6f7f	-0.09347438
136	0xb838c7a2	-4.405494e-05
137	0xbdc49e4c	-0.09600505
138	0xbdab192d	-0.08354411
139	0xbc059bdb	-0.008154835
140	0xbcee99f6	-0.029126149
141	0xbd1bbb4e	-0.038020425
142	0x3a6fe0a9	0.00091506034
143	0xbdecfa0e	-0.11571132
144	0xbd91fbf9	-0.07128138
145	0xbd59f7a2	-0.053214677
146	0xbc8d1d59	-0.017225908
147	0xbac7676f	-0.0015213321
148	0xbcf3b0e4	-0.029747434
149	0xbe02db79	-0.12779035
150	0xbd4bfd0e	-0.04980188
151	0xbd1e03fb	-0.038578015
152	0xbafda177	-0.0019350488
153	0xbd14b47b	-0.036304932
154	0xbd4e1ff3	-0.050323438
155	0xbd28bb24	-0.041194096
156	0xbd001175	-0.03126665
157	0xbcf98c65	-0.030462453
158	0xbdb27223	-0.08713176
159	0xbb548cd7	-0.003243258
160	0xbc97609b	-0.018478682
161	0xbde23ba1	-0.110465296
162	0xbd576457	-0.052585926
163	0xbde81fa6	-0.113341615
164	0x3bf9a497	0.0076184976
165	0xbdcd2bda	-0.1001813
166	0x3bde7dc9	0.006789897
167	0xbd0623e9	-0.03274909
168	0x3c206bdf	0.0097913435
169	0xbd7abf0a	-0.061217345
170	0xbba67ecd	-0.005081034
171	0xbc90acd8	-0.017660543
172	0xbe05b5c9	-0.13057627
173	0xbdfc1914	-0.12309471
174	0xbda310f0	-0.07962215
175	0xbda25275	-0.07925884
176	0xbdc6fc52	-0.09716095
177	0xbd9ac3f8	-0.07556909
178	0xbda819d7	-0.082080536
179	0xbd37399b	-0.04473267
180	0xbdad6c81	-0.08467961
181	0xbc367d23	-0.011138233
182	0xbdfd9ce0	-0.12383437
183	0xbdd65add	-0.104665495
184	0xbc9ad1a7	-0.018898798
185	0xbc9f13c8	-0.019418612
186	0xbdc5bee1	-0.09655548
187	0xbd542fb1	-0.051803295
188	0xbe02779e	-0.12740943
189	0xbc388255	-0.011261542
190	0xbc74b593	-0.014935869
191	0xbe0050fb	-0.12530892
192	0xbdacb703	-0.08433344
193	0xbd35c6ee	-0.044379167
194	0xbcbd6c9d	-0.02312308
195	0xbe003394	-0.12519675
196	0xbdc3a273	-0.09552469
197	0xbda85c14	-0.082206875
198	0xbd9e974a	-0.077437
199	0xbdcfd9d6	-0.10148971
200	0xbd81e7aa	-0.063430145
201	0x3c2486a0	0.010041863
202	0x3d43d484	0.047810093
203	0xbc04e800	-0.008111954
204	0xbd57cab4	-0.052683547
205	0xbd1ca38d	-0.03824191
206	0xbcb03620	-0.021510184
207	0x3b43a8e0	0.0029855296
208	0xbd2f5630	-0.042806804
209	0x3cfff740	0.031245828
210	0x3d271af6	0.040797196
211	0xbd869c53	-0.06572785
212	0xbc93e734	-0.018054582
213	0xbcc09f62	-0.0235135
214	0x3d8aaecf	0.06771623
215	0x3ca99d10	0.020704776
216	0xbc852992	-0.016255174
217	0xbd2b4162	-0.0418104
218	0x3d3b6a2a	0.045755543
219	0x3d138a6c	0.03602068
220	0xbd8a3cee	-0.06749903
221	0x3d26403a	0.040588595
222	0x3c969eac	0.018386208
223	0xbd5a4fa8	-0.053298622
224	0xbcc9c8bc	-0.02463185
225	0xbd95c565	-0.07313041
226	0xbd67056d	-0.05640166
227	0xbc84fbf2	-0.016233418
228	0xbdc7ef96	-0.09762494
229	0xbbe6e0ec	-0.0070458557
230	0xbd7e71aa	-0.062120117
231	0xbdf0ac73	-0.11751642
232	0xbd8cb849	-0.06871087
233	0xbdf3747f	-0.11887454
234	0xbde92412	-0.11383833
235	0xbe1d6545	-0.15370663
236	0x3925d3d7	0.00015814543
237	0xbd1b0bf9	-0.037853215
238	0xbe1d36ea	-0.1535298
239	0xbd250875	-0.04029127
240	0xbd90776b	-0.07054027
241	0xbd9ff260	-0.07809901
242	0xbd80b7bb	-0.06285044
243	0xbddabccf	-0.10680544
244	0xbdb3a723	-0.08772113
245	0xbe10ee29	-0.14153351
246	0xbd0b88a4	-0.034065858
247	0xbc191049	-0.009342262
248	0xbd51941f	-0.05116665
249	0xbdc38dfa	-0.09548564
250	0xbcd03a6e	-0.025418486
251	0xbda87760	-0.08225894
252	0xbcda1642	-0.026621941
253	0x3d3c723c	0.04600738
254	0x3d9c8a6c	0.076435894
255	0xbd82ab2f	-0.06380307

conv2.bias f4 [4]
0	0xbd301e17	-0.042997446
1	0xbcb2b763	-0.021815961
2	0x3d80a7a5	0.06281976
3	0x3beba6fc	0.007191537

conv_transpose1.weight f4 [4, 8, 5, 5]
0	0xbcb4be3b	-0.022063365
1	0xbd0f0036	-0.03491231
2	0xbc0f8055	-0.008758624
3	0x3ce92a42	0.028462533
4	0xbe020782	-0.12698177
5	0xbdb3945c	-0.08768532
6	0x3cc5076b	0.024051389
7	0x3dae70c7	0.08517604
8	0x3d48cc3c	0.049022898
9	0x3bdea9bd	0.0067951367
10	0xbc988df4	-0.018622376
11	0xbcd75427	-0.026285244
12	0xbd4fc7f6	-0.050727807
13	0xbddcaba8	-0.10774928
14	0xbd4d7a7e	-0.050165646
15	0xbc0e6cb1	-0.008692906
16	0xbd1d39c5	-0.03838517
17	0xbd3a821c	-0.04553424
18	0xbd2da3c2	-0.0423925
19	0xbcac3acc	-0.02102413
20	0xbd1005f9	-0.035161946
21	0xbd718e18	-0.0589734
22	0xbd0c739f	-0.034289952
23	0x3d79d741	0.060996298
24	0xbd560a36	-0.05225583
25	0x3e0405a5	0.12892778
26	0x3d7dcb29	0.061961327
27	0x3d64096f	0.05567306
28	0x3d3a407e	0.04547166
29	0x3d702db5	0.05863734
30	0x3d1ed537	0.038777556
31	0x3de7dfdd	0.113219954
32	0x3dd7f0fb	0.1054401
33	0xbc227d74	-0.009917606
34	0x3d91b149	0.071138926
35	0x3dd18867	0.10231095
36	0x3ddee28c	0.10883054
37	0xbb1c8df9	-0.0023888333
38	0x3d02ef48	0.031966478
39	0x3da1cb37	0.07900088
40	0x3cfafa42	0.03063691
41	0x3d62dfd1	0.05538923
42	0x3d82072b	0.063490234
43	0x3d7ce858	0.061745018
44	0x3da76a91	0.08174623
45	0x3d8cc5b3	0.06873646
46	0x3d06bd16	0.03289517
47	0x3cb0855b	0.021547964
48	0x3d95610a	0.07293899
49	0xbb5b2ea0	-0.0033444539
50	0x3d98ce83	0.07461264
51	0x3cd965e3	0.026537841
52	0x3b5f5959	0.0034080355
53	0x3d77ced0	0.060499966
54	0x3d3b98af	0.045799907
55	0x3cc04970	0.023472518
56	0x3dfaebd8	0.12252015
57	0x3d33c71a	0.04389105
58	0xbbc11c6b	-0.0058932803
59	0x3ded9063	0.11599805
60	0xbbc0af70	-0.005880289
61	0x3e018cff	0.12651442
62	0x3dbdda8d	0.09270201
63	0x3dc33f94	0.09533611
64	0xbbd21360	-0.006411001
65	0x3c8b8f7c	0.017036192
66	0x3db04194	0.08606258
67	0x3dbad914	0.091234356
68	0x3e05de40	0.13073063
69	0x3bd9b93f	0.0066443975
70	0x3cb1ef40	0.021720529
71	0x3a4e87e3	0.0007878525
72	0xbc08155c	-0.008305874
73	0x3dc54e22	0.09634043
74	0xbd3d4f0e	-0.04621797
75	0xbdc5a39a	-0.09650345
76	0xbb60355f	-0.00342115
77	0xbdddddf2	-0.10833348
78	0xbd2dd2a7	-0.04243722
79	0xbbbd23b0	-0.0057720765
80	0xbd1fdbea	-0.039028086
81	0xbcbcc615	-0.023043672
82	0xbd68dac0	-0.05684924
83	0xbd0945fb	-0.033514004
84	0xbb55b1e9	-0.0032607263
85	0xbdf4c2b8	-0.11951202
86	0x39d788a4	0.000411098
87	0xbdd95399	-0.10611648
88	0xbd08140d	-0.033222247
89	0xbd40da08	-0.04708293
90	0x3b99242c	0.0046735015
91	0xbc8c35d7	-0.017115517
92	0xbbda1ad4	-0.00665603
93	0xbe048e50	-0.12944913
94	0xbcdc450a	-0.02688839
95	0xbd22750b	-0.039662402
96	0xbd7cebc8	-0.061748296
97	0xbabe6ea9	-0.0014528829
98	0xbd4f324a	-0.05058507
99	0x3bb820ba	0.0056191357
100	0xbc3d5a89	-0.01155723
101	0x3b4c9dae	0.0031221914
102	0x3c78b950	0.015180901
103	0xbdfce545	-0.12348417
104	0xbddc3b03	-0.10753443
105	0xbd710b19	-0.058848474
106	0xbba49693	-0.0050228327
107	0xbdf8c65d	-0.1214721
108	0xbd9a6bf9	-0.075401254
109	0xbd500abf	-0.0507915
110	0xbdcdbdf9	-0.10046
111	0xbe032099	-0.12805404
112	0xbdabe2fd	-0.08392904
113	0xbc907a63	-0.017636484
114	0xbd633f22	-0.05548013
115	0xbd3c1432	-0.045917697
116	0xbc10bce0	-0.008834094
117	0xbd94b523	-0.072611116
118	0xbdec3d00	-0.11535072
119	0xbda9535d	-0.082678534
120	0xbd7b3083	-0.06132556
121	0x3bf57a33	0.007491374
122	0xbc59174e	-0.013250185
123	0xbcafb17d	-0.021446938
124	0xbd61d4ee	-0.055134706
125	0xbce23d50	-0.027617127
126	0x3c343860	0.010999769
127	0xbb0bff60	-0.0021361932
128	0x3c962308	0.018327251
129	0xbd141b8e	-0.03615909
130	0x3c4f1b28	0.012640752
131	0xbb8c45f0	-0.004280798
132	0x3d16560c	0.036703154
133	0x3d837d23	0.06420352
134	0xbd631c22	-0.05544675
135	0xbd86bd8f	-0.06579124
136	0xbb1397a0	-0.0022520795
137	0x3cd49d74	0.025953986
138	0xbcd7f5a8	-0.026362255
139	0x3b868c90	0.004106112
140	0x3c916cb8	0.017752036
141	0x3cc3a1ac	0.023880802
142	0x3c2997b8	0.010351114
143	0x3d33d938	0.043908328
144	0xbd0b330c	-0.03398423
145	0xbcbfbbbc	-0.023404948
146	0x3d8983a7	0.06714564
147	0xbce04e80	-0.027381182
148	0xbd04106e	-0.03224223
149	0x3c294118	0.010330461
150	0xbd2aa093	-0.04165704
151	0xbd61580e	-0.055015616
152	0x3ba5485c	0.0050440263
153	0xbb8cf8ed	-0.004302135
154	0xbc91b22d	-0.017785156
155	0xbdd7fdd1	-0.105464585
156	0xbdaad59f	-0.08341526
157	0xba195f03	-0.00058506447
158	0xb9bd4884	-0.00036102918
159	0xbd3870e0	-0.04502952
160	0xbd874efb	-0.06606861
161	0xbc2471c0	-0.010036886
162	0x3c1b5bea	0.009482363
163	0xbdba2b5f	-0.09090304
164	0xbc0d92c9	-0.008640953
165	0xbd995a6f	-0.07487952
166	0xbc86837a	-0.016420115
167	0x391129a0	0.00013843784
168	0xbdb1f5c1	-0.08689452
169	0xbd154204	-0.03643991
170	0xbdbb9c18	-0.09160632
171	0xbdbcce68	-0.09219056
172	0xbccfb1a6	-0.025353264
173	0xbd6835fe	-0.056692116
174	0x3bf7df69	0.0075644744
175	0x3cfd8214	0.030945815
176	0x3cdb4b17	0.026769204
177	0xbc070347	-0.0082405275
178	0xbd890681	-0.06690694
179	0xbcfe22b6	-0.03102241
180	0x3dbe796b	0.093005024
181	0x3e02f322	0.1278806
182	0x3d96bde4	0.073604375
183	0x3dc6b58c	0.09702596
184	0x3da384c4	0.079843074
185	0x3db55c43	0.08855488
186	0x3d19fcbf	0.037594553
187	0x3dda53e6	0.106605336
188	0x3daeb0cd	0.08529816
189	0x3dcb9477	0.09940427
190	0xbd46fe33	-0.048582267
191	0xba0cb0aa	-0.0005366901
192	0xbd60520e	-0.054765753
193	0x3bdf75fc	0.0068194848
194	0x3d04975d	0.032370914
195	0x3c2af1e8	0.0104336515
196	0xbc4f8868	-0.012666799
197	0xbdaeb5ea	-0.08530791
198	0x3dde8cd9	0.10866708
199	0x3e05a62c	0.13051671
200	0xbc30e6c6	-0.010797208
201	0xbbca5d44	-0.006175669
202	0xbdc33116	-0.09530847
203	0xbd6542fb	-0.05597208
204	0x3e37ea95	0.1796058
205	0xbd548803	-0.051887523
206	0xbd6813cc	-0.056659505
207	0xbe06ac5a	-0.13151684
208	0xbbdb6308	-0.006695155
209	0x3e288e9d	0.16460653
210	0xbdb84e8a	-0.08999355
211	0xbd16e3d5	-0.03683837
212	0x3d1612ac	0.0366389
213	0x3baaa0c8	0.005207155
214	0x3d62647d	0.055271614
215	0xbdcd5e89	-0.10027797
216	0xbdeaa90a	-0.11458023
217	0xbdb29d1b	-0.08721372
218	0xbd257d21	-0.040402535
219	0x3b86f8d0	0.004119016
220	0xbd9ac7a9	-0.075576134
221	0xbd76ce35	-0.060255248
222	0xbda5c274	-0.080937296
223	0xbdd5241b	-0.10407277
224	0xbdbf762a	-0.0934871
225	0xbd5140c5	-0.05108716
226	0xbcd6df73	-0.026229596
227	0xbd39af1d	-0.045333017
228	0x3d8c09a0	0.06837773
229	0x3d991e11	0.07476438
230	0xbcb7e2ca	-0.022447009
231	0xbd3f89a3	-0.04676212
232	0x3d6e1dd0	0.0581339
233	0x3d3f06fa	0.046637513
234	0x3d133770	0.03594154
235	0x3c76e80c	0.015069973
236	0xbd88e81e	-0.06684898
237	0xbd4a9d50	-0.04946643
238	0x3d6d8569	0.057988558
239	0x3a6eb088	0.00091052847
240	0x3c44157f	0.011968016
241	0x3d14a9d8	0.036294788
242	0x3a8a36e6	0.0010544925
243	0x3d9239a3	0.071398996
244	0x3c10067d	0.008790609
245	0xbd6db1d6	-0.058030926
246	0xbda9c365	-0.08289222
247	0xbdc98359	-0.09839506
248	0xbd40b234	-0.047044948
249	0x3bc0a066	0.005878496
250	0xbc954180	-0.01821971
251	0xbd47890d	-0.048714686
252	0x3d4c1584	0.049825206
253	0xbc8d8993	-0.017277515
254	0x3cb4da7d	0.02207684
255	0x3d73f91f	0.059563752

conv_transpose1.bias f4 [8]
0	0xbdaa5cb5	-0.08318464
1	0x3e884c9e	0.26620954
2	0x3e8916d5	0.26775232
3	0x3c02edef	0.007991298
4	0xbdfb1d10	-0.122614026
5	0x3e1045f1	0.1408918
6	0xbe00aea8	-0.12566626
7	0xbd11a1de	-0.03555476

conv_transpose2.weight f4 [8, 1, 5, 5]
0	0xbd0b3c18	-0.033992857
1	0xbd415cf5	-0.04720779
2	0x3e417bd3	0.18894891
3	0xbadd5dc4	-0.0016888906
4	0x3cdfddf4	0.027327515
5	0x3e1d2c79	0.15348996
6	0x3e6f1c06	0.23350534
7	0xbe11cc96	-0.142382
8	0x3ccf03f0	0.025270432
9	0xbd63904f	-0.055557545
10	0xbd57d577	-0.05269381
11	0x3e56521c	0.2092976
12	0x3bc0cd76	0.005883868
13	0xbc8db241	-0.017296912
14	0xbe922d3e	-0.28550142
15	0x3dc32e8a	0.09530361
16	0xbdd5705f	-0.10421824
17	0x3df0e591	0.11762536
18	0xbe5062d3	-0.20350198
19	0xbde781e0	-0.113040686
20	0xbdb75c62	-0.089531675
21	0xbd1ce75d	-0.038306583
22	0x3db79cd8	0.089654624
23	0xbe87e57f	-0.2654228
24	0xbe77bce6	-0.24193153
25	0x3e1c5e7c	0.15270418
26	0xbd2c0b96	-0.042003237
27	0xbd13d4c0	-0.036091566
28	0xbd3244d0	-0.043522656
29	0x3cf9a812	0.03047565
30	0xbd97a930	-0.07405317
31	0xbe8a91d1	-0.27064374
32	0xbe5f1cfe	-0.21788403
33	0xbe85e940	-0.26154518
34	0xbe6ba36f	-0.23011564
35	0xbe066902	-0.13125995
36	0xbd94ffd6	-0.07275359
37	0xbe6a3cf4	-0.22874814
38	0xbe90854f	-0.28226706
39	0xbea1b344	-0.3158208
40	0xbd569904	-0.05239202
41	0xbe22224a	-0.15833393
42	0xbd1f6a74	-0.03891988
43	0xbedc4b0b	-0.43026003
44	0xbe84438b	-0.2583278
45	0x3e326772	0.17422274
46	0x3d9c041f	0.076179735
47	0x3df4bcca	0.11950071
48	0x3da1c45e	0.07898782
49	0xbe096ef8	-0.13421237
50	0xbdc8615f	-0.09784197
51	0x3db64291	0.08899415
52	0xbd885c39	-0.06658215
53	0xbd88c6d1	-0.06678546
54	0xbd826af8	-0.06368059
55	0xbd2b7aea	-0.041865267
56	0x3e8e1c5b	0.27756009
57	0x3e42c6c0	0.1902113
58	0x3e668058	0.22509897
59	0x3cdf8696	0.027285855
60	0xbb195f80	-0.002340287
61	0x3e89021a	0.26759416
62	0x3d6e584d	0.05818968
63	0xbd628abf	-0.0553081
64	0xbc40b049	-0.01176078
65	0xbe209b2b	-0.15684192
66	0xbea46c38	-0.32113814
67	0xbea56a3a	-0.32307607
68	0x3d52be76	0.05145117
69	0x3e82175c	0.25408447
70	0xbe719a20	-0.2359395
71	0xbeb98985	-0.36237732
72	0xbe4237aa	-0.18966547
73	0x3d9b24ad	0.07575355
74	0x3d96e780	0.07368374
75	0x3d54a70b	0.051917117
76	0x3ea0c807	0.3140261
77	0x3e10c627	0.14138089
78	0xbb654e1f	-0.003498919
79	0xbe22141f	-0.15827988
80	0x3e1aa8b7	0.15103422
81	0x3bb95e30	0.00565698
82	0xbc8918a6	-0.016735386
83	0x3dc49057	0.09597843
84	0x3e247a64	0.16062313
85	0xbd22d6a8	-0.039755493
86	0x3ce1549d	0.027506167
87	0xbe9b59f1	-0.30342057
88	0xbe8d3dcd	-0.27586213
89	0xbcee98ea	-0.02912565
90	0x3cb6640a	0.0222645
91	0xbbe5abf3	-0.0070090233
92	0x3bbdc4c3	0.005791278
93	0x3d86d941	0.06584407
94	0x3d82277c	0.06355187
95	0x3bf87b35	0.007583047
96	0xbe51ed91	-0.2050078
97	0x3e7f2006	0.2491456
98	0xbd3fa9e3	-0.046792876
99	0xbcf9cfb3	-0.030494547
100	0xbdde8f59	-0.10867185
101	0xbd9a479d	-0.075331904
102	0xbdab1245	-0.08353094
103	0x3d3cfcd0	0.04613954
104	0x3dea2505	0.11432842
105	0x3e31e12c	0.17371053
106	0xbd908ae7	-0.070577435
107	0xbd28811f	-0.041138764
108	0x3d970d70	0.0737561
109	0x3da54bba	0.08071084
110	0x3e15236d	0.14564295
111	0x3d4150f4	0.047196344
112	0x3e3e8151	0.18604018
113	0x3e50e92b	0.20401447
114	0x3dc095c7	0.09403568
115	0xbd120aa5	-0.035654683
116	0x3dc79e3d	0.097469784
117	0xbde3313f	-0.11093377
118	0xbdbf6b12	-0.09346594
119	0xbdd7ddf8	-0.10540384
120	0xbe481163	-0.19537883
121	0x3dc6581b	0.096847735
122	0xbde59a82	-0.11211111
123	0x3dec903a	0.115509465
124	0x3e37cacc	0.17948455
125	0xbd836dd2	-0.06417431
126	0xbca87e32	-0.020567987
127	0xbdc27b0c	-0.094961256
128	0x3d882153	0.06646981
129	0xbd97389f	-0.073838465
130	0xbe0c2690	-0.13686585
131	0x3e06f163	0.13178019
132	0x3c66352c	0.014050763
133	0x3dedb881	0.11607457
134	0xbe3868e4	-0.18008763
135	0xbd3f9ce3	-0.04678048
136	0xbccc44cb	-0.024935147
137	0xbe3ee82a	-0.18643251
138	0x3e2a4adc	0.16630119
139	0x3da63002	0.081146255
140	0x3e1a43e9	0.15064968
141	0xbe6cd698	-0.23128736
142	0x3e748cbd	0.23881812
143	0x3ebb11ed	0.36537114
144	0x3e5ffaed	0.21873064
145	0x3c1ac6ed	0.009446842
146	0x3c8d35cb	0.017237565
147	0xbe4c21ce	-0.1993477
148	0x3dcca206	0.09991841
149	0xbcc48a86	-0.023991834
150	0xbe4c5547	-0.19954406
151	0xbe1572ab	-0.14594524
152	0x3d9aedb7	0.07564872
153	0xbe011bb8	-0.1260823
154	0xbd8161ef	-0.063175075
155	0xbca011de	-0.01953977
156	0xbe26240e	-0.16224691
157	0xbc4d5e02	-0.01253462
158	0xbdc9ee90	-0.09859955
159	0x3e264460	0.1623702
160	0xbe612a14	-0.21988708
161	0xbd18c2f7	-0.037295308
162	0xbe61f924	-0.22067696
163	0x3e3d75a6	0.1850191
164	0xbddba554	-0.10724893
165	0x3de546a3	0.111951135
166	0x3d00dbcd	0.03145962
167	0x3e5dca46	0.21659192
168	0x3dddfbd9	0.10839052
169	0xbde60f63	-0.112334035
170	0x3dbd3c86	0.092400596
171	0x3e091b3f	0.133893
172	0xbe04dbd7	-0.12974487
173	0xbe028a0e	-0.12747976
174	0x3d72fc01	0.05932236
175	0xbd664a54	-0.05622323
176	0x3dc6ed1e	0.09713195
177	0x3ddb76ef	0.10716044
178	0x3d887842	0.06663562
179	0x3e5c8cd0	0.2153809
180	0xbe3a13da	-0.18171635
181	0xbdf82342	-0.121161
182	0xbcc0a722	-0.023517195
183	0x3ddd7ae6	0.10814457
184	0xbdf74f21	-0.120756395
185	0x3cf32a1b	0.029683163
186	0xbd48025b	-0.04883037
187	0x3e0d0934	0.13773042
188	0xbd383300	-0.044970512
189	0x3e19d319	0.15021934
190	0xbdfc59b4	-0.12321797
191	0x3e5d1ad6	0.21592268
192	0x3e058603	0.13039403
193	0xbdb125c5	-0.08649782
194	0xbd75b9e8	-0.059991747
195	0x3d8dfefd	0.06933401
196	0x3ca64f10	0.020301372
197	0xbd8d8016	-0.06909196
198	0x3e6dc766	0.23220596
199	0x3e035754	0.12826282
