demo_mnist/models/AE_mnist16x16.pth (torch_old, 18184 bytes, 11 tensors)

conv1.weight f4 [8, 1, 5, 5]
000000 90 5f 13 be aa 71 fb 3d cf 8f 24 3e 32 91 d0 3d
       -0.14391923 0.12277539 0.16070484 0.10183944
000010 d2 5f e5 3d 93 e5 e9 bd 18 34 b3 bc 06 18 17 be
       0.11199917 -0.11420741 -0.021875426 -0.14755258
000020 88 61 15 bd b8 1d 04 be b2 40 e4 3d a7 77 b0 bd
       -0.036469966 -0.12901962 0.11145152 -0.08616572
000030 99 85 0a 3e e3 da 4a 3e ca 4e a1 3d 42 6e 1a be
       0.13527526 0.19810061 0.07876356 -0.15081123
000040 fa 9a b9 bd f2 d1 e2 3d e0 2a 24 be 01 83 34 3e
       -0.090627626 0.110752 -0.1603198 0.17628099
000050 7e 92 87 3d 79 50 2a 3e e8 f0 d6 3c d8 fd 37 3d
       0.06619738 0.1663226 0.02623792 0.04491982
000060 60 ab ea bd 0c b2 21 3d 40 09 d3 bc 7a 28 e9 3d
       -0.114584684 0.03947644 -0.025761247 0.113846734
000070 98 97 06 bd 00 bd 53 ba cc 7a 35 bd 72 45 b8 3d
       -0.032859415 -0.00080771744 -0.04430656 0.08997621
000080 b1 ab 3f 3e e5 20 2e 3e a8 a1 d6 3c 3f 0a 26 3e
       0.18717839 0.17004736 0.02620013 0.16214846
000090 68 b3 a2 3c 2a a1 e1 3d 2d 43 38 3e cc a9 27 bd
       0.019860938 0.11017068 0.17994376 -0.040933415
0000a0 8e 19 e0 3d d2 bf b8 3d e8 52 f8 3c 8d 8e 36 3e
       0.10942374 0.09020962 0.03031297 0.17827816
0000b0 9b 9b 1c be ec 5c 60 bd 1e 25 8f 3d c0 a9 86 bc
       -0.15293734 -0.054776117 0.069895014 -0.016438365
0000c0 ac a8 70 bd 5a ac a9 bd 53 94 1a 3e da a8 89 3d
       -0.058754608 -0.082848266 0.15095644 0.06721659
0000d0 40 24 be 3c 80 0b 83 bc 6b 79 30 be 4a fd 17 be
       0.023210645 -0.015996695 -0.17233817 -0.14842716
0000e0 f6 a0 26 be 8d 6e 2e 3e f0 20 82 3c 13 df 45 be
       -0.16272339 0.1703436 0.015884846 -0.19323377
0000f0 35 7f 47 be e8 eb 90 3c 83 2a f2 bd 40 7f fc bd
       -0.1948212 0.017690614 -0.11824515 -0.123289585
000100 ec 7b 73 3d 28 1b d1 3c 70 a7 cc 3c 58 23 d0 bc
       0.059444353 0.025525644 0.024982184 -0.025407478
000110 50 34 ae bd a7 e3 04 3e cc da 13 3d 05 34 07 be
       -0.085060716 0.12977467 0.036097333 -0.13203438
000120 f9 f4 05 3e 2e 8d 0c be e8 57 4a bd 80 f5 ed 3a
       0.13081731 -0.13725731 -0.04940024 0.001815483
000130 c7 b2 38 be 50 37 01 bc 37 a2 39 3e 78 9b 3e be
       -0.18036948 -0.007886723 0.18128286 -0.18613994
000140 34 19 4e bd 06 7c 24 be 1e e4 ab 3d 14 db 2c 3d
       -0.050317004 -0.16062936 0.08393119 0.042201117
000150 46 b2 8d 3d ad f2 f4 bd 38 25 0a be b1 99 02 3e
       0.069187686 -0.11960349 -0.1349076 0.12753941
000160 ed 27 a8 bd ea 1e f0 bd fa 9e b5 bd d7 cf 35 be
       -0.0821074 -0.117246464 -0.08868213 -0.17755066
000170 52 3b f6 3d 68 a2 32 bd 86 90 a2 3d 80 8d a6 3a
       0.12023033 -0.043611914 0.07937722 0.0012706965
000180 a0 3f 82 bb 84 4e 73 3d 0a a3 fa bd e4 bc 88 bd
       -0.00397487 0.05940105 -0.122381285 -0.06676653
000190 2d 80 14 3e f9 41 18 3e c9 7b 1e 3e 39 72 02 3e
       0.1450202 0.14868917 0.15476908 0.12738885
0001a0 5f 23 0a 3e 6a 93 1a be a0 9a 29 3c 25 62 24 be
       0.13490056 -0.15095297 0.010351807 -0.16053064
0001b0 35 55 28 be 41 22 46 3e c7 3f 04 3e 38 79 34 3d
       -0.16438754 0.19349004 0.12914954 0.044060916
0001c0 a6 27 bb 3d 00 50 d6 39 98 22 a8 bc aa 96 c9 3d
       0.09138422 0.00040876865 -0.020524308 0.0984319
0001d0 de b0 2c be e0 a5 23 3c f6 b2 c6 3d 0a 51 42 be
       -0.16864344 0.009988278 0.09702103 -0.18976226
0001e0 1f 89 2d 3e 80 f1 25 3c be f8 2b be 28 94 09 3d
       0.16946839 0.010128379 -0.16794106 0.03358856
0001f0 a0 55 7b bd 00 e7 da 3a 74 aa 63 3d d1 76 4c 3e
       -0.061360955 0.0016700923 0.05558248 0.199672
000200 30 b9 06 be 97 a1 f9 bd 31 5c 25 3e 49 e5 1e 3e
       -0.13156581 -0.12189024 0.1614845 0.15517153
000210 a8 7c 21 bd 60 e6 e6 bd f7 f6 3f be 70 65 cc 3c
       -0.039425522 -0.11274409 -0.18746553 0.024950713
000220 b8 25 2a 3d 14 41 1b bd ad 6a aa bd 80 bd 38 be
       0.041539878 -0.03790386 -0.08321128 -0.18041039
000230 e6 b2 f3 3d 6b df 28 3e 52 25 b1 3d 70 c5 d3 bd
       0.118993565 0.16491477 0.086496964 -0.103403926
000240 a4 38 86 bd 7e bc 0b be f5 ec 2c be 71 7d 3c 3e
       -0.06553772 -0.13646123 -0.16887267 0.18407227
000250 54 06 35 bd 68 d9 c1 3c 00 e4 c2 bb 90 8d 08 be
       -0.044195488 0.023663238 -0.00594759 -0.13335252
000260 f2 0b 1e be c5 ed 3b 3e 00 29 ac ba 30 89 3a be
       -0.15434244 0.1835242 -0.0013134778 -0.18216395
000270 4e ec 08 be 00 42 7d bb 56 eb 80 3d e7 f4 38 3e
       -0.13371393 -0.0038644075 0.06294887 0.18062173
000280 82 81 43 be c0 cc d5 bd de e6 02 be 80 84 8f bd
       -0.19092372 -0.104394436 -0.12783381 -0.07007694
000290 fa 9b f4 3d 47 a2 0b 3e d2 b3 fe 3d a6 d3 90 bd
       0.11943813 0.13636123 0.12436642 -0.07071619
0002a0 87 b5 f2 bd c2 e4 0e be f8 04 20 be 60 4c 04 3c
       -0.1185103 -0.13954452 -0.15626895 0.00807485
0002b0 14 66 3a 3d 14 f2 31 bd 22 fc a3 3d 95 e7 06 be
       0.045507506 -0.043443754 0.08007075 -0.13174279
0002c0 25 cc 49 be 0d fa ab bd 02 db e8 3d bf 3c 4a 3e
       -0.19706781 -0.08397303 0.113698974 0.19749735
0002d0 bd 32 3f 3e d0 03 9c bc 63 f5 13 be 95 e4 04 3e
       0.18671699 -0.019044787 -0.14449076 0.12977822
0002e0 d0 a6 60 bc d8 c8 cf 3c 56 bb e6 3d 85 13 3b be
       -0.013711646 0.025364324 0.112662 -0.18269165
0002f0 00 af 95 ba 00 0a e4 39 c0 5f 80 3c 09 66 13 3e
       -0.0011419952 0.00043495 0.015670657 0.14394392
000300 90 5c e0 bd 52 9e 91 3d f6 2a c9 3d d0 b5 ca 3c
       -0.10955155 0.07110275 0.09822647 0.024744898
000310 f0 24 d6 bd 80 9a 1a bc 30 1b bb 3c 57 74 4b 3e
       -0.10456264 -0.00943625 0.022840112 0.19868599

conv1.bias f4 [8]
000000 15 60 26 3e 60 2b 28 be bf d3 23 3e c4 7c 69 3d
       0.1624759 -0.16422796 0.15998743 0.05700375
000010 4a 1a f6 3d 43 cf 24 3e 60 0e 06 3c 67 73 06 3e
       0.12016733 0.16094689 0.008182138 0.1312996

conv2.weight f4 [6, 8, 5, 5]
000000 74 6f 74 bc 0c 98 c2 bc 05 77 14 bd 08 63 43 3c
       -0.014919151 -0.023754142 -0.03624632 0.011925466
000010 2f ea 8e 3d 1c 2d fd bc 6c 4c 00 3d 88 63 1b bc
       0.06978261 -0.030905299 0.03132288 -0.009484179
000020 48 9f fa 3c ea c8 b8 bc ba 3d c6 bc 30 eb d2 3b
       0.03059353 -0.02255674 -0.024199355 0.006436728
000030 50 0d 98 3b 98 a4 e1 3c 90 94 d0 bb 28 cd 9d 3c
       0.004640259 0.027544305 -0.0063653663 0.019262865
000040 15 1d 84 3d 70 4f a0 bc 51 99 51 bd 5b 0a 32 bd
       0.064508595 -0.019569129 -0.051171605 -0.043466907
000050 c0 1c 85 bb f6 ba be bc 62 a7 50 3d 0e ac 0d bd
       -0.004062265 -0.02328251 0.05094088 -0.034587912
000060 90 88 cc bb b8 e3 5d bd 69 2e 80 3d 2e 23 bb bc
       -0.0062418655 -0.054172248 0.06258852 -0.022843923
000070 10 33 c5 bc 24 b2 35 bd e6 86 e1 bc af 51 85 3d
       -0.0240722 -0.04435934 -0.027530145 0.065097205
000080 24 51 0c 3d 6b 52 69 bd 10 75 e8 3b d2 ad 1d bd
       0.03425707 -0.056963366 0.007094033 -0.038495846
000090 06 66 62 3d ca 91 6c bd ab 37 18 bd b5 fa 8c 3d
       0.05527308 -0.057756223 -0.037162464 0.06883756
0000a0 94 40 5e bc e6 2a 46 bd 18 a1 e3 bc 00 d8 3d b9
       -0.013565201 -0.048380755 -0.027786776 -0.00018104911
0000b0 64 fb 46 bd fa bd 2c 3d e6 4e a1 bc aa b5 01 3d
       -0.04857959 0.042173363 -0.019690942 0.03166739
0000c0 8f 69 8b bd 3c 7a 41 3d d4 a4 2c 3d 70 3b 39 3d
       -0.06807243 0.047235712 0.04214938 0.0452227
0000d0 e0 e6 89 3c d4 9f e4 bc 81 b6 8e 3d 50 9d 10 3d
       0.016833723 -0.027908243 0.069684036 0.035306275
0000e0 31 af 89 3d 00 88 e8 bb e6 f8 50 bd 50 78 7d bd
       0.06722868 -0.0070962906 -0.051018618 -0.061882317
0000f0 7a 20 47 bd d5 e6 5d bd 68 e2 31 3c d4 95 0c bc
       -0.048614956 -0.054175217 0.010857202 -0.008580644
000100 ac dc bc 3c df 87 8b bd dc 78 85 bd ee 07 85 bd
       0.023054443 -0.06813025 -0.06517193 -0.06495653
000110 14 d7 21 bc c0 53 05 3c 00 c4 49 3c 1e a3 49 bd
       -0.009877939 0.008137643 0.012314796 -0.049227826
000120 f8 ec 5c 3d 0f b6 90 bd 84 4c 8e 3c 58 4b 4b 3d
       0.05393693 -0.07065975 0.01737047 0.0496324
000130 6c bb 3a bc c4 91 ca 3c 84 44 29 bd 00 2a b6 ba
       -0.011397224 0.02472771 -0.041325107 -0.0013898015
000140 28 6c 4e 3c c0 d2 2b bb 40 23 df 3c 90 80 03 3d
       0.012599029 -0.0026218146 0.027238488 0.03210503
000150 ba b9 25 bd d1 c9 83 bd d8 a2 42 bc e0 56 2c bc
       -0.040460326 -0.06434978 -0.011879645 -0.0105187595
000160 60 a9 29 3b 98 2b 6d bd 88 db af 3c 90 73 0e 3c
       0.002588831 -0.057902902 0.021466985 0.008694544
000170 e4 f5 2a bd 04 94 f9 3c 06 69 24 bd b0 03 f6 bc
       -0.041738406 0.030466087 -0.04013922 -0.030031055
000180 55 50 05 bd a0 41 c5 bc f3 49 0a bd 40 48 f4 3a
       -0.032547314 -0.024079144 -0.03376193 0.0018637255
000190 2c 93 fc 3c 64 ab 4e bd 20 a7 5b 3d 03 85 89 3d
       0.030831896 -0.05045642 0.05362618 0.06714823
0001a0 46 fa 82 bd e1 c9 2d bd 52 ef 69 3d 88 ac bb 3c
       -0.06395392 -0.042428855 0.057113 0.022909418
0001b0 0c 19 be 3c 50 53 7e bc d4 63 92 bc 58 77 80 3c
       0.023205303 -0.015522793 -0.017869867 0.015681908
0001c0 0e 17 53 bd 64 2d 91 bc 0c 96 81 3c cc c0 11 bd
       -0.05153566 -0.01772184 0.015818618 -0.035584256
0001d0 f6 b6 37 3d c0 95 ea bb c0 64 f0 ba 00 46 4e 3d
       0.04485222 -0.007158965 -0.0018340573 0.050359726
0001e0 5c e7 76 bc 74 96 a1 bc e2 81 45 3d ee 3d 35 bd
       -0.015069809 -0.019725062 0.04821957 -0.044248514
0001f0 c0 45 e7 ba 9e fe 87 bc 48 9f 1b 3c d0 ac f8 3b
       -0.0017644688 -0.016600903 0.009498425 0.00758896
000200 b4 a2 0c 3d 1f 8b 0e bd a1 69 84 3d ee d5 7c 3d
       0.034334853 -0.034800645 0.064654596 0.061727457
000210 78 d0 d5 3c 12 1f 53 3d d0 b8 32 3c 80 27 c3 bc
       0.026100382 0.051543303 0.010908321 -0.023822546
000220 d5 74 78 bd 88 fa 29 bd e0 6f 4c 3d dc 9f 86 bd
       -0.060658295 -0.04149869 0.04991138 -0.065734595
000230 42 e4 d8 bc a8 6f a1 bc da 70 47 bd f0 1d b0 bb
       -0.02647603 -0.019706562 -0.048691608 -0.0053746626
000240 30 79 b1 bb 8a dd d8 bc 7c c9 a1 3c d0 1d a2 bb
       -0.005416058 -0.026472826 0.019749396 -0.0049474016
000250 d4 14 d8 bc a3 30 06 bd 2b eb 88 bd e0 e2 57 bc
       -0.02637712 -0.032761227 -0.0668548 -0.01317665
000260 04 27 b0 3c a0 c5 f6 bb f2 6f a0 bc 68 73 70 bd
       0.02150298 -0.007530883 -0.01958463 -0.05870381
000270 0f 1d 1a bd 04 5f 24 3d e2 61 5f 3d c8 86 a2 3c
       -0.03762537 0.040129676 0.054536708 0.01983966
000280 1a cf 57 3d 97 28 8b 3d f0 0e 69 3c 26 af 03 bd
       0.05268774 0.06794851 0.014224753 -0.032149456
000290 ee dd 08 3d a4 72 1f 3d 94 0e d8 3c 0e b3 7e bd
       0.033414774 0.03892769 0.026374139 -0.06218248
0002a0 ec 3c db 3c 5b c8 85 3d a2 50 7c 3d b3 4d 0f bd
       0.026762448 0.065323554 0.061600335 -0.03498621
0002b0 38 dc 3c bc 78 7a 8c bd 46 0d 32 bd 59 4b 69 bd
       -0.011527114 -0.068592966 -0.04346969 -0.056956623
0002c0 93 c9 73 bd 29 eb 85 3d 10 ba 9f 3b 59 1d 80 3d
       -0.059518408 0.06538994 0.0048744753 0.062555976
0002d0 dc 9b 3f bc d2 07 7f 3d b7 4a 8c bd b4 8b 02 3d
       -0.011694875 0.062263317 -0.06850188 0.031871513
0002e0 c0 fc 8a 3b e8 c9 5a 3c e0 06 29 3d d6 50 08 bd
       0.004241556 0.013353802 0.041266322 -0.033280216
0002f0 da 9f 89 bd 42 15 37 3d 3f a2 82 bd c4 e9 4b 3d
       -0.067199424 0.044698007 -0.06378602 0.049783483
000300 de e5 25 bd 70 b1 82 bb 65 d7 8f 3d 5c 0a 64 bd
       -0.04050242 -0.0039884374 0.07023505 -0.055673942
000310 3f 9f 7d bd 30 f5 a6 bb 92 1d 8d bd be 1a 7a 3d
       -0.061919447 -0.0050951466 -0.06890406 0.06106066
000320 8a 52 36 bd 40 84 89 3b 64 98 67 bc 35 92 54 bd
       -0.04451231 0.0041966736 -0.014135454 -0.051897246
000330 5a 55 72 3d 86 45 47 3d aa 32 4d 3d f4 85 bf bc
       0.05916343 0.048650287 0.050097145 -0.023379304
000340 20 88 8f bb 5e 4e 1f 3d e0 e0 9e 3b 36 08 72 3d
       -0.004380241 0.038893096 0.0048485845 0.05908986
000350 df d9 83 bd 3a 5a 6b 3d 9f 5f 5f bd 03 3d 1c bd
       -0.0643804 0.057459094 -0.05453455 -0.038144123
000360 b2 ba 12 3d 0a 64 ac bc bb 4b 7a bd 50 4c 22 3c
       0.035822578 -0.021043796 -0.06110738 0.00990589
000370 b2 a8 3b bd 24 53 34 3d 48 e9 18 3d 7c ad 03 3d
       -0.045815177 0.0440246 0.03733185 0.03214787
000380 c0 cc fb bb 22 de 0a 3d ec fa 23 bc 58 c7 25 bc
       -0.00768432 0.03390325 -0.010008555 -0.010118328
000390 47 fc 82 bd e1 ab 7b bd 38 6e 68 bd a0 07 8e 3c
       -0.06395774 -0.061443213 -0.056745738 0.01733762
0003a0 9f 42 81 3d 68 c5 17 bd ad e3 81 3d b0 9e 84 3b
       0.06311535 -0.037053496 0.06342254 0.0040472373
0003b0 a0 83 50 3b 98 88 3d bd 34 e7 0f bc 51 aa 20 bd
       0.0031816736 -0.046272844 -0.00878315 -0.039224926
0003c0 c0 41 6f 3b ca ce 28 3d 00 25 13 3c fb 09 8f 3d
       0.0036507696 0.041212834 0.008980989 0.069843255
0003d0 50 3c 15 bc ac 2e 8d bd 3e 69 36 3d 15 98 36 bd
       -0.009108618 -0.068936676 0.04453396 -0.04457863
0003e0 cc 60 2f bc 14 6f 30 bd 8b d8 86 bd fb 59 01 bd
       -0.0107042305 -0.043074682 -0.06584271 -0.031579953
0003f0 4a e4 06 3d 60 02 5c bd 60 ec 77 3c b1 6b 04 bd
       0.032932557 -0.053713202 0.01513204 -0.032329265

conv2.bias f4 [6]
000000 97 0c 6b bd 64 30 05 3d 20 89 5d 3b 10 40 60 bc
       -0.057385053 0.032516852 0.0033803657 -0.013687149
000010 7e 99 da bc 96 d7 6d 3d
       -0.026684519 0.058066927

conv3.weight f4 [4, 6, 5, 5]
000000 60 06 6d 3d 0c bc c3 bc 20 b4 36 bc d0 c5 4e 3d
       0.057867408 -0.023893379 -0.011151344 0.050481617
000010 70 00 27 3d c4 bd a0 3d b9 53 3a bd 5c fb a0 3d
       0.0407719 0.07848695 -0.04549 0.07860443
000020 d4 b0 77 bd 0e 0e f1 bc c6 88 6e bd c5 a4 94 bd
       -0.06047137 -0.029425647 -0.058235906 -0.0725799
000030 f4 65 25 3d 3c b8 45 3d 1c 25 87 3c 5c 60 6f bd
       0.040380433 0.048271403 0.016497187 -0.058441505
000040 00 79 d8 ba 80 59 91 bc 9e da 9d 3d 70 3d a2 bd
       -0.0016515553 -0.017742872 0.077077135 -0.079218745
000050 28 21 a3 3d 19 d4 81 bd 58 db 19 bc ae a7 a6 bc
       0.079653084 -0.063392825 -0.0093906745 -0.020343628
000060 50 03 7a bd 52 f5 14 bd 98 43 23 3c 4c 3a 48 3d
       -0.061038315 -0.03636677 0.009964846 0.04888372
000070 38 f9 74 bc fa 66 8a 3d f8 c5 88 bd d9 7d 0f bd
       -0.0149519965 0.067579225 -0.066783845 -0.035032127
000080 60 5e 46 3d 34 45 0d 3d 20 21 8c bc c0 99 8d ba
       0.048429847 0.034489825 -0.017105639 -0.0010803267
000090 37 cb 9c bd d8 ab 45 bc cc e8 9e 3c 08 ff 81 3d
       -0.07655948 -0.0120648965 0.019398116 0.063474715
0000a0 d0 7d 66 3c c0 d9 53 3d 70 77 5f bd f2 2d 11 3d
       0.014068082 0.051721334 -0.054557264 0.035444207
0000b0 b0 16 ed bb b4 c2 a6 3d 44 db a5 3d 28 85 6c bd
       -0.0072353706 0.081426054 0.08098462 -0.057744175
0000c0 69 08 a4 bd 00 40 80 ba be 27 12 bd 2e 19 ef bc
       -0.080094166 -0.0009784698 -0.035682432 -0.029186811
0000d0 f4 73 7c bd d8 bc 9d bd 28 c1 2a 3d 78 b4 49 bc
       -0.06163402 -0.07702035 0.041688114 -0.0123110935
0000e0 dc 20 fe bc 2c 11 79 bd b2 f1 2d bd 64 a8 87 3c
       -0.031021528 -0.060807392 -0.042466827 0.016559787
0000f0 98 e3 56 3d 57 ac 47 bd 40 9b e4 3c f0 55 d5 bb
       0.052463144 -0.04874834 0.02790606 -0.0065104887
000100 10 2d aa bb 08 9b 77 bd dc ed 83 3d fe 22 56 bd
       -0.00519336 -0.060450584 0.064418525 -0.052279465
000110 24 61 5c 3d 58 04 33 3d a0 3f 8c 3d 10 e7 98 bb
       0.053803578 0.043705314 0.06848073 -0.0046662167
000120 80 74 15 3a b7 69 27 bd b8 e9 58 bc 27 ff 8a bd
       0.0005701259 -0.040872302 -0.013239317 -0.06786948
000130 ec f8 54 3d ba 98 74 bd 7a 32 5f bd fd b8 29 bd
       0.051995203 -0.059715964 -0.054491498 -0.041436184
000140 40 08 f6 ba 24 81 4d bd 1f 5f 6f bd 78 5a 09 bd
       -0.0018770769 -0.050171986 -0.058440324 -0.033533543
000150 d0 81 9d 3c 14 f3 bc 3c 34 06 6e bd 2c bf 71 3d
       0.019226938 0.023065127 -0.058111385 0.059020206
000160 60 48 45 3d c2 f5 10 3d 99 d0 5a bd 8e cd 68 bd
       0.048164725 0.035390623 -0.05342159 -0.056836657
000170 70 e7 9a 3d de a0 c2 bc c4 52 dc bc fa 15 da bc
       0.075636744 -0.023758348 -0.026894934 -0.026621807
000180 5a 21 a6 3d 78 4d 44 bd 1e b1 a0 3d be 3b 6c bd
       0.0811183 -0.047925442 0.078462824 -0.057674162
000190 0c 86 39 3d 20 44 87 bb 70 ed 1f 3d 20 c6 e6 3b
       0.045293853 -0.004127994 0.039044797 0.0070426613
0001a0 a0 1f aa bc f4 82 c9 3c 98 26 69 bc be 0c 37 bd
       -0.020767033 0.024598576 -0.014230393 -0.044689886
0001b0 9c 53 d7 3c f4 a8 78 3d 23 29 07 bd 0a f7 54 bd
       0.026284985 0.060708 -0.032998215 -0.051993407
0001c0 d2 db 99 3d 54 ba 62 3d 20 b4 57 bd 38 5e 44 bc
       0.075126305 0.055353478 -0.052662015 -0.011985354
0001d0 e0 fa 11 bc a0 fc e2 3b d0 57 a3 bb 30 e7 30 3c
       -0.008909911 0.006927088 -0.0049848333 0.010797307
0001e0 9c 19 7d bd 43 3d 56 bd 0c 79 14 3d 80 48 a3 3a
       -0.061792 -0.052304517 0.03624825 0.001245752
0001f0 e0 ad 87 3b 9f 2c 87 bd c0 ea 43 3d 48 7e 1a 3d
       0.0041406006 -0.06600308 0.047831297 0.037718087
000200 b0 64 2e 3d 82 d4 91 3d 08 94 29 3c 49 5e 31 bd
       0.04257649 0.07120611 0.010350235 -0.043302808
000210 2a 30 75 bd e6 43 b4 bc 9c 7f 09 3d 12 4e a4 3d
       -0.059860386 -0.022005033 0.033568963 0.08022703
000220 c8 db e1 bc 92 43 bf bc 50 e2 36 3d f7 6e 3f bd
       -0.02757062 -0.02334765 0.044649422 -0.046736684
000230 80 5b 91 3b 3e 96 1b 3d c0 d5 9a 3a a4 d6 6b 3d
       0.0044359565 0.03798508 0.001181297 0.057577744
000240 4e bf 94 3d b0 56 c5 bc 68 e3 29 3d 4f 4f 92 bd
       0.07263051 -0.024089187 0.041476637 -0.07144033
000250 15 6f 9f bd 30 e8 1d 3d 1c 0d 3f 3d e0 ba 6d 3c
       -0.07784859 0.03855151 0.04664336 0.0145098865
000260 b0 f3 95 bb 80 6c 38 3d 44 33 e5 3c 37 1c a1 bd
       -0.004576169 0.04502535 0.027978547 -0.0786671
000270 43 c1 99 bd 68 33 1f bd b8 f9 7d bc 67 25 98 bd
       -0.07507565 -0.038867384 -0.015501432 -0.07429009
000280 b0 f8 ad bc 26 5d 8b 3d 5c 29 39 3d 9c 85 42 3d
       -0.021236748 0.06804876 0.04520546 0.0474907
000290 cc e4 d9 3c 50 2a 85 3d 70 81 ef bb c0 57 24 bb
       0.026598357 0.06502211 -0.0073091313 -0.0025076717
0002a0 e2 3b 79 bd 3e c4 b8 bc 7c 2f 70 3d 68 49 02 bd
       -0.060848124 -0.022554513 0.058639035 -0.031808287
0002b0 60 c8 f2 3c 1e e8 61 bd 78 7b 45 3d 3c 31 8c 3d
       0.029636562 -0.055153005 0.048213452 0.06845328
0002c0 60 33 4c 3d 7c a0 97 bd 36 1b 85 bd d4 9f 53 bd
       0.049853683 -0.07403657 -0.06499331 -0.051666096
0002d0 a4 3b 21 bd 6a c1 84 bd 60 2e 72 bc ab 12 2d bd
       -0.03936352 -0.06482203 -0.0147815645 -0.04225413
0002e0 38 c8 8a 3d 08 cf 0c 3d da 81 80 3d 86 34 8d 3d
       0.0677647 0.034377128 0.06274767 0.06894784
0002f0 cc 07 86 bd 24 c8 fe bc 80 db 81 bc ce 09 77 bd
       -0.06544456 -0.031101294 -0.015851736 -0.060312085
000300 cb 2a 39 bd 8e 9b 98 bd f8 00 f6 3c c8 e6 73 3d
       -0.045206826 -0.07451545 0.030029759 0.059546262
000310 60 95 a4 3c c8 01 81 bc 88 3a ce bc af 3c 58 bd
       0.020090759 -0.01574792 -0.025174394 -0.052792247
000320 0c 8d 52 3d ea 05 95 3d d4 9e 73 bd d2 b9 c6 bc
       0.051404044 0.07276519 -0.059477642 -0.024258528
000330 8c e3 f4 bc a6 24 84 bd b0 3c 05 bd 80 07 3c bc
       -0.029893659 -0.06452303 -0.03252858 -0.0114763975
000340 04 aa fd 3c a2 fa d0 bc ed 02 19 bd fa d7 f6 bc
       0.030964859 -0.025510136 -0.037356306 -0.030132283
000350 c0 ad 0d bc cf 1d 99 bd 46 a8 6b bd dd 82 16 bd
       -0.008647382 -0.07476389 -0.057533525 -0.036745895
000360 1b fc 98 bd f0 f0 93 bb 94 67 81 3c 58 69 6a bc
       -0.0746996 -0.004514806 0.01579646 -0.0143073425
000370 b8 5e 8e bd d2 95 88 bd 80 18 96 bc fe c6 91 bd
       -0.0695166 -0.06669201 -0.01832223 -0.07118033
000380 5c 94 60 3d 12 d2 a5 bd d6 a2 90 bd 17 84 91 bd
       0.054828987 -0.08096708 -0.070623085 -0.07105272
000390 df 05 0a bd 76 2a fd bc 72 2e 89 3d b4 0d 6a bd
       -0.033697005 -0.030904036 0.06698312 -0.057141975
0003a0 90 4d 57 bd d0 32 a7 bc 76 ce da bc ea 00 90 bd
       -0.052564204 -0.020409971 -0.026709776 -0.07031424
0003b0 81 ff 0a bd 6a f7 8c bd 34 cb 3c 3d cc 1a a5 3d
       -0.033935074 -0.06883128 0.046092227 0.08061752
0003c0 38 91 f4 3c 95 56 82 bd 5a e9 8e 3d cd f9 9c bd
       0.029854402 -0.063641705 0.06978102 -0.07664833
0003d0 d0 ce d8 bb d8 fd 98 3d 68 d1 11 3d 5c 2a 94 bd
       -0.006616451 0.07470292 0.035600096 -0.07234642
0003e0 ee 2b 20 bd 98 d3 71 bc fe c0 5b bd 34 d3 f5 3c
       -0.039104395 -0.014759921 -0.05365085 0.030007936
0003f0 40 36 5a bb d4 cc 5a 3d 22 97 a4 3d 1e ec be bc
       -0.0033296496 0.053417996 0.08036639 -0.023305949

conv3.bias f4 [4]
000000 b0 98 9d 3d ac 85 c8 3c 08 00 5e bd 3b a7 0a bd
       0.076951385 0.024477802 -0.05419925 -0.03385089

conv_transpose1.weight f4 [4, 6, 5, 5]
000000 cc cd 9f 3d f8 ac 4d bd 00 09 70 3b 08 08 4a bc
       0.078029245 -0.050213784 0.0036626458 -0.012331016
000010 a1 5d 3d bd 5c 98 84 bd ea 2a 94 3d fc 16 7f 3d
       -0.04623187 -0.06474373 0.07234748 0.06227778
000020 4a c1 4e bd e0 01 29 bb ac 22 e7 bc a0 26 91 bc
       -0.050477304 -0.002578847 -0.028214775 -0.017718613
000030 00 6c c4 38 60 9d 71 3d cd 76 55 bd 92 17 53 bd
       9.366125e-05 0.058987975 -0.05211525 -0.05153615
000040 bc e1 57 3d 66 ba 0a 3d b2 af 84 3d 70 54 6e 3d
       0.05270551 0.03386917 0.06478824 0.058185995
000050 86 32 a3 bd 26 3e 29 3d 6c 7a 46 3d 9a d9 aa bc
       -0.07968621 0.041319035 0.048456594 -0.020855714
000060 b2 ac a2 3d 99 e0 90 bd bc fa 68 3d aa e1 ff bc
       0.07943095 -0.070740886 0.056879744 -0.031235535
000070 76 b0 71 bd 5c 97 84 bc 0b a5 54 bd d8 5e d2 3c
       -0.059006177 -0.016185455 -0.05191521 0.02567999
000080 b0 bf 76 3c 28 33 7b 3d 4b 96 88 bd 90 b8 78 bc
       0.01506035 0.061328083 -0.06669291 -0.015180722
000090 40 12 74 3c 2b b9 9a bd a3 ff 3f bd 90 b0 9f 3c
       0.014896929 -0.07554849 -0.046874654 0.019493371
0000a0 48 6b 28 3c 5a 2e c5 bc 70 a4 cc 3b 80 3f ff 3a
       0.010279484 -0.024069954 0.0062451884 0.001947388
0000b0 18 74 6e bc 01 a1 36 bd 41 53 5e bd be d4 a2 3d
       -0.014554046 -0.04458714 -0.054278616 0.079507336
0000c0 d8 c9 1f 3d 20 dc e6 3c a9 71 02 bd 80 63 f0 3c
       0.039010853 0.028181136 -0.031846676 0.02934432
0000d0 3e 2f af bc e0 0a 87 3b b8 50 b7 3c b6 41 52 bd
       -0.021384832 0.0041211694 0.022377357 -0.051332198
0000e0 20 cc d7 3c 18 7c 2c 3c 4c 8a c7 bc cc 0b c8 3c
       0.026342452 0.010527633 -0.024357937 0.024419688
0000f0 86 5e 21 bd 1f 06 00 bd 9e 4f c8 bc b0 0b ea 3c
       -0.039396785 -0.031255838 -0.024452027 0.028570026
000100 b0 93 95 bc 58 f2 a2 3d 20 d3 42 bd a2 e2 08 3d
       -0.0182589 0.0795638 -0.047564626 0.03341926
000110 a0 33 12 3d c6 b7 2c 3d 28 79 d0 3c a0 ab f0 3b
       0.035693765 0.042167448 0.025448397 0.007344678
000120 a8 a6 cd 3c 76 9c 95 bd 00 b0 d0 ba 43 af 32 bd
       0.025103882 -0.07305233 -0.0015921593 -0.043624174
000130 12 ff 8d bd 97 2f a0 bd 4e ad 76 bd ac 8f a6 bd
       -0.069334164 -0.07821577 -0.06022387 -0.08132872
000140 31 45 02 bd 58 cc 65 bd 34 0f 41 bd 0e ea 95 3d
       -0.031804267 -0.05610308 -0.04713364 0.07320033
000150 3a eb 40 bd f0 5a 6a bc 24 e2 44 bd 70 35 0d 3d
       -0.04709933 -0.014303908 -0.048067227 0.03447479
000160 80 08 9d 3d ca 30 5a bd a6 e7 8f 3d 38 f6 ff 3c
       0.07667637 -0.053269185 0.07026605 0.031245336
000170 e9 8b 1d bd b6 4a 1b bd 58 ad 41 3c a4 78 53 3d
       -0.038463507 -0.037913047 0.0118211135 0.051628724
000180 68 b0 52 bd e8 31 a4 3c e0 50 3b 3d 1e 50 74 bd
       -0.051437765 0.020043328 0.045731425 -0.05964672
000190 66 48 e4 bc 87 ef 00 bd 00 87 e3 3b b2 2f 9a 3d
       -0.027866554 -0.03147843 0.0069435835 0.075286284
0001a0 10 be 28 3c 40 07 ff bb 28 55 7d 3d a4 f1 49 3d
       0.010299221 -0.0077828467 0.06184879 0.049302712
0001b0 20 7b 3e 3b e8 a9 94 3c a8 f8 7a bc 30 23 81 3d
       0.0029065087 0.018147424 -0.015318073 0.063055396
0001c0 74 30 14 bd b2 94 1d 3d c0 0c b2 3b d8 3a 3f 3d
       -0.03617902 0.038471885 0.005433649 0.046686977
0001d0 ca 5b 83 3d 00 00 5d b6 88 b5 bc bc b5 aa 00 bd
       0.06413992 -3.2931566e-06 -0.02303578 -0.0314128
0001e0 fc fd 67 bd 26 aa 9e 3d 48 e4 39 bd f8 f7 3c 3d
       -0.056638703 0.07747297 -0.04538372 0.04613492
0001f0 bb a5 5e bd bc be 62 3d 50 94 82 bc ee e6 f0 bc
       -0.05435727 0.05535768 -0.015939862 -0.02940699
000200 e8 c2 72 3c a8 f5 6a 3d 30 47 97 3b 10 65 5b 3d
       0.014816977 0.057363182 0.0046166405 0.053563178
000210 af f7 3a bd 5c 8c 7b 3d 4e 03 a7 bd a0 16 a8 bb
       -0.045646366 0.061413154 -0.08154927 -0.0051296502
000220 a0 65 d0 bc 7e e8 c2 bc 69 1a 42 bd b1 db 8d bd
       -0.025439084 -0.023792502 -0.047388468 -0.069266684
000230 40 86 c3 3b 28 21 98 bc 7b bf a5 bd ec b5 45 bd
       0.0059669316 -0.018570498 -0.080931626 -0.048269197
000240 1f 37 0c bd e4 39 9f 3d 70 e2 14 3c b0 d8 3c 3d
       -0.034232255 0.07774714 0.00908719 0.046105087
000250 c0 f0 e4 3b 80 8c 88 bd 44 cf 49 3d e8 0b 90 3c
       0.0069867074 -0.06667423 0.04926993 0.017583802
000260 80 a9 fa 3b 00 59 cc ba 6e 65 04 3d e0 2c c2 bb
       0.0076496005 -0.0015590489 0.032323293 -0.0059257597
000270 c0 26 ba bb 98 3d be bc f4 78 5d 3d d8 0b dc 3c
       -0.005680889 -0.02322273 0.054070428 0.026861116
000280 fb 50 5b bd cc 94 7b 3d ae 98 8d bd f9 46 35 bd
       -0.053544026 0.0614212 -0.06913887 -0.044257138
000290 20 9a 4a 3b 60 26 a4 bd 9c 50 fd 3c 34 e7 39 3d
       0.003091462 -0.08015132 0.030922227 0.045386508
0002a0 d8 70 6a 3d 14 fd 7e 3d 18 99 11 3d 50 94 11 bd
       0.057236522 0.062253073 0.035546392 -0.035541832
0002b0 42 59 8d bd a8 75 19 3c 80 49 81 ba 5c 9e 0d bd
       -0.0690179 0.00936643 -0.0009863824 -0.03457485
0002c0 b2 89 96 bd e8 9d 78 bc 64 68 73 3d 78 79 32 3d
       -0.07350482 -0.0151743665 0.059425727 0.043572873
0002d0 d8 f4 27 bd 70 1c 55 bd e6 87 c8 bc ac a3 22 3d
       -0.041004986 -0.052029073 -0.024478864 0.03970687
0002e0 a0 47 d7 3c b8 ea 99 3c cc 5e 02 3d c2 5e 31 3d
       0.02627927 0.01878868 0.031828687 0.04330326
0002f0 06 32 71 bd 9c 2f 77 3d bc 64 23 3d 21 46 36 bd
       -0.058885597 0.06034814 0.03989099 -0.044500474
000300 78 e0 72 3c ed af 43 bd 68 cb ef 3c 00 9b 4e 3b
       0.014824025 -0.047775198 0.029271796 0.0031525493
000310 94 f8 98 3c 7c b5 55 3d 59 a4 16 bd 71 f2 20 bd
       0.018673219 0.05217503 -0.036777828 -0.03929371
000320 80 d2 0a 3b 58 79 d5 3c 88 24 72 3c 70 5b 23 3d
       0.0021182597 0.026058838 0.014779218 0.039882123
000330 40 d2 c1 bb a0 99 1e bb 72 fd 08 3d ac cc 8d bd
       -0.0059149563 -0.0024200454 0.03344483 -0.06923804
000340 1a fd b9 bc a4 77 4d bd 20 a1 5e 3b 54 7f 7a bd
       -0.022703696 -0.050162926 0.003397055 -0.061156586
000350 20 7d 14 3b e0 5c 8c 3d f6 2c 26 3d c0 37 6c bc
       0.0022657588 0.06853652 0.04057022 -0.014417589
000360 a8 1e 45 3d a8 0a 02 3d 44 e7 9e bd 96 97 eb bc
       0.04812494 0.031748444 -0.07758954 -0.028758805
000370 af d2 03 bd 9e 87 71 bd b0 5d 2a bd 36 58 83 bd
       -0.032183345 -0.058967225 -0.041593254 -0.06413309
000380 00 02 dc 3a e0 0b 12 bb 82 eb 93 3d 58 20 83 bd
       0.0016785264 -0.002228491 0.07222654 -0.064026535
000390 98 4c 87 3d 34 5a 89 bd 00 a8 b3 39 8a 3a 52 bd
       0.06606406 -0.06706658 0.0003426671 -0.05132536
0003a0 60 a6 c0 3b ec 8f c3 bc a0 98 88 bd 98 18 c8 3c
       0.0058792084 -0.023872338 -0.06669736 0.02442579
0003b0 d8 b3 cb 3c 6d b5 00 bd e8 73 8d bd 26 6c c1 bc
       0.02486603 -0.03142302 -0.06906873 -0.02361114
0003c0 22 56 6f bd 20 f1 7f 3c d3 4c 8f bd 03 fc 3a bd
       -0.058431752 0.0156214535 -0.06997075 -0.045650493
0003d0 a9 12 0f bd d6 bb 83 3d b4 fd 1e 3d c3 67 4e bd
       -0.034929905 0.06432311 0.03881617 -0.050391924
0003e0 64 7b bb 3c 7e 76 2b 3d 1c 4b 8a 3d 4e 39 4a bd
       0.022885986 0.04186105 0.06752607 -0.049371056
0003f0 c2 a1 9e 3d d8 22 9a bd fa e7 9f bd 5a 85 0e 3d
       0.077456966 -0.07526177 -0.07807918 0.034795143

conv_transpose1.bias f4 [6]
000000 89 0b a7 bd b0 8c af bb 96 ae 94 bd aa aa 04 3d
       -0.08156497 -0.0053573474 -0.07259862 0.03238932
000010 5c a3 bd 3c 22 d1 a4 bd
       0.023149185 -0.080477014

conv_transpose2.weight f4 [6, 8, 5, 5]
000000 3a fa 6f bd 30 2d a7 3c 57 fd 8f 3d 10 7c 20 3d
       -0.058588244 0.02040729 0.070307426 0.039180815
000010 a0 63 56 3d b2 3a 61 3d 35 3d 85 3d c0 df b0 bb
       0.052341104 0.054987617 0.06505815 -0.005397767
000020 44 df 2c bc f3 06 87 3d 88 c7 98 bc 5c d9 02 3d
       -0.010551278 0.06593122 -0.018649831 0.03194557
000030 7c 76 9c 3c 80 18 22 ba 68 a2 24 3d 9e 57 88 bd
       0.019099467 -0.00061834604 0.040193945 -0.06657337
000040 d0 3c 73 3c 15 51 85 3d 80 55 51 3b c3 d1 83 3d
       0.014846042 0.06509606 0.003194183 0.06436493
000050 78 63 2e 3d 5c e7 8f 3c 9a 85 55 bd 80 40 64 bb
       0.04257533 0.017566375 -0.052129366 -0.0034828484
000060 fc eb 4f 3d 9c a4 95 bc ed 6d 70 bd 71 46 8a 3d
       0.05076216 -0.018266968 -0.058698583 0.06751717
000070 be d9 66 3d 86 10 2c 3d 02 a6 1b bd 10 0b d7 3c
       0.05636 0.042007945 -0.038000114 0.026250392
000080 b6 30 0c 3d ba bf 7e 3d e1 22 20 bd 00 7f 10 bb
       0.034226142 0.062194563 -0.039095763 -0.0022048354
000090 b0 64 b6 3b d3 c7 68 bd a5 e1 8b bd 01 59 85 3d
       0.005566202 -0.056831192 -0.06830148 0.06511117
0000a0 3c 70 88 bc 60 54 b6 3b 26 74 8a bd 40 65 8f bd
       -0.01665508 0.0055642575 -0.06760435 -0.07001734
0000b0 34 f0 0c bd 6a 66 04 bd a6 d2 16 bd d8 9c 87 bd
       -0.034408763 -0.032324232 -0.036821984 -0.066217124
0000c0 c8 73 f4 bc a0 2f 7f bc 76 eb 68 bd 80 9a 09 ba
       -0.029840365 -0.0155753195 -0.056865178 -0.00052491575
0000d0 48 3b 0f 3c b9 d5 0d bd e6 c6 f1 bc ce 8f 31 bd
       0.008742161 -0.03462765 -0.029513787 -0.043350033
0000e0 95 16 8b 3d a6 7a 08 3d 00 20 93 39 32 d4 29 bd
       0.067914166 0.03332009 0.00028061867 -0.04146213
0000f0 a8 05 e9 3c 87 3d 0c bd fb 1b 81 bd 11 34 81 bd
       0.02844508 -0.034238365 -0.06304165 -0.06308759
000100 a2 21 63 3d f0 ca bf 3b 48 1d 64 bd b8 58 84 3c
       0.055451997 0.0058530495 -0.055691987 0.016155586
000110 a6 ef ce bc 5c f4 bd 3c b0 cc 2a 3c b3 12 8f 3d
       -0.025260758 0.023187809 0.010424778 0.069859885
000120 68 55 fe 3c 6d 21 50 bd 92 e5 79 3d 04 ba 3d 3d
       0.031046584 -0.050813127 0.06100995 0.046319976
000130 6f b6 6f bd b0 22 cd bb f2 49 80 bd 54 b9 11 bd
       -0.05852359 -0.0062602386 -0.06264104 -0.035577133
000140 e4 b2 a9 bc 61 ef 73 bd 78 0f 40 bc ea b4 42 bd
       -0.020715185 -0.05955446 -0.011722438 -0.047535814
000150 80 ae c5 bb b6 56 5e 3d a8 88 2f 3d e0 0a 51 3d
       -0.006032765 0.054281913 0.042854935 0.05103576
000160 58 15 e0 3c 6e ed c2 bc 64 37 b8 3c 3c 61 64 bd
       0.027353927 -0.023794856 0.02248735 -0.055756792
000170 5e e0 f0 bc d6 6d 80 bd c0 6c 12 bc 24 9e 41 bc
       -0.029403862 -0.062709495 -0.008937061 -0.011817489
000180 3a 81 77 3d dd ed 0d bd b0 2a 03 3d 68 56 bf 3c
       0.060425974 -0.034650672 0.03202313 0.023356631
000190 64 c3 8c 3c 64 52 8c 3c ba 7d b1 bc e8 c7 ee 3c
       0.017183013 0.01712913 -0.021666396 0.029148057
0001a0 b0 38 14 3c 4a 30 2d 3d 7e 83 06 3d 30 70 75 bd
       0.0090467185 0.04228238 0.032840244 -0.059921443
0001b0 40 10 d6 3c 42 6b 47 3d 56 30 0f 3d 94 94 3b bc
       0.026130795 0.048686273 0.034958206 -0.011448998
0001c0 59 4a 88 bd 4c c4 30 3d a0 9c 70 3c 48 fa 8a 3c
       -0.06654806 0.043155953 0.01468578 0.016965047
0001d0 8c 3e a3 bc 44 26 3f bc 9e 38 66 3d 04 73 80 bc
       -0.019927286 -0.011666838 0.056206338 -0.015679844
0001e0 10 4c be 3b 5c 99 c1 3c 6a c6 b5 bc d0 0d c3 3b
       0.005807407 0.023632698 -0.022189338 0.0059525743
0001f0 c8 f7 4d bc e4 83 3f bc fa 23 33 3d e8 b7 1d 3d
       -0.012571283 -0.01168916 0.04373548 0.038505465
000200 f8 8c 7d bd 4e f9 2f bd 22 98 43 bd 16 c3 51 3d
       -0.061902016 -0.042962365 -0.047752507 0.05121144
000210 5a 3e 3f bd 40 77 75 bb 91 05 8e bd d8 0d 77 bd
       -0.046690322 -0.0037455112 -0.069346555 -0.060315937
000220 34 05 df 3c 08 14 1c bc 18 e3 80 3c dc a6 cb bc
       0.02722416 -0.00952626 0.015733287 -0.024859838
000230 7e 51 8f bc 36 86 7c 3d 0b 75 8a 3d 78 f6 1c bc
       -0.017494913 0.06165143 0.067606054 -0.009580247
000240 70 33 f3 3b a0 7d d7 3b b7 59 0c bd cc fb 5a 3d
       0.0074219033 0.006576255 -0.034265246 0.05346279
000250 c6 1c 00 3d e0 94 2c bb fe ec 7f 3d 79 4c 87 bd
       0.03127744 -0.0026333854 0.062481873 -0.06606383
000260 12 30 67 bd e8 ee f8 bc eb 9f 7e bd 5e d0 2e bd
       -0.056442328 -0.030387357 -0.06216423 -0.042679183
000270 30 1a 3d bd 71 29 90 3d 2c b2 e3 bc 08 f5 7f 3c
       -0.046167552 0.07039154 -0.02779492 0.015622385
000280 50 0f 4f 3c 40 3b 62 3c a6 3a 67 3d 78 83 d6 bc
       0.012637928 0.013808072 0.056452416 -0.026185736
000290 96 79 4c bd 21 58 5c bd f1 df 02 bd 18 da 04 3d
       -0.04992064 -0.053794984 -0.03195185 0.032434553
0002a0 c0 7e 87 3b ae 10 4f bd 0a 21 30 3d 96 c0 9b bc
       0.004134983 -0.050553016 0.04300026 -0.01901273
0002b0 e5 f4 1b bd 70 f5 62 3c 66 45 11 3d 88 9f 0b 3c
       -0.038075346 0.013852462 0.035466574 0.008521922
0002c0 a5 6f 4c bd 05 90 86 bd c0 da 2e 3c 18 de 9c 3c
       -0.04991116 -0.06570438 0.010672271 0.019148871
0002d0 18 f5 8a bd 77 01 45 bd 90 a5 60 3c f8 fd 57 bd
       -0.06785029 -0.0480971 0.013711348 -0.052732438
0002e0 f8 b4 77 bd 48 3f 9a 3c 55 c0 8c bd d5 de 84 3d
       -0.06047532 0.018829003 -0.06872622 0.06487814
0002f0 8e 71 33 3d 10 33 c2 3b d2 de 4d bd f3 f3 85 3d
       0.043809466 0.0059264973 -0.050261326 0.0654067
000300 f6 61 16 bd 86 c9 59 3d ac ec 16 3d 32 8c 61 bd
       -0.036714517 0.053170703 0.0368468 -0.05506534
000310 10 0a a4 3b 3c a4 e4 3c 35 7b 8b 3d 5f e2 65 bd
       0.0050060824 0.027910344 0.06810609 -0.056124087
000320 02 f3 a9 bc fd 5e 90 3d c4 de 46 3d 32 58 40 bd
       -0.020745758 0.070493676 0.04855229 -0.04695911
000330 c7 0f 83 3d 7d b0 8a 3d 1a 7a 75 3d 6e 7a 10 3d
       0.06399494 0.06771944 0.0599309 0.035273008
000340 76 74 01 bd 5a b5 9e bc 60 11 f9 3b 0c c4 60 bd
       -0.031605206 -0.019373585 0.007600948 -0.054874465
000350 2e 89 2c 3d 60 1f 2d bb 50 05 09 3c a9 87 85 3d
       0.042123012 -0.0026416406 0.008363083 0.06520016
000360 00 98 fe 3a a4 0d 38 bd c0 1b f8 3b 10 13 de 3b
       0.0019423962 -0.044934884 0.0075716674 0.006777175
000370 60 4e 96 3b 54 c0 40 3d de 57 5a 3d ca 4d 18 bd
       0.0045869797 0.04705842 0.053306453 -0.03718356
000380 02 83 53 3d de aa 7d 3d e4 17 97 3c 21 a1 82 bd
       0.05163861 0.06193053 0.01844401 -0.06378389
000390 18 c3 ac bc 8a d4 7d 3d ea 34 71 3d f8 fd 3e bd
       -0.021089122 0.06197027 0.058888353 -0.046628922
0003a0 00 ad 64 bb 7d 06 6e bd 60 2a 28 3b 50 5a 37 3d
       -0.0034893155 -0.058111656 0.0025660023 0.044763863
0003b0 7c 16 da bc 53 16 86 3d 8a 6d 06 3d 39 c8 82 3d
       -0.02662205 0.06547227 0.03281931 0.06385846
0003c0 9e 6c c7 bc a0 5b 1f 3d 30 39 8e 3c 80 27 65 ba
       -0.024343785 0.03890574 0.017361253 -0.00087415427
0003d0 1e 2e 6f 3d 34 c9 84 3c cc 5f 5a bc 3b 15 83 bd
       0.05839359 0.016209222 -0.013328504 -0.06400534
0003e0 e3 0e 35 bd b3 56 89 bd 12 26 b6 bc ec 87 3f bc
       -0.04420365 -0.0670599 -0.02223495 -0.011690121
0003f0 76 7c ce bc 50 cc c0 bb e8 b3 03 3d c6 13 a0 bc
       -0.025205832 -0.005883731 0.032153994 -0.019540679

conv_transpose2.bias f4 [8]
000000 5e 73 73 3d 3f b7 5a bd 96 4e 29 3d 70 31 f6 bc
       0.059436195 -0.053397413 0.04133471 -0.03005287
000010 1e 91 b9 bc dd e1 7f bd 28 22 4c 3d 65 b3 09 bd
       -0.022652205 -0.06247126 0.04983726 -0.03361835

conv_transpose3.weight f4 [8, 1, 5, 5]
000000 3b c8 13 3e c8 f8 24 bd 94 6b 6c 3d 95 c4 1d be
       0.1443185 -0.04027632 0.057719782 -0.15407021
000010 3e 96 d3 3d a3 ea 0a 3e c0 35 e3 3c 12 25 d1 3d
       0.10331391 0.1356607 0.027735591 0.10212149
000020 a7 1c 39 be 4d fe 01 3e b0 07 3d 3c be 0b d5 3d
       -0.18077336 0.12694664 0.011537477 0.1040263
000030 b4 df 41 bd 34 1f 43 3d 04 23 5b 3d 12 2d db 3d
       -0.04733248 0.04763718 0.05350019 0.10701956
000040 a0 98 01 be 11 52 46 3e 42 59 09 be cb 9f 1e 3e
       -0.12655878 0.19367243 -0.13412955 0.15490644
000050 40 02 91 bb 3a 2c 44 be 88 68 26 bd fa a2 02 be
       -0.004425317 -0.19157496 -0.040627033 -0.12757483
000060 12 12 e8 3d 15 e8 36 be 10 85 8f bd 96 2e bb 3d
       0.11331572 -0.1786197 -0.070078015 0.09139745
000070 ae a0 27 be 83 d5 2c be a0 da ac bb 74 10 13 3d
       -0.16369888 -0.16878323 -0.0052750856 0.035904363
000080 c2 fa ab 3d 11 6a 37 3e 0a 83 9b 3d d6 f3 e9 3d
       0.08397438 0.17911555 0.07593353 0.11423461
000090 2d 5f 0b be 37 65 23 3e e8 58 ce bc 57 f9 0e 3e
       -0.13610525 0.15956579 -0.025188878 0.13962303
0000a0 18 fe 3d 3d fd fc 46 3e de 61 ad 3d b6 1f 81 3d
       0.0463849 0.19432445 0.08465932 0.063048765
0000b0 d4 d9 6b bd a2 7d 3e be de 56 93 3d f8 b2 3b bd
       -0.057580784 -0.18602613 0.07194303 -0.045824975
0000c0 b4 eb 13 bd 60 5c c2 3b cd 18 bf bd 40 1d db bd
       -0.036113456 0.005931422 -0.09330902 -0.10698938
0000d0 c6 d6 15 be a6 3a a7 3d ff f4 2c 3e 9d 3f 32 be
       -0.14632711 0.08165483 0.16890334 -0.17407079
0000e0 d7 cc fe bd 87 ea 09 3e 80 8d ea 3c 48 11 1c bd
       -0.12441414 0.13468371 0.028631926 -0.03810242
0000f0 d8 a3 f2 bc 4f ad 12 3e fd 61 46 be 90 ed a0 bd
       -0.029619142 0.14323924 -0.19373317 -0.078578115
000100 dd f6 a1 bd 04 58 5e 3d aa dd e7 bd 60 ab 54 3c
       -0.079084136 0.054283157 -0.11321576 0.012980312
000110 3d ee b8 bd 00 12 d5 bd 9d ed 0c be 6f d2 3e be
       -0.09029815 -0.10403824 -0.13762517 -0.18634962
000120 30 a0 eb bc b2 20 9b 3d 80 dc 0a bb 40 5b 66 bb
       -0.028762907 0.075745955 -0.0021188557 -0.0035149604
000130 51 e4 34 3e ac 46 0a bd 00 50 d3 ba 85 11 17 be
       0.17665221 -0.033758804 -0.0016121864 -0.14752777
000140 9f d2 45 3e 7a eb f9 3d fd 40 3d 3e c7 86 ac bd
       0.19318627 0.12203117 0.18481822 -0.08424144
000150 80 d2 97 bd 81 ab 2b 3e 80 3d 2b 3b 30 ee 08 be
       -0.074131966 0.16764642 0.0026129186 -0.13372111
000160 d4 46 4e 3d 9a 3a 41 be a1 0c 2c 3e a0 2a 45 3c
       0.050360516 -0.18870011 0.16801693 0.012034088
000170 b2 97 c3 3d d6 90 2c be c1 08 21 3e c5 42 3f 3e
       0.09550418 -0.16852126 0.15725996 0.18677814
000180 21 02 29 3e c1 02 14 3e 50 55 ef 3c b2 23 af 3d
       0.16504718 0.14454176 0.029215485 0.0855173
000190 e8 93 40 be 8d 03 fa bd 08 59 2f bd 55 90 1a 3e
       -0.18806422 -0.122077085 -0.042809516 0.15094121
0001a0 c0 49 b3 bb 8f ab 32 be 35 d8 49 3e 98 f4 49 3d
       -0.005471438 -0.17448257 0.19711383 0.04930553
0001b0 6e 3e e9 3d ea 8b 80 bd cd 4b 1f be 78 95 75 bd
       0.11388861 -0.062766865 -0.1555626 -0.059956998
0001c0 d8 94 a5 3c 18 79 f6 3c d0 55 8a bd 0c d7 1b bd
       0.020212576 0.030087039 -0.06754649 -0.03804688
0001d0 fc 05 5f 3d 8f 7f 3a 3e 60 25 5f 3c 47 e7 eb bd
       0.054449067 0.18212722 0.013619751 -0.11518722
0001e0 ad 4f d3 bd 60 ae d3 3b 74 e9 25 3d 90 95 c0 3c
       -0.10317931 0.006459996 0.04050584 0.023508817
0001f0 88 b6 1b 3d 11 6c 41 3e e0 70 06 3d ea 4d e2 bd
       0.038015872 0.1888888 0.03282249 -0.11050017
000200 e8 98 0d bd 69 81 03 3e f1 05 3b 3e 7a 29 cf 3d
       -0.03456965 0.12842335 0.18263985 0.10115333
000210 d3 db 28 3e 50 8a b3 bd 5d dc 4a 3e 73 2a 31 3e
       0.16490106 -0.087666154 0.19810624 0.1730135
000220 aa 29 8f 3d 2c ed 3f 3d cc ee 62 3d c2 33 93 3d
       0.06990369 0.046857044 0.055403516 0.071876064
000230 6e 1b 9b 3d d6 e9 b5 3d 94 61 4a 3d f1 19 45 3e
       0.07573591 0.08882491 0.049409464 0.19248177
000240 c2 48 bb 3d 12 05 9c 3d 9e db 21 be ad 46 aa bd
       0.09144737 0.076181546 -0.15806434 -0.083142616
000250 7a 2e c1 3d 40 77 e3 bd 70 8a 87 bc 93 cc e8 bd
       0.09432693 -0.111067295 -0.016545504 -0.113671444
000260 02 8a 93 3d b2 1c 3f be 10 45 bf 3c 9a 3f ac 3d
       0.07204057 -0.1866329 0.023348361 0.084105685
000270 2c f3 57 bd 58 31 4b bd 19 cf 2d 3e c3 3c 48 be
       -0.05272214 -0.049607605 0.16973533 -0.19554429
000280 54 55 88 bd 15 d8 14 be 03 ee 12 3e e1 fa 44 3e
       -0.066569 -0.14535554 0.14348607 0.19236328
000290 11 1b 02 3e 0a 94 45 be 8e 93 c1 3d 11 4a 3f 3e
       0.12705638 -0.19294754 0.09451972 0.18680598
0002a0 a2 bc f6 3d 97 20 31 be c6 cf 85 bd 54 0b 3f bd
       0.120476976 -0.17297588 -0.0653377 -0.046641663
0002b0 d8 79 12 bd 40 fc e3 bb 43 f6 ba bd 62 31 8d 3d
       -0.03576073 -0.006957561 -0.09129002 0.06894185
0002c0 f8 77 16 be 00 50 f8 3c e4 54 7e 3d e2 3b be 3d
       -0.14694202 0.030311584 0.062092677 0.092887655
0002d0 00 9c 82 bc 81 60 0c 3e 2d ea e6 bd 02 5e db 3d
       -0.015943527 0.13708688 -0.11275134 0.1071129
0002e0 3e 31 8d 3d f6 f4 c2 3d 20 0a 8f bd a0 14 9b bb
       0.06894158 0.09519379 -0.06984353 -0.0047326833
0002f0 00 97 98 bb 97 ff a8 bd 50 4b ce bd 6f 0d 09 3e
       -0.0046566725 -0.08251875 -0.100729585 0.13384031
000300 b2 5b 99 3d a0 0a fa 3b 09 d1 0b 3e 30 75 ca bc
       0.074881926 0.007630661 0.1365396 -0.024714082
000310 20 bf 05 bc 50 7b 14 bc f4 26 26 bd 56 0e 85 bd
       -0.0081632435 -0.009062603 -0.040564492 -0.06496875
