demo_mnist/models/AE_mnist28x28.pth (torch_old, 9552 bytes, 7 tensors)

conv1.weight f4 [8, 1, 5, 5]
000000 59 6c 52 be 90 5d 51 be d2 02 35 be 36 84 0c be
       -0.20549144 -0.20445848 -0.17676857 -0.1372231
000010 96 fc 2e bd 4b 54 21 be 19 0b 21 be 45 c8 77 be
       -0.042721353 -0.15754811 -0.1572689 -0.2419749
000020 ad 13 d5 bd 95 fa ad be 47 0e c1 bd 28 65 f1 3b
       -0.104041435 -0.3398024 -0.09426551 0.007366795
000030 fd 65 2b 3d ea 28 69 be d6 03 9b be 20 7e 2a bd
       0.04184531 -0.22769514 -0.30276364 -0.04162419
000040 98 3c c5 bd 27 b2 cb bc df 47 2b be e9 b3 99 be
       -0.09630698 -0.024865223 -0.16726635 -0.30020073
000050 8f 3d 75 bd 72 62 6a bd 96 51 cd b9 65 35 60 be
       -0.05987316 -0.05722279 -0.00039161433 -0.21895368
000060 d3 3c bf 3d 6e ff ff bc 4e 89 bc bd 2b 0e 9e be
       0.09337773 -0.031249728 -0.09205876 -0.30870184
000070 e7 dc 3d be 69 12 46 be bf f3 ea 3d 3d 1a f7 bd
       -0.18541299 -0.1934296 0.11472272 -0.120655514
000080 b0 6b 87 bd 43 89 cd 3c c8 71 63 bd 5f 85 e1 3c
       -0.06612337 0.025089866 -0.055528432 0.027529417
000090 ee 8d 9b bc ef da 1c be 2c b4 15 3d 3c 62 c5 bd
       -0.018988576 -0.15317892 0.03654878 -0.09637877
0000a0 50 57 3f bc 75 78 9c bd ce 3f 9a bd 09 be 22 be
       -0.011678532 -0.07640163 -0.07531701 -0.15892805
0000b0 67 c6 89 3d cf 23 37 bd de 6b 19 3d 8c c5 01 be
       0.06727295 -0.044711884 0.037456386 -0.12673014
0000c0 e1 c6 77 3d d0 1d 9c bd ca ac 2b 3d 73 42 cf bd
       0.0604924 -0.07622874 0.04191283 -0.10120096
0000d0 fd b0 f0 3d ce 45 0b bc dd 0b 26 bb a4 d1 7f ba
       0.11752508 -0.008500529 -0.002533666 -0.0009758717
0000e0 98 20 28 3d cc 39 34 bd aa 9e 5c 3c d4 53 bc 3c
       0.04104671 -0.044000432 0.013465563 0.022989191
0000f0 f6 c3 e9 3c e3 ee 93 3d d0 70 cb bc 9c 88 33 3f
       0.028535824 0.072232984 -0.024834067 0.70130324
000100 92 65 52 3d 82 58 94 bd c1 7a 3f 3e 8e 3d 0b be
       0.051366396 -0.07243444 0.1869917 -0.135977
000110 a4 6d 39 3e 2a 5f 30 3e b1 00 02 3d 1a 2d 86 bd
       0.18108231 0.17223802 0.03173894 -0.06551571
000120 42 5a 08 3e c7 af e8 bd 9b b0 34 3e 64 48 81 bd
       0.1331568 -0.11361652 0.17645495 -0.063126355
000130 dd 5f 5f bd 39 3b ce bd a9 85 d8 3d 80 9a 22 be
       -0.05453478 -0.100698896 0.10572369 -0.1587925
000140 7d 29 07 bd d6 ac e4 bd 0e ab 8e 3d 60 f4 83 be
       -0.03299855 -0.11165778 0.0696622 -0.2577238
000150 b4 2f 19 be 44 87 12 be 8b 95 f2 bb e9 04 d1 3d
       -0.14959604 -0.14309412 -0.007403081 0.10206015
000160 5b 59 2e bf d8 2c a2 bd ba ee 76 bd 46 c3 05 be
       -0.68105096 -0.079187095 -0.06028626 -0.13062772
000170 7a 5a 5d be 4c 2d 0c 3e 0d 33 8b be 98 06 d4 bd
       -0.21616545 0.13689154 -0.27187386 -0.1035282
000180 cf c8 3f bd 09 b8 45 bc 87 f5 6b be 27 67 16 3e
       -0.046822365 -0.012067803 -0.2304288 0.14687787
000190 cd ca 93 be 9b 40 95 be 2f 56 02 be 13 a0 d5 bd
       -0.28865662 -0.29150853 -0.12728189 -0.10430922
0001a0 77 00 04 be 34 bd 81 be 68 2c c2 be 03 bf 1e bf
       -0.12890802 -0.25339663 -0.37924504 -0.6201021
0001b0 8d c0 e9 be 0b 80 2b 3e a0 48 a8 be c4 f9 db be
       -0.45654717 0.16748063 -0.32867908 -0.42963994
0001c0 34 c0 66 be cf 2b e1 be 3a ee 19 be 0e 81 08 be
       -0.22534257 -0.43978736 -0.15032282 -0.1333048
0001d0 8d 35 91 be f2 f6 b1 be 4f b0 00 bf 98 30 02 3c
       -0.28361169 -0.34758717 -0.50269026 0.007946156
0001e0 b1 7e c2 be 1e e1 8e be 90 49 cb bd 77 74 6f be
       -0.37987283 -0.27906126 -0.0992614 -0.23384272
0001f0 36 22 87 bd 98 c4 71 3b 8a d3 18 be 18 23 8a be
       -0.06598322 0.003689086 -0.14924446 -0.269799
000200 0b cf 93 be 4e d6 95 be 38 8f 4b be 51 dc 54 be
       -0.288689 -0.29265064 -0.19878852 -0.20787169
000210 7e 69 9b be ed ac 80 be fd 42 7f be 97 dd 52 be
       -0.30353922 -0.25131932 -0.24927898 -0.20592342
000220 12 33 c0 bd ea 11 76 bd 75 52 fc bd 75 ec 13 be
       -0.09384741 -0.060075678 -0.12320415 -0.1444567
000230 d1 3b 30 be 09 4e 12 bd 2c 96 8a be 92 11 89 be
       -0.17210318 -0.03571895 -0.27067697 -0.26771218
000240 c9 fc 48 be 07 55 d3 3d cf 57 7b be ef 0f c0 be
       -0.1962768 0.10318952 -0.24545215 -0.37512156
000250 d9 a3 cb be cb 47 85 bc cf cb f0 bd 52 25 15 be
       -0.39773443 -0.016269585 -0.117576234 -0.14565018
000260 33 1b 53 be 8a 46 1b be 26 d1 4d be b2 e5 17 be
       -0.20615844 -0.15163627 -0.20099315 -0.14833716
000270 a9 31 42 be d3 a2 b1 be 30 f3 47 be c1 56 71 be
       -0.18964256 -0.34694538 -0.19526362 -0.2356825
000280 0b d6 0d be ed 29 4e be c0 15 7e b9 2c 46 d4 3b
       -0.13851182 -0.20133181 -0.0002423143 0.0064780917
000290 a4 b1 85 be 39 6f 3b bc 7c 9f 95 bd 2f 25 4c be
       -0.26112092 -0.011440092 -0.0730581 -0.1993606
0002a0 d9 8d 82 be e9 57 04 bf 28 a5 d6 bd d1 89 0b be
       -0.25498846 -0.5169664 -0.1048072 -0.13626792
0002b0 57 46 2f 3d f3 e3 66 be 04 22 04 3e ac 56 2f bd
       0.04279169 -0.22547893 0.12903601 -0.042807266
0002c0 81 0a ff bd 8a c4 58 bd b6 04 4d be 6c 40 5e 3c
       -0.12453175 -0.05292181 -0.20021328 0.013565164
0002d0 da 61 7d be 26 28 b4 3d a5 c9 2b bd bf ff b6 bc
       -0.24744359 0.0879672 -0.04194035 -0.022338746
0002e0 e4 03 52 bc 56 c9 47 be 7c 6d 9c bd 38 ca 46 bd
       -0.01281831 -0.19510397 -0.0763807 -0.048532695
0002f0 52 17 ae bc a5 cb 6f be 2c 3a 4f 3d 78 27 20 be
       -0.021251354 -0.23417528 0.050592586 -0.15640056
000300 9b 7e 4b bd 7b 76 0c be cf 67 84 3d fa 9a 1a be
       -0.049681287 -0.13717072 0.064651124 -0.15098181
000310 df 25 5d be 52 89 95 3c a0 b5 9a ba cd 74 e2 bd
       -0.21596478 0.018253956 -0.0011803396 -0.11057434

conv1.bias f4 [8]
000000 c7 df 62 be c9 f0 44 be 15 4d 8e 3b 55 30 6d be
       -0.22155677 -0.19232477 0.004342685 -0.23162968
000010 a2 ae 8a be 7d 70 52 be 3b 63 26 be 89 c9 27 be
       -0.2708636 -0.20550723 -0.16248791 -0.16385473

conv2.weight f4 [4, 8, 5, 5]
000000 3e d7 66 bd 7b c0 e8 3c eb 91 0d bc 6a 31 55 3d
       -0.056357615 0.028412094 -0.008640747 0.052049078
000010 34 03 12 3d 8b d8 c4 bc 3f cc e0 bd 89 56 1b be
       0.035647586 -0.024029037 -0.10976457 -0.1516973
000020 7a 95 84 3b 24 a2 27 bc 7f ac cb 3d 19 e3 cf bd
       0.0040461393 -0.010231528 0.099450104 -0.10150737
000030 5d 0e 36 be cf 63 40 3d bc 6f eb bc dd 9d ef bd
       -0.17778917 0.046970185 -0.028739803 -0.11700032
000040 d0 bc 3f bd bb 84 a7 bc 74 c1 26 3d 71 fa 68 3c
       -0.046810925 -0.020449033 0.040711835 0.014219866
000050 33 0c cb bd 22 c9 11 3c a7 a3 2b bc ed 8a b8 bc
       -0.09914436 0.008898051 -0.0104760295 -0.022527182
000060 90 61 a7 bc b4 11 fa bc 2d 45 d4 bc e3 17 bc bc
       -0.020432264 -0.03052602 -0.025911892 -0.022960609
000070 a5 e3 35 3c 45 a9 a6 bc 45 7f 3f bd c6 5c 8a 3c
       0.011101638 -0.020344386 -0.046752233 0.016889941
000080 eb 11 99 bd 82 15 42 3c 46 36 4a bd 41 e9 90 bb
       -0.07474121 0.011845948 -0.049368165 -0.0044223373
000090 54 58 10 bd 3d e0 0c 3c 4e 4d aa 3b cd 5d 32 bb
       -0.035240486 0.008598384 0.0051972037 -0.0027216554
0000a0 80 23 88 bd 92 56 49 bd 1d 17 14 bd 00 10 2c 3c
       -0.06647396 -0.049154826 -0.036154855 0.010501862
0000b0 a6 ea 6a 3c 59 67 a1 bd 29 39 09 bd db 3b dc bd
       0.014338171 -0.0788104 -0.033501778 -0.10753604
0000c0 bc b3 9b bd f0 f9 d6 bb 98 2d 13 3c 4a 29 c0 bb
       -0.07602641 -0.0065605566 0.008983038 -0.005864297
0000d0 7b 53 2a bd 3e 3c 0e 3e 5d d8 d1 bd d2 f7 84 3d
       -0.04158352 0.13890168 -0.10246346 0.064925805
0000e0 a9 b5 ca 3c d4 bc c6 3d 5b e6 fd bd 4d 6b 10 3e
       0.024744825 0.09703985 -0.123974524 0.14103432
0000f0 fc 48 0b be 4c f4 b2 3e ce ab 10 3f 8e 0a b9 3d
       -0.1360206 0.3495201 0.56512153 0.09035216
000100 95 d9 24 bd bd 01 0b bc 49 18 ca 3e 71 77 a5 be
       -0.040246565 -0.008484301 0.39471653 -0.3231769
000110 9a 3f 1a be b9 33 30 3d 54 3e 13 3d cb b9 06 3d
       -0.15063325 0.043018077 0.035948113 0.03289203
000120 c0 24 05 be dc 73 30 3e 05 9d 1e bd 78 d2 74 be
       -0.130023 0.17231697 -0.038723964 -0.23908412
000130 57 07 44 be 96 7b 4b be f1 7a 8f be 34 c1 70 be
       -0.19143425 -0.19871363 -0.28023484 -0.23511201
000140 66 c1 66 be 1c 82 80 be f1 a8 1a be 74 da be be
       -0.22534713 -0.25099266 -0.15103509 -0.37276042
000150 d4 66 71 be bb 5b 8d be ef d3 57 be 41 e2 81 be
       -0.23574382 -0.27609047 -0.2107694 -0.2536793
000160 73 ac b6 bd b2 47 a9 be a3 c4 0c be a7 f2 ce be
       -0.08919611 -0.33062512 -0.13746886 -0.40419504
000170 cb 48 d0 be 25 5e 0c be 05 7e c0 be 57 ea 45 be
       -0.40680537 -0.13707788 -0.37596145 -0.19327675
000180 99 91 ed be 13 3a af bd 51 4f a4 be 15 3d 41 be
       -0.46400145 -0.08555999 -0.32091764 -0.18870957
000190 34 61 79 3b a8 ee 0c 3d c3 c9 78 3d 93 fe 6b 3e
       0.0038052322 0.034407288 0.06073929 0.23046331
0001a0 c7 30 85 3e bb 81 b2 bb 60 7e 40 3d d4 db 3b be
       0.26013777 -0.005447594 0.04699552 -0.18345577
0001b0 54 c4 13 3e da 62 a9 3e 36 49 e5 3a de 22 6d bd
       0.14430362 0.3308323 0.0017493132 -0.05789458
0001c0 a6 4f 66 be 38 3c fe 3d fd 36 61 3c a3 cd 5e 3d
       -0.22491321 0.124138296 0.01374602 0.05439533
0001d0 bd 15 ef 39 b0 e9 00 bf 6d c2 a4 bc 77 16 76 3d
       0.0004560183 -0.5035658 -0.02011224 0.060080018
0001e0 5a a2 d6 bc 42 53 33 bd 7d e1 af bd 3d 3b c3 3d
       -0.026200462 -0.043780573 -0.0858793 0.09532783
0001f0 04 f7 b9 3d 3a e4 04 bd 75 35 b3 be e8 3c 8a be
       0.090803176 -0.032444216 -0.35001722 -0.26999593
000200 4b 91 9c be 3e 9a 58 be 7d e9 28 be a0 03 df be
       -0.305796 -0.21152589 -0.16495319 -0.43557453
000210 3d 91 80 be ea a6 91 be 26 36 91 be 70 54 4e be
       -0.25110808 -0.28447658 -0.28361624 -0.20149398
000220 2b 0c c5 be 52 df 9e be aa 80 7f be 5f 17 4f be
       -0.38485846 -0.31029755 -0.24951425 -0.20223759
000230 d8 92 a1 be 2c f2 aa be d9 82 a7 be fa 50 ed bd
       -0.31557345 -0.33387887 -0.32717016 -0.11587711
000240 95 01 4d be fe 6f 74 be cb cb 7c be 5c 1d 8b be
       -0.20020135 -0.23870847 -0.24687116 -0.27170837
000250 03 de 2e be 22 d0 2c be c5 4c 13 3d c9 92 04 3e
       -0.17076878 -0.16876271 0.035961885 0.12946619
000260 cb 6c 9f bd 7e 34 2f 3b 48 d0 78 bc cc 62 ac bd
       -0.077844225 0.0026734169 -0.015186377 -0.084172815
000270 3b 37 49 be 53 50 f4 bd 61 f5 0f be a3 8d fe bb
       -0.19649975 -0.11929383 -0.14058448 -0.0077683493
000280 e7 c0 88 bd 13 c7 ba bd dc 66 45 3d e4 50 04 bd
       -0.06677418 -0.09120002 0.048193797 -0.032303706
000290 fa a1 55 be 06 6a 76 bd 78 94 02 be 4f 82 c6 bd
       -0.2086257 -0.060159706 -0.12751949 -0.09692823
0002a0 ed b9 18 be f5 4d ae bd 83 52 11 be 93 c5 4c bd
       -0.14914675 -0.08510963 -0.14191632 -0.04999311
0002b0 cd 51 0e bd 46 ce f7 bd cb 76 bc bd b9 58 ec bd
       -0.03474598 -0.120998904 -0.092023455 -0.1154036
0002c0 a9 eb 1b bd 84 7c 02 bc c4 5b 83 3d 49 67 f2 bd
       -0.03806654 -0.007964257 0.06413987 -0.11836106
0002d0 5f 3a e3 bd 9c 24 97 3d c6 1e 90 3c c0 a8 dd bb
       -0.11095118 0.073800296 0.017592799 -0.0067645013
0002e0 2e b7 00 bd 69 5c de 3c c6 39 c5 3d 5a c3 cb bc
       -0.031424694 0.027143674 0.0963016 -0.024873424
0002f0 a4 6f 42 bd 19 c1 be 3a 3b c8 80 3c 9a c5 83 bd
       -0.04746975 0.0014553397 0.015720477 -0.06434174
000300 b7 c2 dd bd 88 e7 f1 bd 4a 36 fe bd 74 0e 08 3d
       -0.108281545 -0.11811739 -0.124126986 0.03321691
000310 31 81 fa bc 75 44 a1 bc 74 77 90 bc 05 09 92 bd
       -0.030579181 -0.019685963 -0.017635085 -0.071306266
000320 fd bc c8 bc 0b da 96 bd 9b ec 99 bb 7f e5 f6 bd
       -0.02450418 -0.07365807 -0.004697395 -0.12055492
000330 23 ae 8c bd cf d9 66 bd d1 f1 bc bd 7b a1 96 bc
       -0.068691514 -0.056360062 -0.0922581 -0.018387547
000340 16 f7 72 bc c3 c1 dd bb 0e 77 25 bd 7a 05 03 be
       -0.014829418 -0.006767483 -0.040396743 -0.12795058
000350 9b 6e 07 bd fa b8 99 3c a1 e0 99 bd 47 d7 08 bd
       -0.033064466 0.018764962 -0.07513548 -0.03340843
000360 b7 03 d9 bc f4 15 54 bd 65 f1 18 3d 6f f7 5c 3c
       -0.02649103 -0.05177875 0.037339587 0.013486727
000370 ab 4a ef 3d c5 c4 22 3d 6c d4 a2 bd 92 51 a5 3d
       0.11684164 0.039738435 -0.079506725 0.08072199
000380 d5 2e 05 bb 51 cc d2 bd c5 3d 84 bc d9 90 b9 3d
       -0.0020322104 -0.102928765 -0.016142735 0.090608306
000390 21 8a 97 ba a2 e5 b7 bd 8c d7 00 be 0f ef d0 bd
       -0.0011561551 -0.08979346 -0.12582225 -0.10201847
0003a0 74 45 8f bc 6b 22 01 be 57 26 fe bd e6 dd ba bd
       -0.017489173 -0.12610786 -0.124096565 -0.09124355
0003b0 76 4a 6a bd ff f0 ae bd 99 39 89 bd 07 da 45 bb
       -0.057199918 -0.0854206 -0.06700439 -0.003018977
0003c0 c2 37 10 bb 20 1e f7 bd 89 eb b2 bd 4b 5a ae bd
       -0.002200589 -0.12066293 -0.08736331 -0.08513316
0003d0 33 88 0e bd b2 12 e3 bd 8d 5b 11 bd 87 08 63 bc
       -0.03479786 -0.1108755 -0.0354877 -0.013857014
0003e0 65 9c a6 bd 1d 44 a8 bd 48 70 b1 bd 24 d4 79 3a
       -0.08135299 -0.082161166 -0.08663994 0.00095302076
0003f0 3f 4a 48 be a1 b8 62 be 49 13 46 be 01 98 e9 bc
       -0.19559573 -0.22140743 -0.19343294 -0.028514864

conv2.bias f4 [4]
000000 07 04 d1 bc 65 6a 22 be 06 9d 82 be 2b 66 26 be
       -0.025514616 -0.15860899 -0.25510424 -0.16249911

conv_transpose1.weight f4 [4, 8, 5, 5]
000000 fa 2a 2a bd 52 ce 2f 3e c2 1b 5b 3d 58 d4 af 3e
       -0.041544892 0.17168549 0.05349327 0.34341693
000010 6d 58 75 3c e9 f9 a0 3e b0 a2 95 bf 3a 4a a5 bf
       0.014974696 0.31440666 -1.1690273 -1.2913277
000020 5c fb 9d bf 36 8e 64 3e f6 08 58 3e c2 1f 9c bf
       -1.2342334 0.22319874 0.21097168 -1.2197192
000030 c3 a6 83 be 98 ad 1c c0 01 22 03 3e e2 65 75 bd
       -0.25713167 -2.4480953 0.1280594 -0.059911616
000040 13 20 5b bf 52 56 16 c0 25 dd c9 bf 4c ce 83 be
       -0.85595816 -2.3490186 -1.5770613 -0.2574333
000050 7f 19 4c bc 49 19 e1 3d 0f 29 29 bf 92 23 d0 3e
       -0.012457251 0.10991151 -0.66078275 0.40652138
000060 3f 1e 75 3d ca 9f ab be 61 34 b6 3c f2 10 87 be
       0.059843298 -0.33520347 0.022241773 -0.26380116
000070 54 fc 14 be 8e 5f 4d be 37 61 43 be 74 06 1a bf
       -0.1454938 -0.20055982 -0.19080053 -0.60166097
000080 41 dc 4e bf 7a fb 9d be 98 6c e8 bd 39 58 56 be
       -0.8080483 -0.30855924 -0.113488376 -0.20932092
000090 4d a5 53 bf 47 c5 3e bf c3 fc b2 bf 26 be b9 be
       -0.82674104 -0.7451977 -1.3983387 -0.36277884
0000a0 7a f7 bc be b1 97 ca be 9f c8 76 be 4b 73 0b bf
       -0.3690756 -0.39568856 -0.24099968 -0.544728
0000b0 d2 bd ad bc 0a 76 41 be 6f d1 37 be 2c c7 98 be
       -0.021208677 -0.18892685 -0.17950986 -0.29839456
0000c0 2d 90 15 bd 20 49 a5 be 57 f5 83 be 95 5a 1f be
       -0.03651445 -0.32282352 -0.25773117 -0.15561898
0000d0 90 54 d7 be 86 30 fa be fb 4e 13 bc dd 86 8c be
       -0.42056704 -0.48865145 -0.008990998 -0.27446643
0000e0 19 f6 65 be 64 07 97 be 29 c2 ae be cd ec 72 be
       -0.2245716 -0.29497826 -0.34132507 -0.23723145
0000f0 34 d5 71 be 16 43 81 be ea 3b 0b bf 39 6f 1a bf
       -0.23616487 -0.25246495 -0.54388297 -0.6032596
000100 92 d4 c7 be ff 2c aa be eb 0d 59 3d a1 b0 c4 be
       -0.39029366 -0.33237454 0.05299179 -0.38416007
000110 1a 0f 97 be 96 22 ba bd 28 0a 30 be be ce 83 bd
       -0.2950371 -0.09088628 -0.17191374 -0.06435917
000120 75 77 54 bf 29 ed 0b bf c5 6b 31 be 30 38 c6 bd
       -0.82994777 -0.5465875 -0.17326267 -0.09678686
000130 d0 63 f5 bd b8 ef c3 bd 83 7d 12 bd b0 3b 48 bc
       -0.11981928 -0.09567207 -0.03576423 -0.012221262
000140 bc 3e a9 bc 29 a5 82 bd 2a be 00 be d5 bd c2 bd
       -0.020659797 -0.06379158 -0.12572542 -0.09508864
000150 c0 32 19 bd 08 42 e4 bc 5e 68 bb bd 47 9d e8 bd
       -0.037401915 -0.027863517 -0.09150766 -0.11358123
000160 4c 32 a7 bd b1 0c ed bd ff 7f a8 bd d1 61 d7 bd
       -0.0816389 -0.11574686 -0.08227538 -0.10516704
000170 66 4b a0 bd fc b0 56 bd 57 42 19 bd a9 77 91 bd
       -0.07826881 -0.05241488 -0.037416782 -0.071029015
000180 f1 b2 e6 bd a3 35 e4 bd e9 63 20 b8 1f 5d 6f bd
       -0.11264599 -0.11143043 -3.824002e-05 -0.058438417
000190 17 27 22 3d 4f 6b 96 bd fe 7d dc 3d 08 82 f3 bc
       0.03958806 -0.07344686 0.107662186 -0.02972509
0001a0 e0 98 7f be d8 ef 3c bd d1 b7 ba bd 59 50 58 3f
       -0.24960661 -0.04612717 -0.091170914 0.844976
0001b0 8f 89 b9 3e 41 2d fa 3c 8d 5a 54 bd 6b 5d a3 3d
       0.3623776 0.030539157 -0.05184417 0.079768024
0001c0 a5 a9 5e bd 57 16 ec 3c 3d 62 85 3d 02 54 1f 3e
       -0.054361004 0.028819246 0.06512878 0.1555939
0001d0 91 9a 66 be 68 7e 6c 3e 89 e8 85 be d9 30 f8 3d
       -0.225199 0.23095095 -0.26153973 0.12118692
0001e0 9f 76 40 3c 83 4f ca bc 67 85 c7 3c f6 a7 00 bc
       0.0117470315 -0.024696117 0.024355603 -0.007852545
0001f0 cc 67 90 3b f5 21 f9 bd b1 b2 d8 bc cd ff 21 bd
       0.004406905 -0.1216468 -0.026452394 -0.03955059
000200 98 49 80 bd f5 3c a5 bd d6 53 d2 bd 77 39 03 be
       -0.06264037 -0.08068267 -0.10269897 -0.1281489
000210 fe 6b 91 bb f3 9c f9 bd e3 18 46 be c8 47 3e bd
       -0.0044379225 -0.12188139 -0.19345431 -0.046455175
000220 e4 fa 21 bc e4 69 b5 bd 27 4d 8b be a9 91 39 be
       -0.009886477 -0.08858088 -0.272073 -0.18121971
000230 39 34 90 bd 38 f0 93 bd 2a b0 10 be eb 82 3e be
       -0.07041211 -0.072235525 -0.14129701 -0.18604629
000240 ae 35 06 bd a3 2c b8 bc c3 7b 05 be 10 ed 78 be
       -0.032766037 -0.022482222 -0.13035493 -0.24309182
000250 21 b1 92 bd 30 46 fb bd 63 53 db bd 6b 62 3a be
       -0.07162691 -0.122692466 -0.10709264 -0.18201606
000260 90 94 a2 be 71 31 1a 3d 6d ca c0 be 0b e1 c3 be
       -0.3175397 0.037644807 -0.3765444 -0.38257632
000270 c3 2d f1 3d 10 c5 01 be f0 5a 10 bf c4 e9 74 be
       0.117763065 -0.1267283 -0.5638876 -0.239173
000280 8f 96 49 3d 4e 53 3b be ed d2 f6 bf 9a d4 6c bf
       0.04921585 -0.18293497 -1.928312 -0.92511904
000290 21 9e 93 bd af e9 d1 3d 59 ad 68 be d0 d8 72 bf
       -0.07207895 0.1024965 -0.22722377 -0.9486208
0002a0 be 7b 64 bf 4e db 6a be b8 66 c2 bd 7d 3d da be
       -0.89251316 -0.2293522 -0.09492248 -0.42625037
0002b0 cc 9f c1 be dd 0a e5 be 78 bc 0d bf e4 ed cc bc
       -0.37817228 -0.4473485 -0.55365705 -0.025015779
0002c0 4c 6c c6 bd 66 6a d2 bd 07 b2 40 bd 94 85 e8 bb
       -0.09688625 -0.102742 -0.04704478 -0.007096002
0002d0 0d aa e7 bd 0d 68 cb bd 18 20 d8 bd a0 0c 22 3a
       -0.113117315 -0.099319555 -0.105529964 0.0006181691
0002e0 13 e5 81 bd 81 8c e5 bd 69 53 c5 bc 29 f0 94 bd
       -0.063425206 -0.112084396 -0.024087625 -0.072723694
0002f0 04 bb 81 bd 64 2e c5 bd ed 28 b6 bc 29 01 18 3c
       -0.063344985 -0.09627989 -0.022236312 0.00927762
000300 a1 0c dd bc ac 53 d3 bd 14 80 ee bc b2 f1 3e bd
       -0.026983561 -0.103186935 -0.029113807 -0.046617217
000310 99 36 86 bd 53 b0 0b bc de 06 6a bd 9b ae 18 bd
       -0.065533824 -0.008525926 -0.057135455 -0.03727589
000320 f8 91 13 bd 3a 9b df 3d 8d a2 b6 bb d0 bc d7 3c
       -0.03602788 0.10918279 -0.005573577 0.02633515
000330 da 4e ba 3d e7 ed de bd 0c c5 f5 bd 32 29 ba bc
       0.09097071 -0.1088522 -0.12000474 -0.022724722
000340 39 31 bf bc 63 ec f8 bd df 68 d5 bb 4d 42 f9 bc
       -0.0233389 -0.12154462 -0.0065127457 -0.030427122
000350 69 03 b4 bd 9d 74 11 bd ea ac b3 bd 8e e4 c8 bd
       -0.08789713 -0.0355116 -0.08773215 -0.09809218
000360 61 be cd bb e9 cc d0 bd ae ef 4d bc fe 65 b8 bd
       -0.0062787984 -0.101953335 -0.012569351 -0.090038285
000370 f1 90 fa bd 94 4e 89 bd b3 75 aa bd 58 55 a1 bd
       -0.12234677 -0.06704441 -0.083232306 -0.07877606
000380 c5 3e 22 3c ee 67 1b 3d 32 8e 52 bd 8e 3e 4d 3d
       0.009902661 0.037940912 -0.05140514 0.050108485
000390 48 8e b4 3c fc c7 a0 3c 00 84 42 39 44 62 2b 3d
       0.022040501 0.01962661 0.00018550456 0.04184176
0003a0 3c 2d 78 be 57 fe 97 bc e8 77 5c 3d f8 a3 ef bc
       -0.24236006 -0.018553896 0.05382529 -0.029252991
0003b0 00 05 01 3c e5 44 13 be 6f 2e 14 be 7b b3 3a be
       0.007874727 -0.1438175 -0.14470838 -0.18232529
0003c0 2c 51 16 bc b2 3e 7f 3d a2 c4 45 3e 29 bd fc bd
       -0.009174626 0.06231565 0.1931329 -0.12340767
0003d0 39 12 fb bd c0 c6 58 bb ec c8 e7 bc ae 77 7f 3e
       -0.12259335 -0.0033077449 -0.02829405 0.24947998
0003e0 d9 a8 53 be 9e 10 ce 3c 14 28 c0 bd 50 35 59 bd
       -0.20669879 0.025154408 -0.09382644 -0.05302936
0003f0 ae fb 88 bd 7e fb 12 3c 7e fb f3 bd e5 52 9a bd
       -0.06688629 0.008971093 -0.11913203 -0.07535342

conv_transpose1.bias f4 [8]
000000 ab aa 55 3e ff 31 14 be 58 92 60 be 4c 89 98 bd
       0.20865886 -0.14472197 -0.21930826 -0.07448062
000010 46 74 38 3b 71 bd c8 bd f2 f6 e2 be e1 67 ca bd
       0.0028145476 -0.09801758 -0.4432903 -0.098830946

conv_transpose2.weight f4 [8, 1, 5, 5]
000000 c4 c8 23 3c b0 9d 43 3c 04 c0 0d 3c 06 31 f2 bd
       0.009996597 0.011939451 0.008651737 -0.11825757
000010 f9 4c 81 3d 69 ea 24 bd 72 d5 a9 bd 0b 00 3b c0
       0.063135095 -0.040262613 -0.082926646 -2.9218776
000020 17 3f ab c0 4f 4d 57 be 34 5a 57 bd 85 8e 05 bf
       -5.3514514 -0.21025585 -0.05257626 -0.5217059
000030 c4 20 f8 c0 d2 60 91 bf 4b 5f b1 be 9b df 83 3d
       -7.7539997 -1.1357672 -0.34643015 0.06439134
000040 89 fc 65 be b4 29 da bf 41 ac 7d bf 29 cb 03 bb
       -0.22459616 -1.7043977 -0.99090964 -0.0020110107
000050 ce 90 14 3d 0f 71 cc bd 48 32 ee bd 11 6d 2c bd
       0.03627091 -0.09982502 -0.11630684 -0.0420962
000060 9f fb cf 3c 1b 8b 4d bd b9 00 bd bd 3e be 9a 3c
       0.025388537 -0.05018149 -0.092286535 0.018889543
000070 fb 59 ee bd b9 5b 80 3d 3f 2e 84 bd 1f 9a 45 bd
       -0.11638256 0.06267495 -0.06454133 -0.048242684
000080 46 af bf bd cd c9 61 3c 6b 22 56 3c 1e ca 23 3d
       -0.09359603 0.013781023 0.013069729 0.039987676
000090 e2 d8 3f be 4f 33 63 bf 54 a9 2e bf 6b b6 58 bd
       -0.18735078 -0.88750166 -0.68227124 -0.052908342
0000a0 5f 99 91 3c ac d7 18 be 34 72 83 be ad ec e9 be
       0.017773328 -0.14926022 -0.25673068 -0.45688382
0000b0 1e 31 e6 3d 91 60 30 bc f4 9b f3 bc 94 71 4c 3d
       0.11239837 -0.010765211 -0.02973745 0.049913004
0000c0 8f 9e 1b 3d 3a ad 42 3e 0d 30 18 be c8 45 8a bd
       0.03799301 0.19011393 -0.1486208 -0.06751591
0000d0 12 69 9a be 52 07 b1 be 8e fd 03 bd 20 b6 c0 bd
       -0.30158287 -0.34575897 -0.03222423 -0.094097376
0000e0 4a 29 65 3e e2 17 b1 3c 39 4d 57 3c 00 a6 b0 3e
       0.22379032 0.021617834 0.01314097 0.34501648
0000f0 65 d0 fb bd 15 f6 0a be d8 1e b4 be bf 41 f7 bd
       -0.122956075 -0.13570435 -0.35179782 -0.12073087
000100 51 35 ea bd 78 ac d1 bd 6e 2f 29 be 38 8d 0b be
       -0.114359505 -0.10237974 -0.16521999 -0.1362809
000110 5d 0a 68 bb 54 1e 2a be a4 d2 e5 bd 81 02 24 3d
       -0.0035406568 -0.16613132 -0.11221817 0.04004145
000120 c3 9d 8e be 44 80 1e 3e 5c 76 15 3e 1c f6 01 bd
       -0.27854738 0.15478617 0.14595932 -0.03172885
000130 f9 2b fc 3d af 49 db 3c b3 10 67 3e 3c 95 88 bd
       0.123130746 0.026768534 0.22564964 -0.06669089
000140 88 ef 02 be 57 e5 10 3e d6 0f 8f bc 91 60 ab 3c
       -0.12786686 0.14149986 -0.017463606 0.02092007
000150 01 86 4b bc 63 d5 b0 bd 41 de f8 bc b7 f2 8f bd
       -0.012422086 -0.0863445 -0.030379416 -0.07028716
000160 31 f8 31 be b5 18 cc bd 0b f7 8a 3c e0 7a 86 bd
       -0.17379834 -0.0996565 0.016963502 -0.06566405
000170 9b a4 28 be 86 46 c4 3d 01 2f 97 bd cc 5d d5 bd
       -0.16469042 0.09583764 -0.07382012 -0.10418281
000180 d2 da 3f bc 58 84 30 3b d4 92 91 bd 35 4a 8d 3c
       -0.011709886 0.0026934352 -0.07108083 0.017247299
000190 e8 32 7c bc 9c 37 9e 3d 99 73 a6 bc f9 d1 30 3d
       -0.015392996 0.077254504 -0.020318793 0.043168996
0001a0 45 c1 91 3b fe 9a 4c bc 02 d2 b8 3c fb 5d 91 be
       0.0044480884 -0.012488125 0.022561077 -0.28392014
0001b0 1b d1 59 3d a5 bc 05 bd b7 f8 74 bc 66 d8 a4 bd
       0.053177934 -0.03265061 -0.014951876 -0.08049087
0001c0 a0 33 ae 3e 42 b4 32 bf b5 e1 af 3e f7 f1 a4 3c
       0.34023762 -0.698063 0.34351888 0.02013491
0001d0 34 31 16 be bf 48 6d 3f ea e2 5b 3f 91 1a 95 be
       -0.14667207 0.92689127 0.8589312 -0.2912183
0001e0 8d 99 94 3d eb 72 ee be 47 cd b7 3e 1b d2 0f be
       0.0725585 -0.4657205 0.35898802 -0.14044993
0001f0 80 38 71 be cf be 7a 3e ed 95 42 bd a7 74 0b be
       -0.2355671 0.2448685 -0.04750626 -0.13618718
000200 32 d7 91 bd fc f4 22 3e 96 ee 83 3e d0 ea 07 be
       -0.071211234 0.15913767 0.25767964 -0.13273168
000210 32 9d b9 bd 6b 3c fb bd 72 1d ae 3d c8 2e ef 3c
       -0.09063186 -0.12267383 0.0850171 0.029197112
000220 cc 59 10 3c 23 7d 11 3e 11 55 d6 bc 3a a5 55 3d
       0.008810472 0.14207892 -0.02616361 0.052159525
000230 32 0c 10 3e 10 21 05 3d d3 e8 bd bb d0 d7 45 3d
       0.14067152 0.032502234 -0.005795577 0.048301518
000240 b9 e9 13 3e 8b 2b 14 3e 84 58 c6 bd 59 b5 20 be
       0.14444627 0.14469735 -0.09684852 -0.15694179
000250 ea 0d 00 3e 6a 9b cb 3d 35 b1 db 3d 68 31 36 be
       0.12505308 0.09941752 0.10727159 -0.17792284
000260 78 d5 ea bc 96 69 42 be eb fc ac bd 30 72 99 3e
       -0.028666243 -0.1898559 -0.08446678 0.2996993
000270 86 62 a5 3e 70 de d8 be d7 f5 d8 bd 0a f8 07 bd
       0.3230173 -0.42357206 -0.10593765 -0.033195533
000280 f3 3a 69 3d 3e 47 9c 3e d9 dd 0b bf ff 83 5e be
       0.056940984 0.30523103 -0.5463539 -0.2173004
000290 89 d0 f8 bc 9e 0a 11 3e 2f 80 a2 3e 5f 4e 9b be
       -0.030372875 0.14164206 0.3173842 -0.3033323
0002a0 63 c7 54 3d 63 cf 61 3c 91 21 96 3e ec e6 40 3e
       0.051947962 0.013782355 0.29322484 0.1883809
0002b0 cc 9f b9 be 76 6d 9e bd 74 dc 3a be 87 eb 63 3e
       -0.36254728 -0.07735722 -0.18248159 0.22257815
0002c0 b5 b6 c2 3c 05 0e 0c 3e 9e 04 6f 3e 77 17 93 3d
       0.023768762 0.13677223 0.23341605 0.0718221
0002d0 70 c5 a4 bd 39 a1 05 be d3 2e 5f bd 81 b8 b2 bd
       -0.08045471 -0.13049783 -0.054488014 -0.087265976
0002e0 a0 7b 05 be f4 7c a7 bd c6 25 5b 3e 4e 3e 21 3e
       -0.1303544 -0.0817813 0.21401128 0.15746424
0002f0 af ee 52 3e da 0e f0 bd 84 d5 1c 3e 5e eb d4 bd
       0.20598863 -0.11721583 0.15315825 -0.10396455
000300 7f 5e ff 3b 58 00 24 3e f4 14 1d 3e d0 54 2a 3d
       0.0077932472 0.16015756 0.15340024 0.04158479
000310 9a 83 7b 3e 9a ba f7 bd e3 18 a8 3a e2 bc b8 bd
       0.24561921 -0.12096138 0.00128248 -0.090204015
