demo_mnist/models/AE_mnist20x20.pth (torch_old, 9552 bytes, 7 tensors)

conv1.weight f4 [8, 1, 5, 5]
000000 2a 54 94 bd f8 0e 3a 3d 40 c9 be bc 33 37 c6 bd
       -0.072426155 0.04542443 -0.023289323 -0.09678497
000010 10 70 ba bd 5c a2 4e 3d 00 55 c1 bc 94 b9 5c bd
       -0.091034055 0.050447807 -0.023600101 -0.05388792
000020 78 0e 70 bd 98 29 1f 3d 2c 04 6a bd 40 2a fd bb
       -0.05860755 0.038858026 -0.057132885 -0.007725984
000030 98 58 00 bd 25 74 19 be c2 ea 94 3d 08 65 35 be
       -0.03133449 -0.14985712 0.07271339 -0.17714322
000040 da f6 94 3d d3 6e 39 be 40 6a bc bb 4f 23 42 be
       0.07273646 -0.18108682 -0.0057499707 -0.18958782
000050 57 71 47 be ba 90 d5 3d 25 3a 2f be 60 cb 22 be
       -0.1947683 0.10427995 -0.17112024 -0.15897894
000060 e8 d5 31 bd 6e ce 93 bd 3c 14 0a 3e 37 fc 0f bc
       -0.043416888 -0.07217108 0.13484281 -0.00878816
000070 70 c0 18 be fb 94 92 3d 3e 0f ef bc db ec 06 be
       -0.14917159 0.07157322 -0.029182073 -0.1317629
000080 93 c4 15 3c 03 3a da 3d ab 13 2b 3e 91 ed ed 3d
       0.009141105 0.10655596 0.16706721 0.11617578
000090 f0 a5 29 bb 1e ee a1 3d f5 e1 ab ba 61 08 e5 3d
       -0.002588626 0.079067454 -0.0013113605 0.11183239
0000a0 e7 c7 26 bd 4d fb 18 be d3 da 72 3c b6 75 6d 3e
       -0.040717985 -0.14939614 0.01482268 0.23189434
0000b0 8c fe 75 3e b4 54 38 bc 44 cf 08 3e f4 cf 63 be
       0.24022883 -0.011250664 0.13360316 -0.22247297
0000c0 60 7a 09 3d 8d 9c e0 3b f3 e5 f7 3b ae 07 92 bc
       0.03356397 0.0068546 0.007565254 -0.017825928
0000d0 89 8f a6 3b 66 8f 06 3c 71 e6 d1 bd b9 02 35 bd
       0.0050830287 0.0082129 -0.10249031 -0.04419205
0000e0 f3 fd ae bc 31 5b ee 3d 55 7c 2c 3e a7 b4 61 3d
       -0.021361327 0.11638487 0.16844304 0.055103924
0000f0 f2 9e e7 3d e3 12 a1 bd 67 cd 3b be 72 c8 4f be
       0.11309613 -0.078649305 -0.18340074 -0.20291308
000100 fd 03 bc 3b d2 43 9c 3d 81 17 99 be 49 06 86 be
       0.00573778 0.07630123 -0.29900745 -0.2617667
000110 25 c9 ba 3d 50 e3 78 3c b9 db 11 3d 89 fe 5f 3d
       0.091203965 0.015190914 0.035609934 0.054686103
000120 b8 23 99 3c 44 9e 62 3c a8 08 d9 3b d0 26 84 3d
       0.01869379 0.013831679 0.0066233464 0.064527154
000130 5f b7 69 be 1e fd 3c bc 5b bb ff bd aa 2d 8c ba
       -0.22823857 -0.011534957 -0.12486907 -0.0010694761
000140 cc 91 e5 3c 25 a4 4c be dc 5d 10 bb 4c 38 81 3d
       0.028023623 -0.19984491 -0.00220286 0.06309566
000150 b6 8f 83 be af ce ee bd 1d 95 27 be dc a9 a0 3d
       -0.2569558 -0.116605155 -0.16365476 0.07844898
000160 be a7 8e 3d 99 f7 92 bd 4f 70 3f be c7 08 83 be
       0.06965588 -0.07176132 -0.18695186 -0.25592634
000170 b8 d6 71 be 57 6c e0 bd 01 e0 de 3c 94 f3 82 be
       -0.23617065 -0.10958164 0.027206423 -0.2557646
000180 61 92 cc bb 8c da 1f 3d c3 0c 1a be d4 7f 06 3e
       -0.0062430357 0.039026782 -0.1504393 0.131347
000190 1c 0c 45 be eb 89 37 bd 74 e3 6f be 37 ea 9c bc
       -0.192429 -0.044809263 -0.2342661 -0.019154651
0001a0 53 d6 83 bd a8 9b 04 be bd 20 5b be c3 56 55 be
       -0.064373635 -0.12950003 -0.21399207 -0.20833878
0001b0 04 b4 9a be b6 6d 26 be 26 25 b4 bc 09 2d d2 bd
       -0.30215466 -0.16252789 -0.02199037 -0.10262496
0001c0 e3 32 b9 3d d1 73 41 3d 1e 36 ba be d4 f5 07 be
       0.09042909 0.04722959 -0.36369413 -0.1327737
0001d0 43 07 8c bd aa 5e fe bb 66 00 39 be 61 80 83 be
       -0.068373226 -0.0077627497 -0.18066558 -0.25683883
0001e0 9a 06 6e be 60 79 a5 be 14 ae 00 be 5e 50 81 be
       -0.23244706 -0.32319164 -0.12566406 -0.25256628
0001f0 8f 48 83 be 2b b3 dd bc a5 4a ba 3d 63 6e 29 bd
       -0.25641295 -0.027062973 0.090962686 -0.04136504
000200 af 18 c6 ba f1 8d fb bd cc 0e 2b bc 0f db 3d be
       -0.0015113557 -0.122829325 -0.01044054 -0.18540595
000210 b8 58 1a be 95 1e a8 bd 68 c8 39 be c0 3d 08 3c
       -0.15072906 -0.08208958 -0.18142855 0.008315504
000220 d1 b8 05 3e 9f a0 21 be 9d b9 b9 bd 42 70 a3 bd
       0.13058783 -0.15783928 -0.09068606 -0.07980396
000230 38 1a 42 3e 07 9f 5e be b8 74 0c 3d 44 85 7e bd
       0.18955314 -0.21740352 0.034291 -0.06213881
000240 27 64 55 bd 61 b3 c2 3d f7 4f c2 b9 5b 5a 4a be
       -0.052097466 0.0950687 -0.00037062142 -0.1976103
000250 fa 81 81 be 17 bd 6e be b3 13 d2 bc e8 0d ba 3d
       -0.25294477 -0.2331432 -0.025644159 0.09084684
000260 80 b9 de bd 2a 2d 0a be b2 97 43 3e fb e4 06 3e
       -0.10875225 -0.13493791 0.19100836 0.13173287
000270 10 d6 cb bc 10 e1 fa 3c c0 18 78 bd c9 7f 5c be
       -0.024882346 0.030624896 -0.06057048 -0.21533121
000280 09 c8 d0 bd 17 df 28 be a2 ad 8d be 8a 6a 0a bf
       -0.10194404 -0.16491352 -0.27671534 -0.54068816
000290 a0 b1 b1 3b f3 fc 1e 3e 27 55 59 be 98 c1 5a be
       0.005422786 0.1552618 -0.2122389 -0.21362913
0002a0 a1 11 93 bd bd 86 dd bd a8 6d b4 3d 40 91 bc 3d
       -0.07181097 -0.10816715 0.08809978 0.09207392
0002b0 90 1a 8a be ea 33 83 3c 6e 66 82 3d b4 4f a8 3b
       -0.2697339 0.016015965 0.06367193 0.0051364545
0002c0 74 55 5d bd 48 91 a8 be 1f b1 11 bb a1 68 10 bd
       -0.054036573 -0.3292334 -0.0022230817 -0.035256032
0002d0 dd 9f 2c be 4e 0c 5a bd d1 85 2c bd 87 cd 6f be
       -0.16857858 -0.05323439 -0.042119805 -0.23418246
0002e0 b7 a0 11 be e6 de d9 3b 8b d9 a1 3d 48 35 80 3c
       -0.14221464 0.006648886 0.07902821 0.015650406
0002f0 9f 16 05 3e 0d 84 23 be 42 46 8d bd 0a ee 87 3e
       0.1299691 -0.15968342 -0.06898166 0.26548797
000300 24 3a 60 3d 0a 32 15 be 58 f7 a0 bd 91 ba c2 bd
       0.054742947 -0.1456987 -0.07859677 -0.09508241
000310 33 bd 51 bc 40 d9 d3 3c 6e 31 31 be 72 dc ea bd
       -0.012801456 0.025860429 -0.17304012 -0.11467828

conv1.bias f4 [8]
000000 7d 1d 12 be 71 ce 62 be cd a9 a4 3e c7 48 2b be
       -0.14269061 -0.22149064 0.32160798 -0.16726981
000010 2c 2b 58 ba 36 d9 85 be 8b ea 30 3e 1d 74 5b be
       -0.0008246179 -0.2614228 0.17276971 -0.21431012

conv2.weight f4 [4, 8, 5, 5]
000000 58 77 01 3c 08 2a 42 bc a2 61 da bc fa 1e 10 bd
       0.007901989 -0.011850841 -0.026657883 -0.03518579
000010 62 f6 00 bd e0 bb d7 3b 1d ae 06 bd 9a 6e 22 3d
       -0.03148497 0.0065836757 -0.03288089 0.03965626
000020 ab 12 23 bd c0 76 5c 3c 64 6b eb 3c 40 d4 e3 ba
       -0.039812725 0.013456047 0.028737731 -0.0017381981
000030 a0 4c 7b 3c 68 4e 3e bd 80 eb c0 3b 90 70 e4 3b
       0.015338093 -0.046461493 0.005887449 0.0069714263
000040 83 85 8a 3d c8 55 7b 3c fd cf 36 bd 90 08 c6 bb
       0.067637466 0.015340276 -0.044631947 -0.006043501
000050 d2 c6 6f 3d c2 0d 07 bd 01 18 1a bd 00 92 df 39
       0.05853922 -0.032972105 -0.03762055 0.00042642653
000060 c0 d9 51 3d 5e 62 4f bd e1 b8 4d bc cf ac b2 bd
       0.051233053 -0.05063092 -0.012556286 -0.08724367
000070 6a 38 bb bd 8b 9a 5d bd 40 f4 02 be 58 89 e2 bd
       -0.091416195 -0.05410246 -0.12788486 -0.110613525
000080 41 bb 9e bd 8a 64 93 bd 38 f1 04 bd 3d fd e4 bd
       -0.077505596 -0.07196911 -0.032456607 -0.11181114
000090 b8 29 05 be 7d 69 03 be 59 fe 70 bc d8 6e 19 bb
       -0.13004196 -0.1283321 -0.014709079 -0.0023412015
0000a0 4e 66 2c bd ed 06 e2 bd 72 1d 00 be 7c ad ad bd
       -0.042089753 -0.11036477 -0.12511232 -0.08480355
0000b0 ab a5 a6 bd b0 3c 61 bd d3 5d a2 bd a5 72 2b 3c
       -0.081370674 -0.054989517 -0.07928052 0.010464345
0000c0 bd d5 22 bd 2e 43 c2 bc e4 b0 c0 bb fd ab 10 bc
       -0.039754618 -0.023713674 -0.005880462 -0.008830068
0000d0 6d 05 b3 bd a1 d5 ce bc 69 79 b1 bd 7c e8 e3 bd
       -0.08741269 -0.02524835 -0.08665735 -0.11128327
0000e0 9e 27 4c bb 3e b2 ff bd 5d 32 f6 bc 43 cd 04 be
       -0.0031151543 -0.12485169 -0.030053312 -0.12968926
0000f0 b7 76 0d bd 34 cc c7 bd 7f d0 e3 38 38 b5 c7 bd
       -0.034537043 -0.097557455 0.00010863039 -0.097513616
000100 c6 20 a2 bc 66 d8 2d 3c df cf 93 bd 10 0f d9 bc
       -0.019791018 0.010610675 -0.07217383 -0.02649644
000110 55 3f 8a bd 08 c9 a3 bb ea 40 9b bc bd 3a ce ba
       -0.06750361 -0.00499833 -0.018951852 -0.0015734058
000120 73 ac b2 bd 50 b8 c7 bd a2 8b 53 bd e0 7e 78 bd
       -0.08724298 -0.09751952 -0.051646836 -0.060667872
000130 15 de 9c bd fb f7 da bb bb bf 1d 3c ac b3 9b bb
       -0.07659546 -0.0066823936 0.009628232 -0.004751643
000140 10 bb 8d bd a3 79 09 bd e0 b8 f9 bd af 47 7e bd
       -0.06920445 -0.033563267 -0.12193465 -0.06208008
000150 d4 49 a1 3a 8c ec 9d bd 07 b0 33 3a 50 36 16 bd
       0.0012305328 -0.07711133 0.0006854538 -0.03667289
000160 65 56 11 3c 9d bb d9 bd d9 48 a1 bd c6 25 9c bd
       0.008870696 -0.106314875 -0.07875223 -0.07624392
000170 66 02 02 be 36 ef 32 bd 79 60 c8 bd ab d7 8c bd
       -0.12696227 -0.04368516 -0.09784026 -0.06877073
000180 dd 1c f6 bd 7f af 03 bd f0 9a d6 bd d8 72 c7 bd
       -0.12017224 -0.032149788 -0.10478771 -0.097387016
000190 1a 79 b6 bd 94 23 9f bd 55 30 a8 bd ba d0 ee bd
       -0.08909817 -0.07770458 -0.082123436 -0.11660905
0001a0 1d c4 c1 bc 6d de 7b bd 56 2e 9c bd 66 13 06 bd
       -0.023653084 -0.06149142 -0.076260254 -0.032733344
0001b0 3c 1e f8 bd 8a ac 43 bc c4 9f 27 3b dd 23 a9 bd
       -0.12115142 -0.011942992 0.0025577405 -0.082587935
0001c0 89 ca 12 b9 01 20 d4 bd 1c d1 8c bd dc fd f7 bc
       -0.00013999095 -0.10357667 -0.06875822 -0.030272417
0001d0 56 98 7b bd 82 c2 f7 bd aa a0 a1 bd 66 af 1d bd
       -0.061424576 -0.12097646 -0.07891972 -0.03849735
0001e0 4d 4c 93 bd 6a 71 f8 bc a6 70 c3 bd a2 8c b6 3b
       -0.071922876 -0.030327518 -0.0954297 0.005570964
0001f0 1b 0e e0 bc 35 d1 77 bd 1e e8 c2 bd 73 52 1f bd
       -0.027350476 -0.06050225 -0.09516929 -0.03889699
000200 0b 5b c7 bd 02 e0 4e bd 4d 9c f7 bd 14 a7 f7 bc
       -0.09734162 -0.0505066 -0.12090359 -0.030231036
000210 f7 4b bf bd 1c 70 4e bd c6 e1 b7 bc 2d 6f bf bd
       -0.09340661 -0.050399885 -0.022446524 -0.09347377
000220 c1 cf 36 b8 1e 9e c4 bd 07 19 ab bd de 9a 05 bc
       -4.3585667e-05 -0.09600471 -0.08354383 -0.008154599
000230 fc 98 ee bc f2 ba 1b bd c0 f2 6f 3a ee f9 ec bd
       -0.029125683 -0.03802008 0.0009153299 -0.11571108
000240 da fb 91 bd 2c f7 59 bd 9b 1c 8d bc f1 5c c7 ba
       -0.07128115 -0.053214237 -0.017225554 -0.0015210194
000250 4b b0 f3 bc 69 db 02 be 01 fd 4b bd ee 03 1e bd
       -0.029747149 -0.12779011 -0.04980183 -0.038577966
000260 29 9f fd ba 6a b4 14 bd e1 1f 4e bd 15 bb 28 bd
       -0.0019349802 -0.03630487 -0.05032337 -0.04119404
000270 63 11 00 bd 47 8c f9 bc 1a 72 b2 bd ea 8b 54 bb
       -0.03126658 -0.030462397 -0.087131694 -0.0032432028
000280 76 60 97 bc 97 3b e2 bd 47 64 57 bd 9e 1f e8 bd
       -0.018478613 -0.11046522 -0.052585866 -0.113341555
000290 1a a5 f9 3b d0 2b cd bd 5d 7e de 3b de 23 06 bd
       0.0076185586 -0.10018122 0.006789966 -0.03274905
0002a0 17 6c 20 3c 01 bf 7a bd 2d 7e a6 bb bc ac 90 bc
       0.009791396 -0.06121731 -0.0050809593 -0.017660491
0002b0 c6 b5 05 be 0f 19 fc bd eb 10 a3 bd 5c 52 a2 bd
       -0.13057622 -0.12309467 -0.07962211 -0.07925865
0002c0 31 fc c6 bd e2 c3 9a bd cb 19 a8 bd 83 39 37 bd
       -0.097160704 -0.07556893 -0.082080446 -0.04473258
0002d0 6a 6c ad bd 4a 7c 36 bc ce 9c fd bd cd 5a d6 bd
       -0.08467944 -0.011138031 -0.12383424 -0.104665376
0002e0 7e d1 9a bc 77 13 9f bc cd be c5 bd 96 2f 54 bd
       -0.018898722 -0.019418461 -0.09655533 -0.051803194
0002f0 97 77 02 be 20 82 38 bc de b4 74 bc f3 50 00 be
       -0.12740932 -0.011261493 -0.0149357 -0.1253088
000300 f5 b6 ac bd d9 c6 35 bd 82 6c bd bc 89 33 00 be
       -0.08433334 -0.04437909 -0.02312303 -0.12519659
000310 65 a2 c3 bd 07 5c a8 bd 41 97 9e bd ce d9 cf bd
       -0.09552459 -0.08220678 -0.07743693 -0.10148965
000320 aa e7 81 bd a0 86 24 3c 84 d4 43 3d 00 e8 04 bc
       -0.063430145 0.010041863 0.047810093 -0.008111954
000330 b4 ca 57 bd 8d a3 1c bd 20 36 b0 bc e0 a8 43 3b
       -0.052683547 -0.03824191 -0.021510184 0.0029855296
000340 30 56 2f bd 40 f7 ff 3c f6 1a 27 3d 53 9c 86 bd
       -0.042806804 0.031245828 0.040797196 -0.06572785
000350 34 e7 93 bc 62 9f c0 bc cf ae 8a 3d 10 9d a9 3c
       -0.018054582 -0.0235135 0.06771623 0.020704776
000360 92 29 85 bc 62 41 2b bd 2a 6a 3b 3d 6c 8a 13 3d
       -0.016255174 -0.0418104 0.045755543 0.03602068
000370 ee 3c 8a bd 3a 40 26 3d ac 9e 96 3c a8 4f 5a bd
       -0.06749903 0.040588595 0.018386208 -0.053298622
000380 bc c8 c9 bc 6c c2 5f 3b c9 7a 28 ba 7c 26 e5 3c
       -0.02463185 0.0034142984 -0.0006426988 0.027972452
000390 69 f9 1d bc 97 7e 5e 3c 3f 6b e4 3c c7 af 11 be
       -0.009641984 0.013579986 0.02788317 -0.1422721
0003a0 bc 8c 0c ba 14 32 80 3d 30 23 60 bd 5c 3e 07 be
       -0.0005361547 0.06259552 -0.054721057 -0.13207382
0003b0 56 b2 e2 bd 77 77 15 39 08 92 8a 3c 5d 87 0f 3d
       -0.11069171 0.00014254251 0.016915336 0.0350412
0003c0 59 27 20 bd 0b 9b 24 be 58 a5 45 bd 77 f6 bf 3b
       -0.039100025 -0.16074769 -0.048253387 0.0058582383
0003d0 df 17 51 bd 80 ce db bc b8 e1 e8 3c 52 51 66 3d
       -0.051048156 -0.026831865 0.028427944 0.056229897
0003e0 12 76 d6 3b e1 04 16 3d c6 9e 7e 3d c1 7b 63 bd
       0.006544837 0.036625747 0.062163137 -0.055537943
0003f0 5e d6 b5 bd d7 3d b7 3c 20 c0 63 bd 3d 0c e6 3b
       -0.08878778 0.022368355 -0.055603147 0.007020502

conv2.bias f4 [4]
000000 13 1e 30 bd 37 73 6f 3e 90 47 2d bc 98 af a8 bd
       -0.04299743 0.23383795 -0.010576144 -0.08236617

conv_transpose1.weight f4 [4, 8, 5, 5]
000000 14 c2 3b bc 61 ff 0e bd de 82 44 bd 82 dc d3 bc
       -0.011459846 -0.034911517 -0.047976367 -0.025861982
000010 4b 79 90 bd 57 cf 0d bd c0 08 c5 3c 70 fd 5b 3d
       -0.07054385 -0.034621563 0.024052024 0.053708494
000020 40 ac cf 3a cd 5d 87 3d 34 26 1a 3d d0 57 be 3c
       0.0015844181 0.06609688 0.03763409 0.023235232
000030 87 c7 4f bd 45 a1 5e bd 10 c9 da 3b 18 6b 0e bc
       -0.050727393 -0.054353017 0.0066768005 -0.008692525
000040 1d 39 1d bd 07 82 3a bd c2 a3 2d bd a8 38 ac bc
       -0.038384546 -0.04553416 -0.0423925 -0.02102311
000050 75 06 10 bd d1 8d 71 bd ea 72 0c bd 16 d7 79 3d
       -0.035162408 -0.058973137 -0.034289278 0.060996138
000060 81 09 56 bd 8d 05 04 3e c8 ca 7d 3d ea 08 64 3d
       -0.052255157 0.12892742 0.061960965 0.055672564
000070 ed 3f 3a 3d 2f 2d 70 3d dc d4 1e 3d a7 df e7 3d
       0.04547112 0.05863684 0.038777217 0.11321955
000080 a7 f0 d7 3d bf 80 22 bc e3 b0 91 3d 4a 88 d1 3d
       0.10543948 -0.009918391 0.071138166 0.10231073
000090 5d e2 de 3d e9 99 1c bb 3e ee 02 3d a1 ca a1 3d
       0.10883019 -0.0023895449 0.031965487 0.078999765
0000a0 10 fa fa 3c 83 df 62 3d bd 06 82 3d 19 e7 7c 3d
       0.030636817 0.05538894 0.063489415 0.06174383
0000b0 e5 69 a7 3d 8f c5 8c 3d ab bc 06 3d 19 83 b0 3c
       0.08174495 0.06873619 0.03289477 0.021546887
0000c0 4d 60 95 3d 09 4b 5b bb 7b ce 98 3d bc 65 d9 3c
       0.072937585 -0.0033461472 0.07461258 0.026537769
0000d0 0d 58 5f 3b b1 ce 77 3d 82 98 3b 3d 7d 49 c0 3c
       0.0034079582 0.06049985 0.04579974 0.023472542
0000e0 d0 eb fa 3d 05 c7 33 3d 2f 1d c1 bb 53 90 ed 3d
       0.12252009 0.04389097 -0.0058933715 0.11599793
0000f0 11 af c0 bb fd 8c 01 3e 87 da bd 3d 8c 3f c3 3d
       -0.0058802445 0.12651439 0.092701964 0.09533605
000100 e8 c3 e8 3d 39 8f 8b 3c 8f 41 b0 3d 21 d9 ba 3d
       0.11365491 0.017036067 0.08606254 0.09123445
000110 47 df 05 3e f7 ca 01 3e c4 ee b1 3c 9b 86 4e 3a
       0.13073455 0.12675081 0.021720298 0.0007878334
000120 8c 13 08 bc 6c 5e c5 3d d7 4e 97 3d 9a a3 c5 bd
       -0.008305442 0.0963715 0.073880844 -0.09650345
000130 e8 34 60 bb e7 dd dd bd 90 d2 2d bd a5 22 bd bb
       -0.0034211222 -0.1083334 -0.042437136 -0.005771952
000140 d5 db 1f bd eb c5 bc bc aa da 68 bd db 45 09 bd
       -0.039028008 -0.023043593 -0.05684916 -0.033513885
000150 f8 af 55 bb ac c2 f4 bd d5 96 d7 39 8c 53 d9 bd
       -0.0032606106 -0.11951193 0.00041120374 -0.106116384
000160 ee 13 08 bd e6 d9 40 bd 29 25 99 3b 9f 35 8c bc
       -0.03322213 -0.047082804 0.0046736193 -0.017115412
000170 e4 19 da bb 48 8e 04 be d9 44 dc bc f2 74 22 bd
       -0.0066559184 -0.12944901 -0.026888298 -0.03966231
000180 ac eb 7c bd 2a 6b be ba 33 32 4f bd 20 21 b8 3b
       -0.06174819 -0.0014527787 -0.050584983 0.005619183
000190 7e a7 8e bd a0 b4 4c 3b 50 b9 78 3c 6a fa 82 bd
       -0.0696554 0.003123559 0.015180901 -0.06395419
0001a0 a9 c8 42 bd d2 10 71 bd ca 5f 55 3d 5c c4 7d bd
       -0.047554646 -0.05885393 0.052093305 -0.06195484
0001b0 e8 61 7c bc f0 50 17 3c 50 f1 2c bd 70 91 8b bd
       -0.015404202 0.009235606 -0.04222232 -0.068148494
0001c0 4a e5 c3 bc 94 a5 2d 3d 00 28 95 3b 50 78 66 3c
       -0.023913044 0.042394236 0.0045518875 0.014066771
0001d0 44 af 51 3d 70 13 4e bc 92 95 62 bd 90 8d b9 bc
       0.051192537 -0.012577876 -0.055318423 -0.02265051
0001e0 80 cd a9 ba b5 4c 8a 3d 82 a2 3f 3d 3c 09 1e 3d
       -0.001295492 0.06752912 0.04678584 0.038583025
0001f0 c0 db 9f 3b 50 3d e2 bc 60 38 34 3c 60 ff 0b bb
       0.004878491 -0.027617127 0.010999769 -0.0021361932
000200 08 23 96 3c 8e 1b 14 bd 28 1b 4f 3c f0 45 8c bb
       0.018327251 -0.03615909 0.012640752 -0.004280798
000210 0c 56 16 3d 23 7d 83 3d 22 1c 63 bd 8f bd 86 bd
       0.036703154 0.06420352 -0.05544675 -0.06579124
000220 a0 97 13 bb 74 9d d4 3c a8 f5 d7 bc 90 8c 86 3b
       -0.0022520795 0.025953986 -0.026362255 0.004106112
000230 b8 6c 91 3c ac a1 c3 3c b8 97 29 3c 38 d9 33 3d
       0.017752036 0.023880802 0.010351114 0.043908328
000240 0c 33 0b bd bc bb bf bc a7 83 89 3d 80 4e e0 bc
       -0.03398423 -0.023404948 0.06714564 -0.027381182
000250 6e 10 04 bd 18 41 29 3c 72 a0 2a bd e0 57 61 bd
       -0.03224223 0.010330461 -0.04165692 -0.055015445
000260 d0 49 a5 3b 72 f7 8c bb ca b1 91 bc ae fd d7 bd
       0.0050441995 -0.0043019587 -0.017784972 -0.105464324
000270 88 d5 aa bd 45 55 19 ba 5b 33 bd b9 b0 70 38 bd
       -0.08341509 -0.0005849193 -0.00036087152 -0.045029342
000280 cf 4e 87 bd 00 71 24 bc 94 5c 1b 3c 4c 2b ba bd
       -0.066068284 -0.010036707 0.009482522 -0.090902895
000290 15 92 0d bc 40 5a 99 bd 15 83 86 bc e3 4f 11 39
       -0.008640786 -0.07487917 -0.016419927 0.00013858038
0002a0 b2 f5 b1 bd e1 41 15 bd f2 9b bb bd 4c ce bc bd
       -0.08689441 -0.03643978 -0.091606036 -0.092190355
0002b0 55 b1 cf bc da 35 68 bd 9c e0 f7 3b 63 7c fd 3c
       -0.025353113 -0.05669198 0.0075646173 0.030943101
0002c0 64 72 d9 3c d1 da 06 bc d0 86 59 3d 8a db a8 3d
       0.026543804 -0.008230881 0.053107083 0.08244999
0002d0 54 78 be 3d 0c f2 02 3e 1f c0 96 3d b0 b5 c6 3d
       0.093002945 0.12787646 0.07360863 0.09702623
0002e0 9b 84 a3 3d ca 59 b5 3d a8 42 1a 3d 15 58 da 3d
       0.07984277 0.088550165 0.037661225 0.106613316
0002f0 e8 b0 ae 3d 4a 94 cb 3d 85 fa 46 bd 6d f9 0a ba
       0.08529836 0.09940393 -0.048578758 -0.00053014496
000300 a3 c3 85 3d bd 72 df 3b fb 96 04 3d 49 f7 2a 3c
       0.06531455 0.006819098 0.03237055 0.010434934
000310 4f 7b 4f bc 31 90 0c 3d b6 8c de 3d 13 a6 05 3e
       -0.012663676 0.0343172 0.10866682 0.13051634
000320 ec c1 af bd eb 54 71 3c 18 74 db be 84 50 05 bf
       -0.085819095 0.014729719 -0.4286201 -0.5207598
000330 66 4b 18 be ad 69 b1 bd 55 b2 01 3e 30 d4 8b be
       -0.14872512 -0.08662734 0.12665685 -0.27310324
000340 3b 64 f8 be 01 50 32 3e cf 02 22 bd 70 d2 0e 3e
       -0.4851397 0.17413332 -0.03955346 0.13947463
000350 43 3d 2b bf 1f 2c 4a bf 22 f7 6d 3e d0 6f d8 bd
       -0.6689035 -0.78973573 0.23238805 -0.105682015
000360 7c 02 9c 3d f8 6c 90 bf a5 72 40 bf 37 f4 03 3e
       0.07617661 -1.1283255 -0.75174934 0.1288613
000370 18 db bc bd 18 e0 08 3d 56 8c 92 bf c4 d2 55 bf
       -0.09221476 0.033416837 -1.1449077 -0.8352473
000380 26 b7 90 3d d1 ab 01 bc 44 0b 31 bd 71 f6 ef bd
       0.07066183 -0.007914499 -0.043223634 -0.11716927
000390 2a dc fd bc 36 08 f8 3c f5 8a c6 3c ed 68 6a be
       -0.030988771 0.030277353 0.024236182 -0.22891589
0003a0 b1 a7 5a 3c ec 87 eb bc f2 15 4e b9 77 3a 86 be
       0.013345645 -0.028751336 -0.00019653866 -0.2621648
0003b0 36 98 69 be 56 3f e2 3d c9 ad de 3d 4b 11 ab bc
       -0.2281197 0.110472366 0.10872991 -0.02088227
0003c0 fb da 2d be 9a 05 df bd 74 8c 5b 3d eb 1e d1 3c
       -0.16978066 -0.1088974 0.053600743 0.025527438
0003d0 79 1c bd bc 99 5f bc bc c6 11 cd bd 4c b8 a1 bd
       -0.023084866 -0.022994803 -0.10013156 -0.0789648
0003e0 86 34 b5 bd 27 a5 6a 3d ab 07 4e 3d fe b8 8c 3c
       -0.08847909 0.057286408 0.05030028 0.017178055
0003f0 10 c1 9f 3b a8 cb 76 bc 2a 60 e6 bc 8a 2b fe 3d
       0.0048753098 -0.015063204 -0.028122026 0.12410648

conv_transpose1.bias f4 [8]
000000 1e 39 8e 3d e7 d7 8b bd a3 b4 b2 3e c3 4c fc 3d
       0.06944488 -0.068282895 0.3490344 0.12319329
000010 f9 97 40 3d e6 44 97 3d a7 ae 00 be 5e 88 ed 3d
       0.047019932 0.07386188 -0.12566625 0.115982756

conv_transpose2.weight f4 [8, 1, 5, 5]
000000 33 3a a7 3a 3b 2a e3 bd aa 96 29 be ab a0 c8 be
       0.0012758434 -0.11092039 -0.1656138 -0.3918508
000010 45 a4 ca bd 69 61 92 3b 08 57 c4 bd 8a 71 11 bf
       -0.09894613 0.0044671786 -0.095869124 -0.5681387
000020 b6 12 dc be 89 a7 60 bd 90 c9 35 be 2a 7e c2 be
       -0.42983025 -0.054847274 -0.17752671 -0.3798688
000030 8b 40 3c bf 5e 49 11 bf 85 cd ab bd 71 23 06 bd
       -0.73535985 -0.56752574 -0.08388809 -0.032748643
000040 81 34 08 bf b8 99 3a bf 8a 39 20 bf b9 78 66 bd
       -0.53205115 -0.72890806 -0.625878 -0.056267474
000050 79 8b d8 bd 70 2c 6a be 6b 39 35 bf f7 17 31 bf
       -0.10573477 -0.22868514 -0.7079074 -0.6917719
000060 d1 81 b1 be 51 78 8c 3d c1 58 af 3d 94 e5 88 3e
       -0.34669355 0.06858886 0.0856185 0.26737654
000070 2a 16 78 3e 8a 16 18 3d 51 8d d0 bd 55 95 95 bd
       0.24227205 0.03713087 -0.10183204 -0.073038734
000080 dc 84 c4 bd f8 a7 9b bb be 4e 16 3d 58 fd 9d bb
       -0.095956534 -0.004750248 0.03669619 -0.0048214607
000090 0a 7a 6b 3d 08 74 70 be 3a d8 64 be 94 a9 d9 bd
       0.057489432 -0.23481762 -0.22348109 -0.106280476
0000a0 7d 13 c5 bd 5c fb d5 bd b5 9e 87 bd 13 b7 38 be
       -0.09622858 -0.104483336 -0.06622068 -0.18038587
0000b0 e3 db 7d 3d b8 8a 00 3e 94 05 95 3d 91 f1 88 3d
       0.06197728 0.12552917 0.072764546 0.066867
0000c0 d6 4c 68 3e b8 61 15 bd cd e4 3b 3d ec 6f 8d 3d
       0.2268556 -0.036470145 0.0458725 0.06906113
0000d0 df 80 09 3e 65 6f a3 3d e4 c1 fa bd d0 c2 74 3c
       0.13428067 0.07980231 -0.12244013 0.014939025
0000e0 5d f1 99 3d 6c 31 97 bc 6e 86 7d 3e 9f 51 0a 3e
       0.075167395 -0.018456183 0.24758312 0.13507698
0000f0 94 f2 b4 3d 72 b6 45 bd 42 c2 68 3e 6f 3f 14 3f
       0.088353306 -0.048269697 0.22730353 0.5790929
000100 3f 0c f4 3e dc d3 8a 3d 07 97 29 3d 3d 84 63 3e
       0.47665593 0.0677869 0.041403797 0.22218414
000110 9d eb c8 3e 34 93 af 3e fc 9c 51 3d d3 5f b4 bb
       0.3924226 0.34291995 0.051175103 -0.005504587
000120 bf 5e 27 3b 5a f0 d4 3d a1 59 9a bc 74 89 81 bd
       0.002553865 0.10397406 -0.018841567 -0.06325045
000130 18 ad 92 3d a6 21 ff 3c 96 38 5d 3d af 21 90 bc
       0.07161921 0.031143975 0.054009043 -0.017594187
000140 f1 96 d7 3d 05 47 e1 3d b1 57 96 3e 0b 7b ef 3d
       0.10526837 0.10999874 0.29363778 0.116933905
000150 5b f0 d8 bd cf 7e 55 bd 1a 4f 29 3e dd 0d 24 3e
       -0.10592719 -0.052122887 0.16534081 0.16020913
000160 dd 98 44 3b 73 31 18 bd 06 09 e5 bc 11 60 65 bd
       0.002999834 -0.037156533 -0.027958404 -0.05599982
000170 5c 97 e4 bd 07 68 50 bd 24 f6 a6 3d 5b ab d5 3c
       -0.11161682 -0.05088046 0.08152416 0.026082685
000180 94 d4 50 bc 18 33 2a 3d 33 73 03 be b5 b1 7e 3c
       -0.012745995 0.041552633 -0.12836914 0.015545298
000190 d7 62 19 3e 55 67 26 be 71 70 91 be be 97 89 bd
       0.1497911 -0.16250356 -0.28406098 -0.06718396
0001a0 68 0a 45 3d 6e ad 8f be bc f8 1f bf 3a 23 0b bf
       0.048105627 -0.28062004 -0.62488914 -0.54350626
0001b0 7d 6b a0 bd 79 93 76 bd c4 ee fa be af fa 7f bf
       -0.07833002 -0.060199235 -0.4901029 -0.9999189
0001c0 76 35 02 bf 65 e5 98 be d8 1f 0c 3e 1b 82 3b be
       -0.50862825 -0.29862514 0.13684022 -0.1831135
0001d0 0b 7d e8 be 34 57 c5 be 63 49 24 be c0 e0 e1 3e
       -0.454079 -0.38543093 -0.1604362 0.44116783
0001e0 e5 0a d2 3d 53 b0 f9 bd ec 19 91 be 20 0c 88 bd
       0.10255984 -0.12191834 -0.2834009 -0.06642938
0001f0 f8 1d 0f 3f 85 35 26 bf fa f4 21 bf ec f8 b0 be
       0.55905104 -0.64925414 -0.6326443 -0.34564912
000200 c1 41 39 bf 55 a6 b0 be 40 d6 a8 be 97 17 4c bf
       -0.7236596 -0.345019 -0.3297596 -0.79723495
000210 d7 41 d6 be 43 de 20 bf df 62 e1 be 0c 0f b1 bd
       -0.41847107 -0.62839144 -0.44020745 -0.08645448
000220 1c 06 c1 bd 1c 44 d1 bd f7 ee b7 be ff 7e 0c be
       -0.094249934 -0.10218069 -0.35924503 -0.1372032
000230 95 9a 20 3e 6e c5 3d bc 08 20 3a 3d 1e c4 21 3b
       0.15683968 -0.011582715 0.045440704 0.0024683545
000240 f4 2a 8d bc 58 05 3f bd c4 f9 8f 3d 0c 71 7d 3d
       -0.017232396 -0.046635956 0.07030061 0.061875388
000250 47 c4 0c 3c 3b 8d bc 3c ed 53 4c be d0 6f 15 be
       0.008591718 0.023016563 -0.1995389 -0.14593434
000260 7f 52 48 3e 19 1c 01 be e3 62 81 bd 58 07 a0 bc
       0.1956272 -0.12608375 -0.06317689 -0.019534752
000270 96 21 26 be 6a 21 dc 3d 7d ef c9 bd f7 43 26 3e
       -0.1622375 0.10748561 -0.09860132 0.16236864
000280 c3 28 61 be a1 b7 18 bd 34 18 ce bd 1a 75 3d 3e
       -0.21988206 -0.037284497 -0.1006321 0.18501702
000290 27 a6 db bd 76 49 e5 3d 25 ee 00 3d 33 ca 5d 3e
       -0.107250504 0.11195652 0.031477112 0.21659164
0002a0 ba fa dd 3d 3b 10 e6 bd 19 40 bd 3d 84 47 09 3e
       0.10838838 -0.112335645 0.09240741 0.13406187
0002b0 de dc 04 be 9c 8a 02 be 39 fa 72 3d ab db 85 bd
       -0.12974879 -0.12748188 0.059320662 -0.06536039
0002c0 85 91 9f ba 31 28 c7 3c 54 8b 04 3d 29 3f 6f 3d
       -0.0012174106 0.024311157 0.032359436 0.058409844
0002d0 e7 17 de bc 15 03 84 3d b2 2f 51 3d 8b e3 61 3d
       -0.027111007 0.064459 0.051070876 0.055148643
0002e0 ef 91 8c 3d 57 44 19 3e 14 5c a8 3d 0f af 80 be
       0.06863772 0.14967476 0.082206875 -0.2513356
0002f0 73 39 13 bf 41 26 36 be b6 5f 16 bd db 65 18 be
       -0.57509536 -0.1778803 -0.03671237 -0.14882605
000300 c8 75 0f bf 6f e7 84 bf 23 54 48 bf e5 61 d6 ba
       -0.56039095 -1.0383128 -0.7825338 -0.0016356079
000310 7c 86 86 bd 6e 66 a0 be d5 2d 04 bf fe 7e 06 bf
       -0.065686196 -0.31328148 -0.51632434 -0.52537525
