demo_mnist/models/conv.pth (torch_old, 4476 bytes, 5 tensors)

conv1.weight f4 [5, 1, 5, 5]
0	0x3e9ebf37	0.3100526
1	0x3e87d710	0.26531267
2	0x3e48a3a7	0.19593678
3	0xbe897cfc	-0.26853168
4	0xbe91c959	-0.2847393
5	0x3e0318f2	0.12802485
6	0x3e4a0a8c	0.19730586
7	0xbe1d1204	-0.15338904
8	0xbeaca13a	-0.33716756
9	0xbdce8bec	-0.10085282
10	0x3e2fa612	0.17153195
11	0x3e36eb69	0.1786324
12	0xbe53e149	-0.20691408
13	0xbe961288	-0.29311013
14	0x3e07c067	0.1325699
15	0x3de9f369	0.1142338
16	0xbe0f0b14	-0.1396907
17	0xbccc6e54	-0.024954952
18	0x3da6261e	0.08112739
19	0x3e9833ef	0.29727122
20	0x3db469e6	0.08809261
21	0x3e3fd52b	0.18733661
22	0x3e49901e	0.19683883
23	0x3d3a5127	0.04548755
24	0x3e9bcdbb	0.30430397
25	0xbe8b21e9	-0.2717431
26	0x3d81fc8a	0.06346996
27	0xbdf3b397	-0.118994884
28	0x3d0db442	0.034595735
29	0x3e61a001	0.22033693
30	0x3e81a058	0.25317645
31	0x3cf37713	0.029719865
32	0x3e36246d	0.17787333
33	0x3e92e822	0.28692728
34	0x3e594c0f	0.2122042
35	0x3ea69f46	0.3254339
36	0x3e8d082f	0.27545306
37	0xbe170714	-0.14748794
38	0xbd4c33b4	-0.049853995
39	0xbd5ba5a0	-0.05362475
40	0x3e59b2a2	0.2125955
41	0xbc8a3543	-0.0168711
42	0xbdba0fd6	-0.09085052
43	0xbe9f4b78	-0.31112266
44	0xbed4a3c1	-0.41531184
45	0x3dfb56ff	0.122724526
46	0xbe1752d9	-0.14777698
47	0xbe9ee542	-0.31034285
48	0xbf03a521	-0.5142384
49	0xbf00f7f2	-0.50378335
50	0x3e7884f5	0.24269469
51	0x3d8fc68e	0.07020293
52	0x3e869161	0.2628279
53	0xbdca6737	-0.09882968
54	0xbd7206e9	-0.05908862
55	0x3dca52d6	0.09879081
56	0xbdb48228	-0.08813888
57	0xbaef51c6	-0.0018258623
58	0x3e2eede2	0.17082933
59	0x3e516340	0.20448017
60	0x3dfae55b	0.12250777
61	0xbe435861	-0.19076683
62	0x3d86008c	0.06543073
63	0x3d3e7298	0.046496004
64	0xbd23000c	-0.039794967
65	0x3e8d8eba	0.27647954
66	0x3e92ddc0	0.28684807
67	0x3e21c144	0.15796381
68	0x3e83a41d	0.25711146
69	0x3ea5258b	0.32255206
70	0x3dfa90e9	0.12234671
71	0x3e9c71d4	0.30555594
72	0x3e86c3fe	0.26321405
73	0x3e9b2f40	0.30309486
74	0x3ead8a7a	0.33894712
75	0x3d9660b5	0.07342664
76	0x3e52e26a	0.20594183
77	0x3eac1113	0.33606777
78	0x3ea2ce0b	0.31797823
79	0x3e866b9d	0.26253977
80	0x3e173edf	0.14770077
81	0xbdda523a	-0.10660215
82	0xbe37a624	-0.17934471
83	0xbdafd7cd	-0.085860826
84	0x3e361cf3	0.17784481
85	0x3e63f2bd	0.22260566
86	0xbc0d8851	-0.008638457
87	0xbee431c1	-0.4456921
88	0xbeb527a2	-0.353818
89	0x3e0ba1b2	0.136359
90	0x3ea4592a	0.32099277
91	0xbea694fe	-0.32535547
92	0xbe9ee552	-0.31034333
93	0xbe5794fb	-0.21052925
94	0x3da0b41b	0.078468524
95	0x3e1421be	0.14465997
96	0x3dfaedcb	0.12252387
97	0xbd91f33f	-0.07126474
98	0x3e0ef7b0	0.13961673
99	0x3eb25c3c	0.34835994
100	0xbdf5e675	-0.12006847
101	0xbeea924a	-0.45814735
102	0xbf6f2e2f	-0.93429846
103	0xbf1cbd11	-0.6122599
104	0xbd8ecdc3	-0.0697284
105	0x3cc231c8	0.023705378
106	0xbf150c80	-0.582222
107	0xbf164966	-0.5870575
108	0xbeb6feb4	-0.35741198
109	0x3e8970c0	0.26843834
110	0x3bf0e445	0.0073514306
111	0xbe71309d	-0.23553701
112	0xbda29165	-0.07937888
113	0x3dc98b9d	0.09841082
114	0x3e4107c5	0.1885062
115	0x3e577e81	0.21044351
116	0x3d4120c7	0.0471504
117	0x3c52d3cf	0.012867882
118	0x3eb798dd	0.35858813
119	0x3ed7197a	0.42011625
120	0x3df338f1	0.11876095
121	0xbde425cc	-0.11140022
122	0x3e80a673	0.2512699
123	0x3db30e04	0.08742908
124	0x3e4538aa	0.19259897

conv1.bias f4 [5]
0	0xbe641008	-0.2227174
1	0x3d1a23b4	0.037631705
2	0x3e33644e	0.17518732
3	0xbe0cc00f	-0.1374514
4	0x3e8e48e4	0.27789986

conv2.weight f4 [5, 5, 5, 5]
0	0x3da9a959	0.082842536
1	0x3d905761	0.07047916
2	0x3da0b223	0.07846477
3	0x3c6074e0	0.01369974
4	0x3cdd828c	0.027039789
5	0x3c6a79b8	0.014311247
6	0x3d857455	0.06516329
7	0xbd31a94e	-0.043374352
8	0xbd521f1d	-0.051299203
9	0x3d78f10d	0.06077676
10	0xbd20a2bf	-0.039217707
11	0xbd7e6762	-0.062110312
12	0x3d32a360	0.043612838
13	0xbd8f77cf	-0.070052736
14	0xbdb359d2	-0.08757366
15	0x3ccc96e9	0.024974303
16	0x3da631cf	0.08114969
17	0x3d4522a8	0.048128754
18	0xbd123667	-0.035696413
19	0xbd439e13	-0.047758173
20	0xbd3ad8b3	-0.045616817
21	0xbc838fca	-0.016059775
22	0xbce49d6d	-0.027907098
23	0xbc9099ba	-0.017651428
24	0xbc89ea06	-0.016835224
25	0xbd91f0c0	-0.071259975
26	0x3c5130f3	0.012768018
27	0xbd6dab23	-0.058024537
28	0x3d81a55d	0.06330369
29	0xbd6eb7b1	-0.05828065
30	0xbdac8554	-0.08423868
31	0x3d74725a	0.059679367
32	0x3bc070bb	0.0058728135
33	0x3cb8edf0	0.022574395
34	0x3b2bf3e9	0.002623791
35	0xbc46e97d	-0.012140629
36	0x3c5fa53a	0.013650233
37	0xbd6b75bb	-0.057485323
38	0x3c3c8652	0.011506634
39	0xbd0d33ee	-0.034473352
40	0xbbd3d583	-0.0064646616
41	0x3d4d86c3	0.050177347
42	0x3b39f713	0.0028376027
43	0xbd8efd51	-0.0698191
44	0x3d15c359	0.03656325
45	0xbc259a26	-0.010107553
46	0x3d472fd6	0.048629604
47	0xbcb59b86	-0.022168886
48	0xbc50d964	-0.012747142
49	0x3cb7d940	0.02244246
50	0xbd5ba27c	-0.053621754
51	0xbdc5a662	-0.09650876
52	0xbd2bbe58	-0.041929573
53	0xbdc403d5	-0.095710434
54	0xbd8d0e2c	-0.06887469
55	0xbd1da83d	-0.038490523
56	0x3d4b013d	0.049561728
57	0xbd8d24b5	-0.06891767
58	0x3b5dd6d0	0.0033849962
59	0x3bca6bd9	0.006177407
60	0xbda05a7b	-0.07829758
61	0x3cb38923	0.021915978
62	0x3cdaf9d9	0.026730465
63	0xbdbe8b6d	-0.09303937
64	0x3cf400f1	0.029785605
65	0xbc4d0f36	-0.012515834
66	0x3d9ca8d1	0.07649387
67	0xbd9ef689	-0.077618666
68	0xbd8b4455	-0.06800143
69	0xbd6e93d1	-0.058246437
70	0x3d7c4c9e	0.061596505
71	0x3d93fcf2	0.0722598
72	0xbd43b8fe	-0.047783844
73	0x3c3b3937	0.011427215
74	0xbd84e6a3	-0.06489303
75	0xbd4d4c52	-0.050121613
76	0x3d38c389	0.04510835
77	0x3c9e4fc7	0.01932515
78	0x3d8ce21c	0.068790644
79	0x3d9708cc	0.07374725
80	0x3d42f49e	0.047596566
81	0xbdc5d149	-0.096590586
82	0x3d7d2fd5	0.061813194
83	0x3cca2b16	0.024678748
84	0x3da1fa90	0.07909119
85	0xbd76c26e	-0.060244016
86	0xbc7b25ea	-0.015328864
87	0xbd952385	-0.072821654
88	0x3d812cb4	0.063073546
89	0xbda4dd18	-0.08049983
90	0xbd93412d	-0.07190166
91	0xbd49e1c4	-0.049287573
92	0xbd737169	-0.05943433
93	0xbd9eb539	-0.07749409
94	0x3d8680bc	0.06567523
95	0xbd94ab80	-0.072592735
96	0xbdc397f6	-0.095504686
97	0xbcbe6ae8	-0.023244336
98	0x3d45d6a7	0.04830041
99	0x3d5329f7	0.051553693
100	0x3d72cb35	0.059275825
101	0x3d86666f	0.065625064
102	0x3c502395	0.012703796
103	0x3d95c010	0.07312024
104	0x3d9e026e	0.07715307
105	0xbdbfde75	-0.09368602
106	0x3d5fe50e	0.054661803
107	0xbdc67c09	-0.096916266
108	0x3cb61a05	0.022229204
109	0x3b91fb6f	0.004455022
110	0xbd2a3cfb	-0.04156206
111	0x3d6af6fe	0.057364456
112	0x3c55535e	0.013020365
113	0x3d7643f8	0.060123414
114	0xbdb191ed	-0.08670411
115	0x3c8a374c	0.01687207
116	0xbc0ee372	-0.008721219
117	0xbd958df7	-0.07302468
118	0xbd990778	-0.07472128
119	0xbcf2bc87	-0.029630912
120	0xbd3bb688	-0.045828372
121	0xbdaff8eb	-0.08592399
122	0xbd875703	-0.06608393
123	0xbd3e1174	-0.046403363
124	0xbca40dce	-0.020026114
125	0x3e9cc7d3	0.30621204
126	0xbc210e60	-0.009830087
127	0xbe0cf4f4	-0.13765317
128	0xbe1ffbd2	-0.15623406
129	0x3d3fba60	0.0468086
130	0xbda6a1f4	-0.08136359
131	0xbdbd0d25	-0.09231023
132	0x3e659c09	0.22422804
133	0x3e9e7053	0.30945072
134	0x3ef88ea5	0.4854633
135	0x3e3ba7e5	0.18325765
136	0x3ef7e39b	0.48415837
137	0x3f322974	0.695945
138	0x3ee0c246	0.4389822
139	0x3ebb8d80	0.36631393
140	0x3e1daddc	0.15398353
141	0x3e7c51a8	0.24640524
142	0x3e303afe	0.17210004
143	0x3e14ec9c	0.14543384
144	0x3f00c251	0.50296503
145	0x3d9761b3	0.073916815
146	0x3e6cfcff	0.23143385
147	0x3e8f762d	0.28019848
148	0x3f4560c2	0.77100766
149	0x3f21e649	0.6324201
150	0x3e1fe726	0.1561552
151	0xbea56b5a	-0.32308465
152	0xbf3c0f3e	-0.7346076
153	0xbf2c619e	-0.6733645
154	0x3d13cee2	0.03608597
155	0x3ec00997	0.37507316
156	0x3e7b7d69	0.24559559
157	0xbece2219	-0.4026039
158	0xbdd8fc27	-0.10594969
159	0x3ec504fa	0.3848036
160	0x3e491ce9	0.19639935
161	0x3e14312d	0.14471884
162	0x3d819f6e	0.06329237
163	0x3e8bf171	0.27332643
164	0x3f203f80	0.62596893
165	0x3ea225c3	0.31669435
166	0x3f0672d2	0.5251895
167	0x3f44a7a9	0.7681833
168	0x3f0cb887	0.54969066
169	0x3eb09774	0.3449055
170	0x3e026773	0.12734775
171	0x3d8f922a	0.070103005
172	0x3bdd292d	0.0067492933
173	0xbd5a8d7e	-0.053357594
174	0xbe06bde9	-0.13158382
175	0xbe3730cb	-0.17889707
176	0xbe57a8be	-0.21060464
177	0xbe37e388	-0.1795789
178	0xbe825715	-0.25457063
179	0xbe066606	-0.13124856
180	0xbe27cb07	-0.16386043
181	0xbe890860	-0.26764202
182	0xbd1ab80d	-0.03777318
183	0x3ccde65b	0.025134256
184	0x3d9ab61e	0.07554267
185	0xbda48388	-0.080329
186	0xbe56f2c4	-0.20991045
187	0x3d87b51b	0.0662634
188	0x3dd6d2cc	0.10489425
189	0x3ce7c514	0.028292216
190	0xbe3fbedd	-0.18725152
191	0xbe0ed716	-0.13949236
192	0xbe3a9623	-0.18221335
193	0xbe31773d	-0.17330642
194	0xbe64d5ce	-0.22347185
195	0xbe6c2517	-0.23061024
196	0xbdfa896c	-0.122332424
197	0xbe5aa615	-0.21352418
198	0xbe260661	-0.16213371
199	0xbcffcc3e	-0.03122532
200	0x3e8303a5	0.25588718
201	0xbdfea5cf	-0.12433969
202	0xbe163a6d	-0.14670725
203	0xbdda279d	-0.10652087
204	0xbde9e9ec	-0.1142157
205	0x3dbf4fcd	0.09341393
206	0x3e801a73	0.2502018
207	0x3f0cc43d	0.54986936
208	0x3ee025b8	0.43778777
209	0x3f075f37	0.5287966
210	0xbe66059f	-0.22463082
211	0x3e250798	0.16116178
212	0x3ef83eee	0.48485512
213	0xbe83b58c	-0.25724447
214	0x3ebad582	0.3649102
215	0xbe0afe43	-0.13573556
216	0x3ecb30eb	0.3968576
217	0x3f4696d3	0.7757389
218	0x3ee9984e	0.45624012
219	0x3f2708d8	0.6524787
220	0x3ec1bdee	0.37840217
221	0x3f0d4b6e	0.5519322
222	0x3f33539d	0.7004946
223	0x3ece9031	0.40344384
224	0x3dd0821c	0.101810664
225	0xbcf423b0	-0.029802173
226	0x3d90d1ab	0.07071241
227	0x3d2c8574	0.04211946
228	0xbd294497	-0.041325178
229	0xbe28eafa	-0.16495886
230	0xbe291f62	-0.16515878
231	0xbe9aae43	-0.30211076
232	0xbdde21ab	-0.108462654
233	0x3dcad80d	0.0990449
234	0x3c3d2d22	0.011546405
235	0x3d8aeb81	0.067832
236	0xbda17544	-0.07883695
237	0x3eef6a54	0.4676081
238	0x3eed7492	0.46378
239	0x3e80761b	0.25090107
240	0xbd3ae9d2	-0.045633145
241	0x3e48ea05	0.19620521
242	0x3f221084	0.6330645
243	0x3deb5eae	0.11492668
244	0xbe906579	-0.28202417
245	0xbdd8b45b	-0.10581275
246	0x3e61ef92	0.22064045
247	0x3f10a5c6	0.5650295
248	0xbe75182d	-0.23935004
249	0xbf16748b	-0.5877158
250	0xbd8a1288	-0.06741816
251	0xbdff54de	-0.12467359
252	0x3d99e1f2	0.07513799
253	0xbe163147	-0.14667235
254	0xbe462802	-0.193512
255	0x3e7de404	0.24794012

conv2.bias f4 [5]
0	0xbcdcab2f	-0.026937095
1	0xbe41d2fd	-0.18928142
2	0x3e522790	0.20522904
3	0xbb08c06b	-0.0020866643
4	0xbd284ed2	-0.041090794

fc.weight f4 [1, 80]
0	0x3d97cc43	0.07412007
1	0x3c074890	0.008257046
2	0xbd36b179	-0.044602845
3	0xbdcc8ec7	-0.0998817
4	0x3d3356e0	0.043784022
5	0xbdda496f	-0.106585376
6	0x3dc38c0e	0.09548198
7	0xbd96d20a	-0.073642805
8	0x3dada760	0.0847919
9	0xbd55ec00	-0.05222702
10	0xbd3a917a	-0.045548894
11	0x3cc1b990	0.023648053
12	0xbc4cad28	-0.012492456
13	0xbd99f8dc	-0.07518169
14	0xbd27f44e	-0.04100447
15	0xbd920de0	-0.07131553
16	0xbfcad377	-1.5845784
17	0xbfb638e7	-1.4236115
18	0xbfd1df58	-1.6396284
19	0xbfb65ba1	-1.4246713
20	0xbf54d6c8	-0.8314023
21	0xbf2a3514	-0.6648724
22	0xbf5bc204	-0.8584292
23	0xbf8e1ee5	-1.1103178
24	0xbf8dcb81	-1.107773
25	0xbf8f58a0	-1.1198921
26	0xbfacb2ce	-1.3492067
27	0xbf14a366	-0.58061826
28	0xbfadc7d4	-1.3576608
29	0xc000e3bc	-2.0138998
30	0xbf9e062d	-1.2345635
31	0xbf719846	-0.94372976
32	0x3f3ce67d	0.737892
33	0x3f194547	0.59871334
34	0x3f312c90	0.6920862
35	0x3f48a672	0.78378975
36	0x3eb46819	0.3523567
37	0x3e71ecf8	0.23625553
38	0x3e86570c	0.26238286
39	0x3f084d42	0.53242886
40	0x3e1306e3	0.14358096
41	0x3e8a9163	0.27064046
42	0x3ea20c9c	0.31650245
43	0x3e59b4e5	0.21260412
44	0x3eeab62f	0.4584212
45	0x3f4db412	0.8035289
46	0x3eec589f	0.46161363
47	0x3e90057d	0.28129187
48	0x3db05598	0.08610076
49	0x3d9f1575	0.077677645
50	0xbb38701d	-0.0028142997
51	0xbdc158fe	-0.09440802
52	0xbd764243	-0.060121786
53	0x3dce9484	0.10086921
54	0xbdb49b46	-0.088186786
55	0xbcab4313	-0.020906007
56	0x3dc5ba7c	0.0965471
57	0xbdad5e8f	-0.08465301
58	0xbc83d41e	-0.016092356
59	0x3dab8e77	0.083767824
60	0xbd472f17	-0.048628893
61	0xbd95b47b	-0.073098145
62	0x3d16d23d	0.036821593
63	0x3d11d7d4	0.03560622
64	0xbe7a5ec1	-0.24450208
65	0xbf700a0f	-0.9376535
66	0xbfa31d7b	-1.2743372
67	0x3d91bf0c	0.071165174
68	0xbf4517a8	-0.7698922
69	0xbfa247d6	-1.2678173
70	0xbf57b33c	-0.84257865
71	0xbf3b8be7	-0.7326035
72	0xbe980833	-0.29693756
73	0xbf0ad5bf	-0.542324
74	0xbf0a305a	-0.5398003
75	0xbf1d6d9a	-0.61495364
76	0xbf0bc2fa	-0.54594386
77	0xbf970eb9	-1.1801368
78	0xbf726d0f	-0.9469766
79	0x3e2ba772	0.16763094
