demo_mnist/models/feature_extraction.pth (torch_old, 176688 bytes, 10 tensors)

conv1.weight f4 [6, 1, 5, 5]
-0.38498846 -0.34638387 -0.5646458 -0.03162012 0.03936811 -0.71871203 -0.7548437 -0.4785774
0.021807905 0.2023645 -0.26464045 -0.3050809 0.19004473 0.17071208 0.03368527 0.19844833
0.36560863 0.55483335 0.32132435 -0.14856407 0.37220502 0.67391706 0.34960493 -0.35175967
-0.6502598 0.24099244 0.120281585 -0.15291266 0.08014545 0.23155692 0.083721854 0.06766548
-0.08047902 0.17109227 0.2151066 0.05433791 -0.21887687 -0.07931031 -0.15961188 0.20241836
-0.29456258 -0.30235618 -0.019892177 -0.09670567 0.19743003 -0.11878455 -0.25482157 0.0786385
0.120946184 0.14069699 -0.19849913 -0.09543106 -0.15886883 0.22582889 0.0029915525 -0.30163985
-0.108108856 -0.25910273 -0.28444305 0.1040196 -0.3186827 -0.3759107 -0.1379884 -0.2589464
-0.15362978 -0.2340774 -0.32927963 -0.27618378 -0.17605841 -0.15392776 0.3319069 0.1568136
0.24423486 0.122039124 0.20067507 0.0077568255 -0.07265247 -0.52215475 -0.5403128 -0.24719457
0.2842699 0.08524163 -0.51700884 -0.38146654 -0.29099724 0.29047227 -0.06909301 -0.33796546
-0.22643894 -0.15323222 0.52862406 0.38969997 -0.3335548 -0.22289303 -0.15495594 0.2872255
-0.09110219 -0.13545585 -0.15881549 -0.14829135 -0.19259916 0.1350062 0.16581674 -0.051460374
-0.14223136 0.15452304 0.18647812 -0.14357243 0.059658878 0.17873548 0.21735789 0.1681001
-0.124270804 -0.25678912 -0.002799458 0.25581986 -0.18945585 -0.16050011 -0.13900936 -0.08038524
0.10290042 -0.15964854 0.010554872 -0.16241789 0.06664691 -0.6706268 0.105841435 -0.062370244
0.0033480464 -0.06245792 0.15499075 0.36671516 0.1608821 -0.1792638 -0.019801091 0.5338354
0.54822314 -0.46083438 -0.5883307 -0.4442114 0.4790722 0.29131973 -0.56689227 -0.65954566
-0.48608062 0.112396866 0.027824702 -0.36680403 -0.44815966 -0.27269185
00000000: 351d c5be 3a59 b1be a18c 10bf 1984 01bd
00000010: 7540 213d 83fd 37bf 703d 41bf 1908 f5be
00000020: 7ea6 b23c a438 4f3e f47e 87be 9033 9cbe
00000030: 169b 423e 26cf 2e3e 91f9 093d 0a36 4b3e
00000040: 0e31 bb3e 8f09 0e3f a084 a43e 2e21 18be
00000050: a891 be3e d485 2c3f 6bff b23e d819 b4be
00000060: 6d77 26bf b9c6 763e 3156 f63d 2395 1cbe
00000070: 4c23 a43d 421d 6d3e 5d76 ab3d 3394 8a3d
00000080: 2fd2 a4bd d032 2f3e e844 5c3e 6e91 5e3d
00000090: 4221 60be 726d a2bd 4c71 23be c246 4f3e
000000a0: e8d0 96be 6ece 9abe ebf4 a2bc 9f0d c6bd
000000b0: 192b 4a3e 5045 f3bd f977 82be 390d a13d
000000c0: a2b2 f73d df12 103e 5b43 4bbe 5c71 c3bd
000000d0: 83ae 22be b03f 673e ec0d 443b 8a70 9abe
000000e0: 2d68 ddbd 1da9 84be 85a2 91be 3a08 d53d
000000f0: 612a a3be 5e77 c0be d54c 0dbe 9f94 84be
00000100: 2051 1dbe fcb1 6fbe 5797 a8be f667 8dbe
00000110: a848 34be 3d9f 1dbe b4ef a93e bf93 203e
00000120: b418 7a3e a6ef f93d c47d 4d3e f82c fe3b
00000130: d1ca 94bd efab 05bf f151 0abf 9320 7dbe
00000140: d38b 913e 2a93 ae3d b15a 04bf 954f c3be
00000150: 97fd 94be c8b8 943e a380 8dbd cf09 adbe
00000160: 9cdf 67be e8e8 1cbe e853 073f c186 c73e
00000170: b2c7 aabe 123e 64be c5ac 1ebe 390f 933e
00000180: c993 babd f0b4 0abe 87a0 22be b0d9 17be
00000190: b738 45be 113f 0a3e ddcb 293e 1dc8 52bd
000001a0: 19a5 11be 4a3b 1e3e 1ff4 3e3e a704 13be
000001b0: de5c 743d 6f06 373e 1193 5e3e 6f22 2c3e
000001c0: b181 febd dd79 83be 1d77 37bb d2fa 823e
000001d0: b700 42be 245a 24be 7858 0ebe 04a1 a4bd
000001e0: 75bd d23d e87a 23be 58ee 2c3c e050 26be
000001f0: 2d7e 883d 33ae 2bbf 65c3 d83d f177 7fbd
00000200: e66a 5b3b e0d3 7fbd e5b5 1e3e 17c2 bb3e
00000210: 47be 243e ee90 37be e635 a2bc 70a9 083f
00000220: 5a58 0c3f 7cf2 ebbe d79c 16bf ad6f e3be
00000230: f448 f53e dc27 953e da1f 11bf fcd7 28bf
00000240: 8fdf f8be 5430 e63d a1f0 e33c bdcd bbbe
00000250: 2f75 e5be 449e 8bbe

conv1.bias f4 [6]
-0.29629675 0.03970004 0.37455574 -0.25987846 0.0012019867 -0.272213
00000000: 35b4 97be 829c 223d c5c5 bf3e ca0e 85be
00000010: fb8b 9d3a 815f 8bbe

conv2.weight f4 [16, 6, 5, 5]
-0.0428565 0.0060855667 0.038649797 0.041667335 0.10487352 0.16620813 0.24120197 0.17873614
0.042943873 0.19169767 0.1755681 0.14068884 0.064290226 -0.022664865 0.11006074 0.13696562
0.035855226 0.08632352 0.18044898 0.02884824 0.02400249 0.07093398 0.18531576 0.0041105403
0.03706201 0.15122315 0.018079855 0.064171866 0.033725485 -0.017907713 0.14039196 -0.118139334
-0.06494534 -0.06991469 -0.04354854 0.047066797 -0.15529147 0.1332154 0.11284651 -0.023729665
0.14227995 0.0791672 0.1192291 0.07769289 -0.012507728 -0.037409876 -0.12759662 -0.03238277
-0.14411274 -0.06930803 0.04200076 -0.020468535 0.08124649 -0.011709676 -0.06752705 0.15585618
0.10673211 0.0720016 0.12646434 0.027255312 0.018496126 -0.07812319 -0.040338505 -0.056799136
0.01674109 0.11324799 -0.012657691 0.017491132 0.11376634 -0.0572742 0.07603906 0.0731407
0.12679704 0.07254051 -0.03322414 -0.034325417 0.106018476 0.057124656 0.032525357 0.122647785
-0.043113176 0.14256215 0.14109707 0.09657434 0.1627112 0.09822559 0.1628174 0.050082784
-0.08528419 0.08316684 0.053734593 -0.007238467 0.05043126 -0.0020093187 0.09665082 0.09245278
0.031007286 0.120088935 -0.011337763 0.057608042 -0.027560866 0.030221578 -0.06811756 -0.10505406
-0.020337366 -0.11072631 0.017066043 0.0659652 -0.017202131 -0.071518056 -0.051412296 0.19592121
0.16359867 -0.12440194 0.025419997 0.048010502 0.044683367 -0.095789835 -0.01685262 0.063831694
-0.023848632 0.008706283 -0.08167684 -0.041789252 0.043662556 0.14017569 0.039991822 0.06457637
-0.03265914 0.1156238 0.017321587 0.0870623 0.048657607 -0.019717902 0.036947343 0.009080778
0.25316423 0.14610939 -0.002766361 0.08931494 0.13188675 0.050016735 0.049889285 0.064556524
0.19165249 0.0051109996 -0.06462107 0.031155529 0.033428587 0.1504503 0.084976576 0.023061449
0.03980574 -0.030715257 -0.059805196 -0.056396276 0.041561928 0.055138085 0.09909816 0.05490916
0.02403904 -0.0149724865 0.024340754 0.024299921 -0.017023971 -0.00075641525 -0.05209714 -0.026291123
0.0058974572 0.008276472 -0.015154088 -0.0062228423 -0.034371752 -0.004280137 -0.06692306 -0.06995911
-0.0073364344 -0.056341507 0.079981655 0.011887444 -0.0065042586 -0.032051478 -0.048588492 0.052311756
-0.075840205 -0.013743976 0.043398324 -0.03390321 0.014698889 -0.05561123 0.03628556 0.11090035
-0.021740166 0.072729506 0.016323559 0.011587139 -0.013732613 -0.064676784 -0.03601425 -0.008314891
0.038501106 -0.026444932 -0.09920488 0.028432569 -0.0146988155 -0.03475614 0.082982615 0.009837268
0.004541516 0.037113972 0.019013213 0.039496604 0.039380588 -0.061807264 -0.03983039 0.014754877
0.094502605 0.034581725 -0.04080537 0.08487538 0.0008197628 -0.016698118 0.06606171 -0.020472001
0.017801724 -0.01676797 -0.0150515605 -0.0200372 -0.047449704 -0.050246503 -0.061502855 0.010419296
-0.05349109 0.06262953 -0.005319526 0.0031524724 -0.036863126 0.0678098 0.081984565 -0.0029157794
0.063221455 0.058728177 0.033476677 0.10669439 -0.060785532 -0.017173793 -0.06837851 -0.013353167
0.082392626 0.04037711 0.018435732 0.016856732 0.075989224 0.08537561 -0.037097964 -0.033122756
00000000: 4c8a 2fbd 6f69 c73b 404f 1e3d 5eab 2a3d
00000010: eec7 d63d 7732 2a3e a6fd 763e 9b06 373e
00000020: eae5 2f3d 654c 443e 20c8 333e bc10 103e
00000030: 98aa 833d abab b9bc 8667 e13d b740 0c3e
00000040: eedc 123d 63ca b03d 9ec7 383e 2553 ec3c
00000050: dfa0 c43c d645 913d 6ac3 3d3e b6b1 863b
00000060: 56ce 173d 3eda 1a3e 341c 943c 8a6c 833d
00000070: bc23 0a3d 32b3 92bc e9c2 0f3e 09f3 f1bd
00000080: 1002 85bd 6f2f 8fbd f45f 32bd 1dc9 403d
00000090: ba04 1fbe 9e69 083e 121c e73d b764 c2bc
000000a0: d6b1 113e 6a22 a23d 632e f43d 731d 9f3d
000000b0: 37ed 4cbc 193b 19bd b0a8 02be cca3 04bd
000000c0: 4a92 13be 5ef1 8dbd fd08 2c3d a1ad a7bc
000000d0: 8f64 a63d f1d9 3fbc 9f4b 8abd c398 1f3e
000000e0: 5d96 da3d 9375 933d de7f 013e 8846 df3c
000000f0: 3085 973c 0dff 9fbd fd39 25bd 36a6 68bd
00000100: 9c24 893c 90ee e73d 3462 4fbc 9049 8f3c
00000110: 54fe e83d 5a98 6abd 5eba 9b3d cbca 953d
00000120: 15d7 013e 1e90 943d 0916 08bd cf98 0cbd
00000130: 3720 d93d 8bfb 693d 4f39 053d c32e fb3d
00000140: 7197 30bd d0fb 113e c07b 103e c4c8 c53d
00000150: c49d 263e 802a c93d 9bb9 263e 9b23 4d3d
00000160: 7aa9 aebd 6053 aa3d ce18 5c3d aa30 edbb
00000170: 0291 4e3d c6ae 03bb ddf0 c53d e257 bd3d
00000180: fe02 fe3c 30f1 f53d 06c2 39bc 69f6 6b3d
00000190: 53c7 e1bc 3e93 f73c 3881 8bbd 9526 d7bd
000001a0: 8c9a a6bc 7ac4 e2bd 16ce 8b3c c318 873d
000001b0: 7ceb 8cbc 0f78 92bd b395 52bd 929f 483e
000001c0: 6986 273e 72c6 febd 993d d03c a9a6 443d
000001d0: e805 373d 762d c4bd 810e 8abc 31ba 823d
000001e0: 355e c3bc cca4 0e3c 3046 a7bd 352b 2bbd
000001f0: 82d7 323d 378a 0f3e 77ce 233d 9e40 843d
00000200: 97c5 05bd 2ccc ec3d 00e6 8d3c b84d b23d
00000210: 334d 473d 7087 a1bc 1956 173d 8bc7 143c
00000220: be9e 813e b39d 153e d64b 35bb c0ea b63d
00000230: 520d 073e 59de 4c3d b558 4c3d 3636 843d
00000240: 8d40 443e 2c7a a73b 0d58 84bd e139 ff3c
00000250: 6aec 083d a50f 1a3e 3308 ae3d 5deb bc3c
00000260: 580b 233d 909e fbbc 4bf6 74bd c8ff 66bd
00000270: d73c 2a3d 79d8 613d faf3 ca3d 6de8 603d
00000280: 85ed c43c 294f 75bc 4366 c73c a110 c73c
00000290: db75 8bbc 2b4a 46ba d063 55bd 7b60 d7bc
000002a0: 753f c13b 0a9a 073c da48 78bc fce8 cbbb
000002b0: 65c9 0cbd 6440 8cbb f50e 89bd b946 8fbd
000002c0: 7966 f0bb 5ac6 66bd 6ccd a33d 8ec3 423c
000002d0: ad21 d5bb 6948 03bd ba04 47bd da44 563d
000002e0: 1c52 9bbd 6a2e 61bc 71c2 313d 18de 0abd
000002f0: 9cd3 703c 9ac8 63bd 2ba0 143d b91f e33d
00000300: 6f18 b2bc 35f3 943d fcb8 853c fcd7 3d3c
00000310: c1fe 60bc 4375 84bd ae83 13bd 2e3b 08bc
00000320: 56b3 1d3d 0ba3 d8bc ee2b cbbd 6beb e83c
00000330: 4dd3 70bc 745c 0ebd caf2 a93d 7e2c 213c
00000340: ffd0 943b d204 183d 99c1 9b3c 31c7 213d
00000350: 8a4d 213d 9d29 7dbd 3125 23bd 71be 713c
00000360: 958a c13d 91a5 0d3d 8823 27bd 25d3 ad3d
00000370: 5ae5 563a 7eca 88bc 5d4b 873d e6b4 a7bc
00000380: ecd4 913c fb5c 89bc d29a 76bc 0e25 a4bc
00000390: 9f5a 42bd 47cf 4dbd 6bea 7bbd b2b5 2a3c
000003a0: 7919 5bbd e943 803d 6b4f aebb b699 4e3b
000003b0: cafd 16bd dddf 8a3d 86e7 a73d a916 3fbb
000003c0: 407a 813d f58c 703d d71e 093d 9782 da3d
000003d0: 40fa 78bd 0eb0 8cbc 080a 8cbd 3ec7 5abc
000003e0: 77bd a83d 7862 253d 8806 973c 2117 8a3c
000003f0: 3da0 9b3d 68d9 ae3d 09f4 17bd baab 07bd

conv2.bias f4 [16]
-0.31471738 -0.070356935 -0.2840039 -0.3584363 -0.077151686 0.11688357 -0.11869943 0.12998337
-0.08208695 -0.1634649 -0.27789825 -0.02256285 -0.08613134 0.15422247 0.39942992 -0.18964212
00000000: a322 a1be 4c17 90bd f668 91be f684 b7be
00000010: b401 9ebd a760 ef3d b018 f3bd 5c1a 053e
00000020: 341d a8bd 5863 27be ae48 8ebe bad5 b8bc
00000030: a165 b0bd 7fec 1d3e 1482 cc3e 8b31 42be

fc1.weight f4 [120, 256]
-0.02548886 0.016994352 0.02284178 -0.043014128 0.006755829 -0.009334646 -0.011919217 -0.019512309
0.052205246 -0.015763545 0.028002596 0.03983703 0.044404794 -0.03931885 0.039815463 0.0022905439
-0.043833468 -0.019620214 0.050439864 0.012012206 -0.008581277 0.003071531 -0.018916583 0.04107937
-0.012471981 0.01267749 -0.037086133 0.058545493 0.014059616 -0.016977547 -0.02184063 0.0338286
0.0131008485 -0.009711416 0.03316536 0.019008586 -0.011799821 -0.01430239 -0.031940453 0.04172342
-0.007830906 0.0068282722 -0.031226292 -0.048023146 0.019939424 0.0029396773 0.0035790505 -0.020654706
0.015155434 0.011867317 0.029737305 0.01011067 -0.0043500573 0.02414579 -0.030895716 -0.0212826
0.023189314 -0.052428473 0.06418045 0.04695574 0.03148502 -0.02311838 -0.022754243 0.058229
-0.011721339 0.058199238 -0.048437394 -0.014210976 -0.011193362 0.026832474 0.04997792 0.009225255
-0.009940933 0.02682162 0.009938276 -0.046687264 -0.04557431 0.050571382 -0.032167003 -0.017076656
-0.03398532 -0.010075531 0.032676727 -0.0074825105 0.054913674 0.040890004 0.0020119224 0.005073287
0.023162883 0.008461359 -0.04962656 -0.022848131 -0.059466626 0.009961135 0.03520527 0.008691215
0.035013214 0.052210383 0.03647863 0.035036232 0.04551992 0.02259916 -0.008387477 0.01953745
-0.039606236 -0.027933266 0.011900136 0.062713705 0.04603822 0.035463378 -0.05657772 -0.030057648
0.047815416 -0.048883773 -0.040107597 0.025529556 -0.02389658 -0.04101084 0.03303322 0.04009382
-0.012872705 0.03644757 -0.064481676 0.050814226 0.027811594 0.0516201 0.0015940359 -0.063657254
-0.03737119 -0.045795586 -0.052448556 0.035008136 0.045324057 -0.006165904 -0.0070071127 -0.06171798
-0.00062157627 0.03657316 -0.042327754 0.018590577 -0.024650726 -0.04513998 -0.058006417 0.0017707375
-0.03441585 0.037600383 -0.021479866 0.033221316 0.034853864 -0.032829493 0.017936695 -0.016417298
-0.0028794364 -0.047620658 0.04901461 0.005576178 0.050265513 0.049490888 0.02331627 -0.05164378
0.0077061844 0.0022014736 0.048309445 -0.0075146016 -0.059357744 0.039597254 -0.04170709 0.010449761
-0.05499555 -0.045831174 0.0543748 0.003497295 -0.037863098 0.022325166 0.061558366 -0.0025719241
0.058949646 0.015438452 -0.004332547 -0.058768857 0.032009173 -0.0061783427 0.010984007 0.011700419
-0.0035157192 0.061505888 0.03243905 -0.059550613 0.014996445 -0.009331947 0.007398674 0.005473878
-0.030127756 0.026141006 0.018295156 0.029632565 -0.018629722 0.02133623 0.020771919 0.018341573
-0.057959866 0.015867345 -0.02793531 -0.015597112 -0.036328133 -0.046949565 0.012376974 -0.0421498
0.05457733 0.0046904488 -0.021342505 0.0507948 0.029204072 -0.02762631 0.05623951 -0.059181795
0.054516803 -0.040992383 -0.04427091 0.036942266 -0.052812256 -0.009995593 0.0062554455 0.03518048
-0.052915096 -0.05657033 -0.0068301144 -0.04606785 0.016684022 0.034961473 0.017048273 0.039313044
-0.02795542 -0.018533297 0.0036559266 -0.00042627213 -0.045209 -0.025115231 -1.4494965e-05 -0.05286858
-0.058851857 -0.06513547 0.024334664 -0.06192752 -0.012744545 0.032553993 0.0067522367 -0.019671708
0.034075227 -0.031970106 -0.050285917 0.027843827 -0.026350172 0.05642209 -0.0417508 0.03902559
00000000: 04ce d0bc bd37 8b3c af1e bb3c 952f 30bd
00000010: 0060 dd3b 58f0 18bc d248 43bc 47d8 9fbc
00000020: 2bd5 553d 8d22 81bc b365 e53c 272c 233d
00000030: cde1 353d cd0c 21bd 8a15 233d f31c 163b
00000040: b98a 33bd 92ba a0bc 089a 4e3d d8ce 443c
00000050: 7c98 0cbc bd4b 493b f3f6 9abc d742 283d
00000060: 4857 4cbc 3fb5 4f3c a1e7 17bd 66cd 6f3d
00000070: 4e5a 663c 7f14 8bbc 1feb b2bc dc8f 0a3d
00000080: f1a4 563c a21c 1fbc 67d8 073d e5b7 9b3c
00000090: 0954 41bc 9254 6abc fed3 02bd 2de6 2a3d
000000a0: 334d 00bc b3bf df3b 48ce ffbc ebb3 44bd
000000b0: 0158 a33c 9aa7 403b 818e 6a3b 0f34 a9bc
000000c0: 7f4e 783c 236f 423c a69b f33c 39a7 253c
000000d0: ed8a 8ebb 64cd c53c 0319 fdbc d958 aebc
000000e0: 84f7 bd3c 3dbf 56bd 0a71 833d a954 403d
000000f0: 70f6 003d c262 bdbc 1b67 babc 8881 6e3d
00000100: dc0a 40bc 5362 6e3d 4a66 46bd 27d5 68bc
00000110: 5d64 37bc c7cf db3c a6b5 4c3d 8625 173c
00000120: 4cdf 22bc 04b9 db3c 27d4 223c 253b 3fbd
00000130: 21ac 3abd f023 4f3d 8cc1 03bd 58e4 8bbc
00000140: 3134 0bbd d713 25bc 08d8 053d d92f f5bb
00000150: 29ed 603d 477c 273d 75da 033b d13d a63b
00000160: 16c0 bd3c 83a1 0a3c 3845 4bbd 012c bbbc
00000170: 4793 73bd 0734 233c 6733 103d 9965 0e3c
00000180: 046a 0f3d 8eda 553d 9e6a 153d 2782 0f3d
00000190: 1873 3a3d e021 b93c a16b 09bc 010d a03c
000001a0: 263a 22bd 4ed4 e4bc caf8 423c 0b70 803d
000001b0: 9392 3c3d 0c42 113d 0abe 67bd 753b f6bc
000001c0: 19da 433d 5a3a 48bd dd47 24bd 5c23 d13c
000001d0: c3c2 c3bc fcfa 27bd d74d 073d 6b39 243d
000001e0: 0ae8 52bc 0c4a 153d f80e 84bd 9422 503d
000001f0: 24d5 e33c 996f 533d f8ee d03a bc5e 82bd
00000200: 8812 19bd 2794 3bbd 4cd4 56bd b164 0f3d
00000210: b8a5 393d 5a0b cabb ec9b e5bb fecb 7cbd
00000220: 47f1 22ba bdcd 153d de5f 2dbd 444b 983c
00000230: 52f0 c9bc b3e4 38bd 2398 6dbd 1718 e83a
00000240: a2f7 0cbd dc02 1a3d 8bf6 afbc 1313 083d
00000250: edc2 0e3d 3878 06bd faef 923c 927d 86bc
00000260: edb4 3cbb e10d 43bd 8bc3 483d 5fb8 b63b
00000270: 36e3 4d3d f5b6 4a3d c301 bf3c 6e88 53bd
00000280: 2984 fc3b 9946 103b 20e0 453d 0c3d f6bb
00000290: 1b21 73bd bb30 223d 0ed5 2abd 7935 2b3c
000002a0: 0443 61bd 78b9 3bbd 1cb8 5e3d e032 653b
000002b0: 5616 1bbd 44e3 b63c a024 7c3d ba8d 28bb
000002c0: 2f75 713d 90f1 7c3c 0af8 8dbb 9db7 70bd
000002d0: 0d1c 033d b273 cabb 44f6 333c 1db3 3f3c
000002e0: fb67 66bb 99ed 7b3d cfde 043d 58eb 73bd
000002f0: a6b3 753c 06e5 18bc 9370 f23b 375e b33b
00000300: 7cce f6bc aa25 d63c b9df 953c febf f23c
00000310: 5c9d 98bc 51c9 ae3c df29 aa3c 1141 963c
00000320: 5367 6dbd 3cfc 813c 97d8 e4bc 078b 7fbc
00000330: cfcc 14bd 304e 40bd cbc8 4a3c 45a5 2cbd
00000340: 7a8c 5f3d 56b2 993b 7ad6 aebc 350e 503d
00000350: 613d ef3c 9250 e2bc 675b 663d 9c68 72bd
00000360: 034d 5f3d a1e7 27bd 6a55 35bd c650 173d
00000370: aa51 58bd 8ec4 23bc 7bfa cc3b 6819 103d
00000380: 80bd 58bd 4ab6 67bd 27cf dfbb a4b1 3cbd
00000390: eeac 883c c333 0f3d d2a8 8b3c b706 213d
000003a0: c402 e5bc 24d3 97bc 4598 6f3b 477d dfb9
000003b0: 132d 39bd 75be cdbc 672f 73b7 b98c 58bd
000003c0: a50e 71bd bf65 85bd 7d59 c73c b6a7 7dbd
000003d0: 7fce 50bc 5657 053d de41 dd3b 9026 a1bc
000003e0: 7792 0b3d 16f3 02bd 9bf8 4dbd bd18 e43c
000003f0: 51dc d7bc d91a 673d e302 2bbd 4cd9 1f3d

fc1.bias f4 [120]
0.036410034 0.05127245 -0.0063147754 -0.05423938 -0.012178099 -0.069067076 0.07625673 -0.027724562
0.054162137 0.077947505 -0.018382315 -0.058373976 0.020219138 -0.05693796 -0.049397618 0.1300832
-0.022604404 -0.050665013 0.14373952 0.04048956 -0.056231365 -0.0006113305 -0.008094982 0.00842407
0.034922205 -0.056805745 -0.018582752 0.0005996837 -0.02365835 0.060845006 0.024089728 0.03432486
0.029713793 -0.03250971 -0.04222255 0.111893795 -0.07164975 0.077080384 -0.02510452 0.058542136
-0.023968209 -0.004615961 0.00050160737 -0.014858036 0.010318041 0.11774256 0.012465421 -0.019203266
-0.078030795 -0.11029921 0.04425713 0.10207706 0.012035547 -0.05234977 0.047043968 -0.026716433
-0.008559413 -0.033343885 0.09828632 0.002976894 0.022727178 -0.0008715036 0.019263739 -0.034421615
0.0370821 -0.061830226 0.05888579 0.021312112 -0.026944552 0.021074213 -0.02243567 0.043258388
0.01041849 0.011693006 -0.029450906 -0.045266084 0.018408611 -0.069184996 0.026196975 -0.058997933
-0.0184708 0.14031096 -0.03598226 -0.011084736 -0.043356217 0.028401036 -0.034521542 0.022027353
0.075608656 0.017663866 -0.0016090994 -0.05957117 0.025792044 0.14884177 0.07834939 0.03485206
0.05014611 -0.027724212 -0.037715 -0.010226495 0.14471912 0.072008654 -0.002441428 -0.056105092
-0.036434084 -0.09430291 0.0014320858 0.013254232 -0.09139051 -0.007780978 -0.003594908 0.05416292
-0.020592034 0.033716407 -0.060466293 -0.026173864 -0.00093820976 -0.047269173 0.045558885 -0.017936055
00000000: b022 153d 0f03 523d 2dec cebb 1d2a 5ebd
00000010: a686 47bc 0a73 8dbd 7d2c 9c3d 9f1e e3bc
00000020: 1ed9 5d3d f1a2 9f3d 8296 96bc 8d19 6fbd
00000030: 9ba2 a53c c737 69bd 2855 4abd 8834 053e
00000040: df2c b9bc 1e86 4fbd 7430 133e 62d8 253d
00000050: dc52 66bd b241 20ba d1a0 04bc 1c05 0a3c
00000060: 960a 0f3d 24ad 68bd db3a 98bc 1834 1d3a
00000070: 28cf c1bc 9d38 793d d257 c53c 3998 0c3d
00000080: 576a f33c e728 05bd 8df1 2cbd 9328 e53d
00000090: 1bbd 92bd 52dc 9d3d ffa7 cdbc e1c9 6f3d
000000a0: fa58 c4bc 7d41 97bb 4d7e 033a 1f6f 73bc
000000b0: 000d 293c 0323 f13d c43b 4c3c 2b50 9dbc
000000c0: 9cce 9fbd 8de4 e1bd f746 353d c70d d13d
000000d0: be30 453c b66c 56bd 2db1 403d 6cdc dabc
000000e0: c83c 0cbc 9993 08bd 574a c93d fe17 433b
000000f0: 592e ba3c 9e75 64ba fdce 9d3c aefd 0cbd
00000100: 66e3 173d b141 7dbd 3a32 713d bd96 ae3c
00000110: d2ba dcbc d4a3 ac3c 03cb b7bc b52f 313d
00000120: 50b2 2a3c 0694 3f3c 0743 f1bc ee68 39bd
00000130: a8cd 963c ddb0 8dbd 0a9b d63c d1a7 71bd
00000140: 1350 97bc adad 0f3e 2262 13bd c19c 35bc
00000150: 4a96 31bd 4aa9 e83c 7666 0dbd b572 b43c
00000160: b6d8 9a3d d0b3 903c 6be8 d2ba e600 74bd
00000170: d649 d33c fa69 183e a575 a03d 09c1 0e3d
00000180: 0266 4d3d e31d e3bc 0b7b 1abd 078d 27bc
00000190: 4031 143e 4679 933d 5d00 20bb 74ce 65bd
000001a0: e83b 15bd e221 c1bd d3b4 bb3a 4728 593c
000001b0: f32a bbbd 93f7 febb 8c98 6bbb f0d9 5d3d
000001c0: a0b0 a8bc 371a 0a3d 81ab 77bd 926a d6bc
000001d0: 31f2 75ba 529d 41bd f49b 3a3d a2ee 92bc

fc2.weight f4 [84, 120]
-0.01624891 -0.015764192 0.08361845 0.0036345897 0.002632994 -0.055258557 0.1083872 -0.05457039
0.097233616 -0.07758363 0.019736305 0.0672278 0.024332464 -0.05630693 -0.07103386 -0.06734801
0.010956242 0.063912 0.058796708 -0.022215612 0.061330784 0.08866947 0.021190545 -0.022898054
-0.005218767 0.022731796 -0.017015204 0.093358226 -0.060308125 0.01310455 0.070430465 0.043587577
0.08251651 -0.07568602 -0.068247065 -0.056571227 -0.019213166 -0.05160454 -0.08833927 -0.07331346
0.03412233 -0.06914262 -0.010607312 0.024123268 0.06418322 0.035124667 -0.086874105 -0.04267286
0.081771545 -0.02714153 -0.058371287 0.042380773 -0.05254185 0.03352382 0.085571356 -0.06267822
-0.032236483 -0.08842837 0.075596556 -0.07008947 -0.047258902 -0.0538378 -0.028575955 -0.055663306
-0.00857688 0.09023109 -0.027291149 -0.04325487 0.033679433 0.03704908 0.016799701 -0.038428348
-0.02156833 0.009203173 0.087356135 -0.090256 0.026917167 -0.0809943 -0.07165446 0.056003105
0.01684548 -0.07180254 0.05294858 -0.07407467 -0.0012305158 0.07484968 0.07862714 -0.074512176
0.052037906 0.04196122 -0.0064657414 -0.025539452 -0.006424173 -0.054156173 -0.010877958 -0.082809635
0.0057987343 0.0364601 0.020553987 0.086565 -0.016956052 -0.027374132 0.03763432 -0.07519138
0.04521636 -0.08967846 0.058525443 0.06512017 -0.080357745 0.058109686 0.047180355 0.08354178
-0.025433766 -0.018018061 -0.007192367 0.015693322 -0.019027235 0.017403055 -0.053800747 0.024093004
-0.0010852662 0.07562095 -0.088147216 -0.062011283 -0.037615117 -0.06758711 0.06947576 0.062571764
0.081317015 -0.05978077 0.05272455 0.015269682 0.041158743 -0.042894278 0.06277822 -0.07465016
-0.022387674 0.060890343 0.064135574 0.0434797 -0.029352656 -0.05765171 0.045244414 0.08481661
-0.030647038 0.023700014 0.05361864 0.07996133 -0.070781715 0.020246956 -0.007845845 -0.029804172
-0.04024406 -0.014541134 0.010456561 -0.021462092 0.052661348 0.015498591 0.011895471 -0.08782499
-0.057130992 0.06577918 -0.07055185 -0.0509676 0.060531497 -0.07209377 0.074911356 0.047333952
0.049654923 -0.033310227 -0.010828013 -0.052527405 0.058417346 -0.033205114 0.025587127 0.05395091
0.015135999 0.07032406 -0.07001483 -0.045825113 0.06183777 -0.039409384 0.07139743 0.03705524
0.022447923 0.035959713 0.08694606 -0.03466351 -0.046252716 0.016101921 0.059566263 0.026212173
0.04046174 0.07342682 0.062008586 0.037030026 0.016140474 0.0069678985 -0.07306184 0.08314941
0.02091941 -0.08392034 -0.007518394 -0.02563435 -0.06778871 0.0787549 -0.08962026 0.050185278
-0.038828906 -0.06677594 -0.06942309 -0.079902284 -0.07469048 0.047900178 -0.06402458 -0.07375737
-0.050856527 0.06454384 -0.087033495 -0.08472519 0.09354845 0.011893635 0.08705936 -0.08427787
0.04027325 0.08714235 -0.033060525 -8.717687e-05 0.046680782 0.009034841 -0.058716845 -0.04917785
0.08937585 0.045269936 0.026335992 0.077152014 0.0131711075 0.071577266 -0.089930624 0.07500124
-0.040400676 0.01227324 0.055774454 -0.053500235 -0.00016106122 -0.033363335 -0.02044302 0.0779005
0.045487586 -0.02590652 0.029443942 0.012928944 0.056776192 0.06630346 -0.006216123 -0.047857873
00000000: 6f1c 85bc e823 81bc 2640 ab3d 4c32 6e3b
00000010: 4f8e 2c3b cc56 62bd 1cfa dd3d 3485 5fbd
00000020: 6b22 c73d 2be4 9ebd 08ae a13c bbae 893d
00000030: e054 c73c 18a2 66bd 337a 91bd c1ed 89bd
00000040: cf81 333c 4be4 823d d1d4 703d 84fd b5bc
00000050: fd35 7b3d 5798 b53d cb97 ad3c b394 bbbc
00000060: 3102 abbb 0838 ba3c 7863 8bbc 9932 bf3d
00000070: a705 77bd 77b4 563c d93d 903d e388 323d
00000080: 6afe a83d 4601 9bbd 1ec5 8bbd 3bb7 67bd
00000090: ee64 9dbc 485f 53bd 38eb b4bd 5e25 96bd
000000a0: dbc3 0b3d a59a 8dbd 4bca 2dbc 299e c53c
000000b0: 7e72 833d e2de 0f3d 0deb b1bd bdc9 2ebd
000000c0: d777 a73d ea57 debc bb16 6fbd 7697 2d3d
000000d0: 1f36 57bd 4650 093d 0940 af3d 705d 80bd
000000e0: 670a 04bd ef19 b5bd 5ed2 9a3d 118b 8fbd
000000f0: 8d92 41bd 0685 5cbd 1f18 eabc 35ff 63bd
00000100: 0b86 0cbc 14cb b83d b091 dfbc 052c 31bd
00000110: 72f3 093d c7c0 173d 879f 893c 0b67 1dbd
00000120: 11b0 b0bc e8c8 163c c6e7 b23d 23d8 b8bd
00000130: 6481 dc3c 57e0 a5bd 93bf 92bd 8363 653d
00000140: 88ff 893c 360d 93bd 9ce0 583d 76b4 97bd
00000150: 4249 a1ba ca4a 993d 4407 a13d d799 98bd
00000160: b325 553d 87df 2b3d 92de d3bb 1d38 d1bc
00000170: de81 d2bb ddd2 5dbd 7639 32bc 1998 a9bd
00000180: 4f03 be3b 3057 153d d660 a83c fe48 b13d
00000190: 6be7 8abc b73f e0bc 7226 1a3d f0fd 99bd
000001a0: ca34 393d 57a9 b7bd 60b8 6f3d b95d 853d
000001b0: 9a92 a4bd 6c04 6e3d 3040 413d f417 ab3d
000001c0: 795a d0bc 9d9a 93bc f3ad ebbb 488f 803c
000001d0: 01df 9bbc da90 8e3c 2c5e 5cbd b15e c53c
000001e0: 7e3f 8eba 28df 9a3d 8786 b4bd 8bff 7dbd
000001f0: 4f12 1abd 1c6b 8abd 4f49 8e3d a025 803d
00000200: 8989 a63d aedc 74bd b3f5 573d b02d 7a3c
00000210: 1296 283d e9b1 2fbd de91 803d 2fe2 98bd
00000220: 5b66 b7bc 2768 793d 8359 833d c517 323d
00000230: fb74 f0bc 3324 6cbd 3552 393d 55b4 ad3d
00000240: 7f0f fbbc 8826 c23c 389f 5b3d c4c2 a33d
00000250: 01f6 90bd f2dc a53c dc8b 00bc e127 f4bc
00000260: f5d6 24bd f03d 6ebc ff51 2b3c 45d1 afbc
00000270: 6db3 573d cded 7d3c 39e5 423c 97dd b3bd
00000280: 3002 6abd 3cb7 863d 7d7d 90bd 67c3 50bd
00000290: e0ef 773d e6a5 93bd 206b 993d 3fe1 413d
000002a0: f662 4b3d 4e70 08bd fa67 31bc fa26 57bd
000002b0: 0747 6f3d 1602 08bd 189c d13c a1fb 5c3d
000002c0: fbfc 773c 1006 903d ef63 8fbd 1db3 3bbd
000002d0: 9a49 7d3d bc6b 21bd d138 923d 3cc7 173d
000002e0: b5e4 b73c 7e4a 133d c710 b23d 53fb 0dbd
000002f0: 7d73 3dbd 2de8 833c c1fb 733d e9ba d63c
00000300: 36bb 253d cd60 963d b7fc 7d3d ccac 173d
00000310: 0739 843c f852 e43b 72a1 95bd 3d4a aa3d
00000320: 2f5f ab3c 6dde abbd dc5c f6bb 21ff d1bc
00000330: cfd4 8abd 404a a13d d48a b7bd 148f 4d3d
00000340: 0f0b 1fbd d3c1 88bd b12d 8ebd cfa3 a3bd
00000350: 53f7 98bd fa32 443d 521f 83bd 1b0e 97bd
00000360: ef4e 50bd 902f 843d 9e3e b2bd 6784 adbd
00000370: 5496 bf3d 85dd 423c 2e4c b23d e099 acbd
00000380: 90f5 243d b077 b23d 796a 07bd bad2 b6b8
00000390: 5934 3f3d df06 143c 1381 70bd b76e 49bd
000003a0: b00a b73d f86c 393d 94be d73c e001 9e3d
000003b0: a1cb 573c 1a97 923d 8c2d b8bd 409a 993d
000003c0: 2e7b 25bd b315 493c c173 643d 1023 5bbd
000003d0: 8be2 28b9 fea7 08bd 1f78 a7bc 4c8a 9f3d
000003e0: 3151 3a3d e939 d4bc 6c34 f13c ecd3 533c
000003f0: 278e 683d 1cca 873d 9eb0 cbbb 9e06 44bd

fc2.bias f4 [84]
0.03856791 0.049796045 -0.07758234 0.11453832 0.0031623044 0.02379102 -0.11191459 0.0027339314
0.0048841075 0.33090565 -0.06025449 0.274432 0.04326045 0.02541186 -0.008981852 0.012128095
0.009025125 -0.059516255 -0.090231225 0.012435829 -0.093191065 -0.044090275 -0.004275509 -0.031524077
-0.088225946 0.026150815 0.067414254 0.0025801666 -0.03134746 0.34194547 -0.0766344 0.07804821
-0.07943015 -0.07214596 0.098463245 -0.04025902 -0.06729558 -0.058113027 -0.007159866 -0.012837086
0.005300537 -0.022763772 -0.004470162 -0.056877512 0.27880862 0.009929329 0.13743223 -0.03422123
-0.08641979 -0.022636885 -0.09303524 -0.08216247 0.2881647 -0.048062127 -0.009095 -0.078249045
0.030806143 0.007335493 0.06751284 -0.03772403 -0.02286882 0.3667731 -0.1045849 -0.050538953
0.066617005 0.33602577 -0.022642154 -0.06466485 -0.043346327 -0.005913824 0.0077352794 -0.0571386
-0.052060667 0.005034227 -0.09619812 0.0040296307 -0.09057608 -0.055999625 -0.08611573 0.018991198
0.10672403 -0.0014090879 -0.045583606 -0.10262271
00000000: 63f9 1d3d f0f6 4b3d 7de3 9ebd 1193 ea3d
00000010: aa3e 4f3b 63e5 c23c 7a33 e5bd c22b 333b
00000020: dd0a a03b 776c a93e 69cd 76bd 5a82 8c3e
00000030: df31 313d 882c d03c 9e28 13bc ebb4 463c
00000040: 1ede 133c 51c7 73bd 26cb b8bd a6bf 4b3c
00000050: f5da bebd 0198 34bd 9219 8cbb 641f 01bd
00000060: ceaf b4bd 3c3a d63c 7c10 8a3d 0318 293b
00000070: 3266 00bd 7a13 af3e 7ff2 9cbd bdd7 9f3d
00000080: 46ac a2bd 43c1 93bd 19a7 c93d a4e6 24bd
00000090: 44d2 89bd ed07 6ebd 4f9d eabb a452 52bc
000000a0: 21b0 ad3b 177b babc 707a 92bb 65f8 68bd
000000b0: 01c0 8e3e a0ae 223c 09bb 0c3e 8f2b 0cbd
000000c0: dcfc b0bd fd70 b9bc 4389 bebd cc44 a8bd
000000d0: 538a 933e cbdc 44bd 3203 15bc 0941 a0bd
000000e0: 2a5d fc3c 935e f03b 2c44 8a3d 8384 1abd
000000f0: 6457 bbbc afc9 bb3e 9c30 d6bd ef01 4fbd
00000100: 7f6e 883d 920b ac3e 0a7c b9bc 016f 84bd
00000110: eb8b 31bd c0c8 c1bb 3a78 fd3b 2a0a 6abd
00000120: 913d 55bd 28f6 a43b 8503 c5bd fe0a 843b
00000130: f47f b9bd dd5f 65bd 725d b0bd 6e93 9b3c
00000140: 2192 da3d 25b1 b8ba e0b5 3abd db2b d2bd

fc3.weight f4 [2, 84]
-0.09961904 -0.028514199 0.18115076 -0.21830268 -0.060429685 -0.0892176 -0.043818705 0.13888618
0.11315999 -0.43074903 0.31944048 -0.33363324 -0.10506232 -0.018602718 0.0016349986 -0.03482618
0.0011408634 0.22435333 0.32047662 -0.023379581 0.39541563 0.30176926 -0.0048529897 -0.06991376
0.037079126 0.022035385 -0.019267235 0.19890018 0.017689914 -0.39365128 -0.0040748417 -0.08172726
0.3823313 -0.05065163 -0.1390693 0.092874266 0.09704717 0.37693107 -0.0136074545 -0.093517445
-0.04711171 0.088649035 0.11723665 0.00032835934 -0.39162508 0.08240793 -0.1990461 0.19246586
-0.025668325 0.047801986 0.15297727 0.14451262 -0.3682494 -0.0056324624 0.17866844 -0.10085385
0.079062484 0.20170887 -0.15347025 -0.06297737 0.22739385 -0.4051166 -0.030827396 -0.051780667
-0.069449425 -0.44486699 -0.0019312684 0.017809318 -0.0013395714 -0.0142023 0.20892225 0.029808246
0.13122909 0.03771302 -0.010154607 0.01790685 0.011561812 0.027720382 0.20497128 0.04391598
-0.015740726 -0.111048646 0.016184637 0.27097583 0.09535909 0.017278712 -0.0004460679 0.07201316
-0.082596004 0.08455844 -0.00024879785 -0.16727982 0.005243485 0.4171621 -0.27886775 0.26827076
-0.05213457 -0.13411103 -0.14687736 0.1321017 -0.124772415 -0.2724329 -0.27927542 -0.05395019
-0.3501543 -0.18895634 0.09669725 -0.017642152 0.048274707 0.061304245 0.019876163 -0.13113543
-0.015148229 0.35180497 0.022429287 0.06921429 -0.26289102 0.095013835 0.12021227 -0.052569803
0.02574835 -0.370031 -0.0961694 0.015520141 0.072749935 -0.096140735 -0.032194104 0.121801846
0.42392904 -0.070386685 0.12724629 -0.048205238 0.100776 -0.17783508 -0.06236476 -0.13660291
0.3242297 -0.0401123 -0.26097235 -0.03608264 -0.17684291 -0.10975585 -0.015132624 -0.012763044
-0.28604892 0.50790125 0.054785658 -0.11889142 0.15193903 0.35287097 -0.19638301 -0.12935182
0.07884739 -0.01828241 -0.09358791 0.06046104 -0.23386043 -0.0062424545 -0.08016029 -0.07794019
0.04062381 0.08158546 -0.33099607 0.08463612 0.14556298 0.11145703 -0.04791665 -0.3030042
00000000: 1105 ccbd 9c96 e9bc 967f 393e bd8a 5fbe
00000010: 1e85 77bd b8b7 b6bd 3e7b 33bd 2e38 0e3e
00000020: 6dc0 e73d 238b dcbe b48d a33e fad1 aabe
00000030: ea2a d7bd ba64 98bc 734d d63a e6a5 0ebd
00000040: 0689 953a e1bc 653e 8315 a43e 8986 bfbc
00000050: eb73 ca3e 8081 9a3e d405 9fbb f22e 8fbd
00000060: 48e0 173d 8d83 b43c 52d6 9dbc 7dac 4b3e
00000070: 70ea 903c a98c c9be 4086 85bb 9f60 a7bd
00000080: eec0 c33e 1578 4fbd 2f68 0ebe dd34 be3d
00000090: abc0 c63d 1cfd c03e cdf1 5ebc 1386 bfbd
000000a0: 35f8 40bd a08d b53d c519 f03d a527 ac39
000000b0: 1583 c8be 7dc5 a83d bed2 4bbe c515 453e
000000c0: 6146 d2bc 04cc 433d 13a6 1c3e 1efb 133e
000000d0: 2f8b bcbe 8590 b8bb dcf4 363e 778c cebd
000000e0: 83eb a13d c58c 4e3e 4e27 1dbe 48fa 80bd
000000f0: efd9 683e 716b cfbe bc89 fcbc f717 54bd
00000100: 803b 8ebd 9bc5 e3be 9d22 fdba d9e4 913c
00000110: 8f94 afba c4b0 68bc b7ef 553e 6c30 f43c
00000120: eb60 063e f878 1a3d 825f 26bc 63b1 923c
00000130: c16d 3d3c db15 e33c fee3 513e 3ee1 333d
00000140: b2f2 80bc 796d e3bd a595 843c 58bd 8a3e
00000150: a04b c33d 168c 8d3c 38de e9b9 a37b 933d
00000160: 1828 a9bd fa2c ad3d 1571 82b9 674b 2bbe
00000170: 8ad1 ab3b 4596 d53e c1c7 8ebe c95a 893e
00000180: 0f8b 55bd 6754 09be 0567 16be ab45 073e
00000190: ae88 ffbd 537c 8bbe 30fd 8ebe e0fa 5cbd
000001a0: 6d47 b3be c57d 41be 3509 c63d 4686 90bc
000001b0: b3bb 453d 291a 7b3d 56d3 a23c 5e48 06be
000001c0: 4730 78bc c81f b43e a0bd b73c 39c0 8d3d
000001d0: a799 86be 9d96 c23d da31 f63d 6f53 57bd
000001e0: 34ee d23c b474 bdbe 76f4 c4bd 3148 7e3c
000001f0: ebfd 943d 6fe5 c4bd f7dd 03bd 3f73 f93d
00000200: 3a0d d93e e526 90bd da4c 023e db72 45bd
00000210: a663 ce3d 661a 36be 3172 7fbd a2e1 0bbe
00000220: 6f01 a63e cc4c 24bd 2b9e 85be 64cb 13bd
00000230: 4f16 35be adc7 e0bd d3ee 77bc 161c 51bc
00000240: 0175 92be d105 023f ed66 603d 587d f3bd
00000250: e895 1b3e 81ab b43e a118 49be ce74 04be
00000260: be7a a13d fec4 95bc 05ab bfbd ffa5 773d
00000270: 1c79 6fbe 818d ccbb 142b a4bd 1b9f 9fbd
00000280: 2765 263d 4716 a73d 5178 a9be b455 ad3d
00000290: 760e 153e 9543 e43d 4044 44bd 5e23 9bbe

fc3.bias f4 [2]
-0.8781421 0.95665777
00000000: eccd 60bf 86e7 743f
