demo_mnist/models/lista.pth (torch_old, 5293 bytes, 23 tensors)

theta1 f8 []
000000 f1 a0 0d bb ae 9c e3 bf
       -0.6128762868293319

theta2 f8 []
000000 bb 3f d6 63 8e 9a eb bf
       -0.8626167249622009

theta3 f8 []
000000 b9 44 34 1f 1d db fd bf
       -1.865994569674781

theta4 f8 []
000000 37 19 78 79 42 ed 8d 3f
       0.014612693149513063

theta5 f8 []
000000 c8 75 03 96 5c b1 11 40
       4.42320475002402

conv_Q1.weight f8 [1, 1, 5, 5]
000000 29 2f a9 0a d3 03 15 c0 8e 7e 36 e3 d6 38 f7 bf
       -5.2537347474824765 -1.451376807737606
000010 5b 52 6e 81 31 dd 00 c0 6f 48 be d3 bb 6e dd 3f
       -2.108004580668689 0.45988364866310055
000020 c0 2a b6 f8 80 bf 08 c0 4e 6e 6f f8 a8 1e dc bf
       -3.0935077124207453 -0.43937134038217074
000030 66 50 8a 5a d3 90 e0 bf d5 18 42 9e d5 9c ee bf
       -0.5176789062848115 -0.9566448298435498
000040 27 c4 a0 7e 10 dc b3 bf 25 16 8d 5d 21 ab eb bf
       -0.07757666675094353 -0.864639933316259
000050 45 8d 89 db f8 0b f1 bf 6b 03 bc 0d 16 8d e3 bf
       -1.0654228759456867 -0.6109724300623446
000060 e9 19 fa 5a 97 01 db bf 98 dd cc 74 c9 7b d4 bf
       -0.42197212109058896 -0.3200553551318648
000070 34 60 4e a4 46 cf f0 bf 75 0a 1b 1a 67 39 fe bf
       -1.0506044786652753 -1.8890143413306337
000080 4a e4 59 c8 77 84 e1 bf c1 cc 5b 6b 13 5e 94 bf
       -0.5474203980549046 -0.019890120914124013
000090 68 21 ce f2 37 8a a0 3f 52 4c 40 7e 0b 2f ec bf
       0.032304523839289 -0.8807427850573595
0000a0 39 d4 27 a4 66 8d 09 c0 20 dc 75 6f b4 d8 fd bf
       -3.194043428864941 -1.865406451599263
0000b0 c5 04 f3 cd 86 8e f6 bf 4b cb b8 a3 92 d8 f7 bf
       -1.4097965283292961 -1.4903742213616222
0000c0 12 19 22 8f 7c 93 29 c0
       -12.788059685623498

conv_Q1.bias f8 [1]
000000 ed a0 0d 63 0c 5e e5 3f
       0.6677305159219294

conv_P2.weight f8 [1, 1, 5, 5]
000000 be bc f8 4f 3b 06 f2 bf c7 22 f2 5b 11 78 f4 3f
       -1.1265214084522053 1.2793134299883364
000010 87 93 84 39 c8 02 03 40 85 34 2f 93 67 07 09 c0
       2.376358460768134 -3.1286155222683782
000020 f9 88 7d 54 7d 73 18 c0 73 d0 00 df 8c 28 f6 bf
       -6.112782783662845 -1.3848999701558824
000030 47 1c 0b 31 b6 e2 f7 3f 27 b8 cc e9 5e ce f3 bf
       1.492849532676489 -1.2378834851074403
000040 04 7e 88 92 dd 94 da bf b8 cf b8 40 16 1f ed 3f
       -0.41533603010063325 0.9100447906589499
000050 95 5c 0f 0d cd 7d e9 3f 1f 8c a6 35 3b d4 eb bf
       0.7966065650060893 -0.8696571395743183
000060 bf f0 0d 77 56 c8 f2 bf 1a 5d 63 3c 02 3e 00 c0
       -1.1739105845036162 -2.030277702123965
000070 76 51 50 09 6a 2a f2 bf 7d 3d d0 19 9b 37 fb 3f
       -1.1353550304239355 1.701075650056594
000080 b4 85 b2 2a d9 10 a2 3f c9 cc ba 35 dc 28 f0 bf
       0.03528479238708418 -1.0099756335082921
000090 3d 22 9c a8 4e cc 0e c0 d8 a9 d1 c7 16 4c e0 3f
       -3.8497594044349897 0.5092882063593676
0000a0 e6 fe c5 b4 62 bb e8 bf 9c f5 44 08 26 fc c8 bf
       -0.7728742151957391 -0.19519496349122967
0000b0 4f 48 03 72 e6 5f fb 3f 04 f6 f8 fa 7c 29 0d c0
       1.7109131291986335 -3.6452579123713367
0000c0 d5 0c 49 cd 1a 34 c6 bf
       -0.17346510909746962

conv_P2.bias f8 [1]
000000 ca 3f d6 6b c7 1d ee 3f
       0.9411351305188813

conv_Q2.weight f8 [1, 1, 5, 5]
000000 7c d6 3c ec 0d f4 c7 3f 50 93 83 f9 3b b9 9d bf
       0.18713544878999133 -0.02902692518627542
000010 4a 2e f9 69 a6 8b c1 3f 6f 20 70 44 13 e5 ad 3f
       0.13707428144913286 0.05838833055901282
000020 b9 88 0e d8 2b f6 cb bf d5 59 b7 77 9d ff c2 bf
       -0.21845005082747607 -0.14842575402754102
000030 d9 52 8d 70 ee ad b8 bf fd 15 64 48 e2 22 bd bf
       -0.09640398261883422 -0.11381353633267817
000040 f9 50 20 53 04 b5 d6 bf 00 d5 49 18 5f 55 f2 bf
       -0.3547983943729061 -1.1458426426664232
000050 32 47 6f ae b8 e1 b2 3f a3 31 98 71 e6 20 b9 bf
       0.07375673540744002 -0.09815826676658061
000060 f1 2f 9d 4f 33 8d df bf 5b 80 d3 9a 08 2a c1 bf
       -0.49299319052511154 -0.13409526405212344
000070 82 71 b4 6b 91 42 e0 bf 83 a5 a3 71 7a 08 c6 bf
       -0.5081259826288689 -0.17213373707572197
000080 c6 13 db 57 b0 b3 d9 bf a2 e8 8b 08 24 f3 dd bf
       -0.4015923364607342 -0.4679651339971632
000090 a6 37 c5 58 61 c7 f4 bf 55 82 ad e2 c7 c8 ca 3f
       -1.2986768214791282 0.20925234382868277
0000a0 ce ea 03 2d ce 63 c2 bf ff 67 75 19 93 e9 c6 3f
       -0.14367081830990575 0.17900313132378184
0000b0 11 92 3f 94 5c 32 d7 3f c6 3e df 16 b5 6d df bf
       0.3624488303887868 -0.49107100709532536
0000c0 ff 25 88 e6 0a 5d cc 3f
       0.22158943420826913

conv_Q2.bias f8 [1]
000000 e8 3f d6 4b c2 00 ef 3f
       0.9688426476659489

conv_P3.weight f8 [1, 1, 5, 5]
000000 89 7b 22 c7 41 ad f4 3f 0f e6 a2 64 5c 71 e1 3f
       1.292299058790123 0.5450880017808134
000010 b8 b2 b3 69 aa 0d d7 3f 2b 01 cd be 69 d2 88 3f
       0.36020908663230555 0.01212008107688741
000020 17 7b 83 da 6b e6 b6 bf 99 c9 4d 37 4e 3c cd 3f
       -0.08945345005802739 0.22840287876495038
000030 75 61 0c 1d 39 3f 51 bf d7 4c 26 28 dc 96 a8 3f
       -0.0010526712177974771 0.04802597036464256
000040 d0 a6 81 f7 4e 05 cb 3f 12 77 78 8c 0a 1f de 3f
       0.21109950146938283 0.470644604852951
000050 f1 7a 6f 93 c2 fe c1 bf 71 b4 55 ab f5 5b cb 3f
       -0.14058716010091346 0.21374388566929128
000060 d5 25 16 94 28 6e f1 3f 07 ed bb ba a1 d9 e4 bf
       1.089394167387913 -0.6515663764143093
000070 eb c8 3e fb 6b 29 ef 3f 2b c9 f7 27 c7 36 d1 bf
       0.97380637236918 -0.26896838095776116
000080 c6 8b 9a 0b 48 76 9a bf 09 0e 98 c1 9d 5e b2 bf
       -0.025841832836373667 -0.07175622917571202
000090 2e 60 78 d7 f2 bb a1 3f 48 58 38 f7 b1 24 d9 3f
       0.0346370590233963 0.39286469595515827
0000a0 b4 61 f1 b4 11 82 b0 3f c0 35 d1 3d e2 7d c1 3f
       0.06448469798613737 0.1366541673509527
0000b0 55 f6 d4 3e e0 6a d2 3f d4 52 a4 4b e2 17 e1 3f
       0.28777319084097047 0.5341655232792513
0000c0 9d 3e a7 62 fe 01 d9 bf
       -0.39074668535338636

conv_P3.bias f8 [1]
000000 c7 44 34 ab 54 a7 ff 3f
       1.9783522308028283

conv_Q3.weight f8 [1, 1, 5, 5]
000000 e0 9d ae e5 d8 92 bd 3f 92 a3 60 c1 b1 2d c3 3f
       0.11552196128342684 0.14983198110828916
000010 97 85 59 80 a0 bc c5 bf 9c b2 1d 31 5b 93 cb bf
       -0.16981893794131217 -0.215434454901147
000020 bd d7 b8 f9 3c 1c dc 3f 4d 26 e3 a7 4b 2f b6 3f
       0.4392235220615211 0.08665917252360451
000030 eb 12 6d 59 49 5a c6 bf 38 df 96 c7 75 b6 b5 bf
       -0.17463032595164604 -0.08481536982332905
000040 b4 5b 37 39 b1 23 d7 bf 98 4a 54 9a cb 05 b9 3f
       -0.36155348384402974 0.09774467962078359
000050 1f b6 b4 dc c7 a5 a4 bf 6b 32 6e bd a6 94 d0 bf
       -0.04032730645336024 -0.2590729570299916
000060 ef 82 d2 e7 cb f5 c0 3f 08 63 bb 88 cb 16 d2 bf
       0.1325011140770793 -0.2826412997506371
000070 3f e0 b5 e8 c0 94 d8 bf 96 29 16 f1 54 20 bc 3f
       -0.3840791962206857 0.10986834417250288
000080 38 4e 93 19 9c 38 b9 bf 0e ba a4 4b bf 15 b4 bf
       -0.09852004646682466 -0.078456836669581
000090 64 4d fb cb a9 7d cb bf cf f4 f4 a9 18 81 d1 3f
       -0.21477243862191664 0.2735044154868093
0000a0 35 43 0b ca 29 d1 be 3f e5 ba 49 45 71 e6 a8 3f
       0.12037907774653152 0.048633136470803064
0000b0 a6 03 cc a7 e5 ed b9 bf 01 45 eb 51 c9 74 c7 bf
       -0.10128627153973344 -0.1832515382762168
0000c0 fe 5d 98 ea f2 89 d1 3f
       0.2740447321861835

conv_Q3.bias f8 [1]
000000 b4 44 34 77 48 15 fb 3f
       1.6926960617459317

conv_P4.weight f8 [1, 1, 5, 5]
000000 3f 0e 5a 96 cb 80 b0 3f 46 97 94 0c 89 c3 c6 bf
       0.06446525974939109 -0.1778422652652642
000010 4c e0 07 be eb 12 c8 bf 8a 07 36 fa 79 83 b1 bf
       -0.18807741907926567 -0.06841242178600573
000020 2b 7c a2 c7 14 d6 c7 bf 6c fe f4 dc d7 46 8e 3f
       -0.18622073886669574 0.014783560209820489
000030 44 3d 51 07 99 2d ab 3f 6b 07 cd 14 36 e8 aa 3f
       0.053082258361082185 0.052552881278201756
000040 a6 2d 4d 6c 6b 23 cb 3f 64 fb e7 f7 ea 14 c0 3f
       0.2120184210601625 0.12563836197656564
000050 1c b0 84 c4 34 ce b2 3f fe 75 12 30 97 91 ba bf
       0.07345895574388844 -0.10378403590808458
000060 99 4f 93 59 eb 04 cc bf 93 53 04 3b b4 b0 c5 3f
       -0.21890012620735602 0.16945507890400488
000070 ed c3 5e e2 0b d5 dd bf ea 00 3a 5a ab 50 a9 bf
       -0.46612832170927626 -0.04944358326338423
000080 56 ea 16 0a 3e ae af bf 62 86 a2 28 f8 7a aa 3f
       -0.06187623856699946 0.051719431839285304
000090 ad 05 c1 8e b4 9e c3 bf 0e 14 60 c7 c2 aa af 3f
       -0.15328080149087722 0.061849676931196126
0000a0 cf b6 91 7b 6e e7 b3 3f 53 57 89 38 fe ab 77 bf
       0.07775011555505816 -0.005779259729555469
0000b0 a6 f9 d1 a6 e1 a5 9e 3f 14 31 69 33 a8 d7 a5 3f
       0.029929662520311283 0.04266095759939695
0000c0 b7 0f 68 a2 3d a6 7d 3f
       0.007238617667557116

conv_P4.bias f8 [1]
000000 3e 06 5e 1e 5f 4d a8 bf
       -0.047465298134750075

conv_Q4.weight f8 [1, 1, 5, 5]
000000 69 7d 71 06 0d 35 6a bf 01 62 1d bd dd e4 c1 bf
       -0.003199124755653028 -0.13979694112892108
000010 fe 8d eb f1 34 39 d2 3f 52 5a b6 16 47 85 c9 3f
       0.2847416269780466 0.19937981232642926
000020 cb 9e 31 40 a4 82 b9 bf fb 3f 2f 9c 48 de 80 bf
       -0.09964968268615874 -0.0082364723838566
000030 c8 41 46 12 65 aa c7 bf 65 d9 13 ea 3e 4e bc 3f
       -0.18488753692919446 0.11056893553527443
000040 35 95 ee 36 cb 92 a8 bf db 33 fd d2 28 4f cd 3f
       -0.047994947867929495 0.22897825529290014
000050 91 48 42 ec 79 69 c1 3f 3d 5d ed 0e d7 3e c3 bf
       0.13603138004379337 -0.15035522679202443
000060 fc ef 67 23 3b 8a da 3f 7e 91 4e ba 83 a2 d2 3f
       0.4146869512330793 0.2911691016581911
000070 c6 20 19 e9 df 56 d0 3f 2a 16 a0 d0 5f 4c bd bf
       0.25530240787021474 -0.11444662898437544
000080 02 39 1d 47 5f c1 83 bf 30 fd 63 26 ff 1c b9 bf
       -0.009646171910983718 -0.09809870421667166
000090 df 4e ef 18 15 b4 cf bf 2d 41 3a b9 f2 29 c9 bf
       -0.24768317906875034 -0.19659265560449893
0000a0 e0 a3 96 28 83 c1 b9 3f 25 47 06 c9 7b 43 c0 bf
       0.10060901394776023 -0.12705943408632794
0000b0 d9 0d e6 b9 6b 7f c3 3f 3c b7 74 8b 95 2c a2 bf
       0.15232607438166104 -0.03549640014021668
0000c0 6c 4e 43 6a eb 03 9d 3f
       0.028335264549993175

conv_Q4.bias f8 [1]
000000 a5 02 2f 4f ac 24 bf bf
       -0.12165333684152786

conv_P5.weight f8 [1, 1, 5, 5]
000000 43 be a0 40 8e ca b5 bf 86 7c 59 82 b7 7b b7 bf
       -0.0851220042975394 -0.0917315190540525
000010 5c 6c e2 78 38 eb 80 3f a4 18 65 d8 68 bc b0 bf
       0.008261147679425367 -0.06537490161017218
000020 9d c4 38 d3 fd 64 a3 bf d3 20 86 bb 02 0b a9 bf
       -0.0378798790301371 -0.04891212977514816
000030 81 47 b1 cc 9c 81 d1 bf 28 87 e2 0d d0 91 b3 bf
       -0.27353591908933345 -0.07644367541300012
000040 94 54 c5 fe 4c a6 c1 bf 2c 59 d5 e9 ca e7 a7 bf
       -0.1378875965116647 -0.04669031242763064
000050 a7 95 75 11 18 be c5 3f 0b 5a e5 cc a8 2e 75 3f
       0.1698637089968262 0.005171450973952672
000060 35 bd dd e8 95 a3 be bf 8f dc 19 30 13 9c c3 bf
       -0.11968361792763889 -0.15320052956278515
000070 fe f3 82 dc b8 4d 74 3f cb 04 58 d4 0c 8f dc 3f
       0.00495693408464337 0.4462310861272953
000080 78 2a ba 03 5f d3 c3 3f c0 ed 67 bf d4 99 9b bf
       0.15488803560249997 -0.026954006369107608
000090 e7 1c 46 54 e6 d5 cd bf af a7 b7 1e e1 56 b3 bf
       -0.23309020152030444 -0.07554442405640203
0000a0 75 41 47 0b 84 74 db 3f 0f bb e5 d3 9a 2c da 3f
       0.4289865598812164 0.4089724606810003
0000b0 83 86 a3 a2 11 7a c9 3f 25 c4 ad a6 ba 3a 98 bf
       0.19903774682375194 -0.023661533759369874
0000c0 32 5f 69 e4 d3 ae b9 bf
       -0.1003239090581445

conv_P5.bias f8 [1]
000000 e1 4c c7 e7 97 5f 0a c0
       -3.296676455278075

conv_Q5.weight f8 [1, 1, 5, 5]
000000 4c f7 82 c3 63 5f d2 bf bb 5b c9 cf e2 ce bf 3f
       -0.28707212536743465 0.1242505795756718
000010 95 e2 31 8a e1 3c c7 3f fe cc 4f 40 68 8e c4 3f
       0.18154544112964702 0.1605959238073424
000020 42 25 91 68 9e dc c1 3f 19 02 4a 50 ba 6f a3 3f
       0.1395452509480411 0.03796179037181364
000030 b4 2f 5b 33 83 e2 ca 3f aa 8d 7d d1 ad 12 a6 3f
       0.2100376129877738 0.0431112592912329
000040 ff 46 83 0a 6d 59 da 3f 16 27 61 a3 ee 88 c6 3f
       0.41170812632218196 0.1760538385154226
000050 8f 84 52 e7 4f fc 61 bf af 94 d5 11 74 7c ce bf
       -0.0021955071084254828 -0.23817301626983098
000060 15 13 f6 50 28 e6 c4 bf 5f a4 d6 6a b6 13 c3 3f
       -0.163273849040842 0.14903907982560136
000070 fc 31 02 26 c3 f7 be 3f 7c ac f4 55 51 87 65 bf
       0.12096805265372973 -0.0026280010785249535
000080 4b 54 7e 45 90 d2 b0 3f 84 84 84 25 93 58 cb bf
       0.06571294495218287 -0.21364058811107978
000090 cd da 3f 02 24 92 a5 3f 0b e2 db ab 14 b0 c6 3f
       0.04213058974703685 0.17724855796383596
0000a0 f7 95 30 c3 63 43 b5 bf 41 8f 94 d3 44 cc a8 bf
       -0.0830595351731843 -0.04843344767348735
0000b0 82 bd 43 f2 b4 b6 98 3f 82 7f e6 50 73 fe b8 3f
       0.024134471213014937 0.09763260579211244
0000c0 f1 04 73 a4 c3 6c d3 bf
       -0.3035134416532648

conv_Q5.bias f8 [1]
000000 e4 4c c7 d9 35 49 0b c0
       -3.4107472433039323
