demo_mnist/test/AE.pth (torch_old, 9552 bytes, 7 tensors)

conv1.weight f4 [8, 1, 5, 5]
0.027319157 -0.23440859 -0.066480346 -0.10661952 -0.19323368 -0.15158874 -0.070436485 -0.04459385
-0.16639408 -0.14316647 -0.20997164 -0.26335618 -0.003829891 -0.06703626 -0.084721334 -0.19591537
-0.022524789 -0.08495951 -0.17333376 -0.15791695 -0.21583435 -0.1740348 0.08647405 -0.1306981
-0.10376384 -1.6034054 -0.8947547 -0.9583693 -0.9227638 -1.6493529 -0.5062455 -0.103010915
-0.45458558 -0.26257247 -0.438356 -1.1885947 -1.6885526 -1.2924175 -0.86616874 -1.3715676
-3.040843 -2.506658 -2.6817617 -2.5577812 -2.167865 0.16799313 0.14349322 -0.35406438
-0.26023084 -0.98607606 -0.07574288 -0.20880611 0.023748234 0.027619997 -0.22276978 -0.08371182
0.06523624 -0.4128916 -0.18077107 -0.0065195956 -0.12782274 0.050222408 -0.109104425 0.078835845
-0.06243259 -0.1313814 -0.1498828 -0.08922642 -0.1768103 -0.107050076 -0.101551734 -0.08183993
-0.20902142 -0.061673764 -0.10323325 -0.0002961826 -0.34428024 -0.12321537 0.06791245 -0.29638013
-0.12945215 0.08151731 -0.29915562 -0.4027785 -0.11806495 -0.3141306 -0.07677596 -0.25783655
-0.10025224 -0.160685 -0.15251379 -0.3830526 -0.18208246 -0.3242072 -0.27585217 -0.19370723
-0.07395133 -0.22289956 -0.058598176 -0.10480139 -0.1682624 -0.16069764 0.014633361 -0.03341983
-0.42965752 -0.42854717 -0.14719662 -0.2709895 0.039364133 -0.17122453 -0.51278853 -0.41624126
-0.17779982 -0.5523634 -0.29105845 -0.18464202 -0.09196681 -0.06310169 -0.083175264 -0.024891095
-0.0139510045 -0.23523508 -0.022119436 -0.35210577 -0.019654153 -13.013325 -5.140165 -3.9133275
-2.045838 -3.3734875 1.1126242 -0.52721494 -1.3777477 -1.4860578 -1.613903 -0.014861804
-0.062258165 -0.3637801 -0.63347197 -2.3024259 -0.05458806 0.036798574 -0.32353875 -3.5965602
-2.6972065 -0.1322335 -0.25443092 -0.44415596 -0.73332536 -4.3426204 0.007363125 -0.006780658
0.040822335 -0.039360452 -0.014851124 0.0029877683 0.017593216 -0.013988881 0.053898983 0.055652134
0.00026446985 0.023518125 0.05517071 -0.02036178 0.71217376 0.020575821 -0.04795377 0.047892872
-0.041599635 0.064488135 -0.0060692467 0.022028519 -0.015044915 -0.0014271856 0.04196185 -0.12456652
-0.15756252 -0.24709918 0.0055170944 0.07820562 -0.09101679 0.05993308 -0.17215924 -0.24989942
-0.14871433 0.06333859 -0.17673104 0.11165342 -0.15351017 -0.099690445 -0.2381603 -0.16245648
0.032627188 -0.036394574 0.025507765 0.031572998 -0.07256222 -0.21153153 0.05809386 -0.16396575
00000000: 6dcc df3c ce08 70be d926 88bd 565b dabd
00000010: 0ddf 45be 143a 1bbe 0141 90bd 0aa8 36bd
00000020: 3663 2abe 3b9a 12be ce02 57be 9fd6 86be
00000030: e9fe 7abb 4f4a 89bd 6182 adbd 0a9e 48be
00000040: e885 b8bc 40ff adbd 687e 31be fbb4 21be
00000050: ae03 5dbe 2e36 32be 4f19 b13d b9d5 05be
00000060: 2382 d4bd 633c cdbf a50e 65bf b157 75bf
00000070: 403a 6cbf ff1d d3bf 4e99 01bf 63f7 d2bd
00000080: 71bf e8be e66f 86be 3370 e0be df23 98bf
00000090: 7e22 d8bf f06d a5bf 3cbd 5dbf 878f afbf
000000a0: 2c9d 42c0 166d 20c0 fca1 2bc0 b0b2 23c0
000000b0: 4dbe 0ac0 6406 2c3e e3ef 123e ed47 b5be
000000c0: fa3c 85be 7b6f 7cbf 151f 9bbd 45d1 55be
000000d0: a88b c23c 5543 e23c c31d 64be 1a71 abbd
000000e0: 949a 853d 8766 d3be 0d1c 39be 55a2 d5bb
000000f0: f7e3 02be 03b6 4d3d 2472 dfbd b074 a13d
00000100: 51b9 7fbd d988 06be e07a 19be 57bc b6bd
00000110: c20d 35be 123d dbbd 5bfa cfbd b19b a7bd
00000120: b609 56be a19d 7cbd f46b d3bd f548 9bb9
00000130: 8045 b0be 5758 fcbd af15 8b3d 23bf 97be
00000140: 1b8f 04be 8cf2 a63d ed2a 99be fc38 cebe
00000150: 09cc f1bd bad5 a0be b73c 9dbd 2703 84be
00000160: 0c51 cdbd 9c8a 24be 932c 1cbe 781f c4be
00000170: d373 3abe 7cfe a5be 7f3c 8dbe 305b 46be
00000180: cb73 97bd c83f 64be a404 70bd 1ca2 d6bd
00000190: fb4c 2cbe ec8d 24be c4c0 6f3c 3be3 08bd
000001a0: 12fc dbbe 896a dbbe b6ba 16be 23bf 8abe
000001b0: 493c 213d 7c55 2fbe 1c46 03bf 931d d5be
000001c0: 2811 36be b067 0dbf 9d05 95be cc12 3dbe
000001d0: 1859 bcbd 753b 81bd cb57 aabd 69e8 cbbc
000001e0: c192 64bc 77e1 70be d233 b5bc 3547 b4be
000001f0: bf01 a1bc 9436 50c1 3b7c a4c0 f573 7ac0
00000200: 03ef 02c0 38e7 57c0 786a 8e3f 8ff7 06bf
00000210: 095a b0bf 2437 bebf 6094 cebf ed7e 73bc
00000220: 6b02 7fbd 6341 babe 382b 22bf f25a 13c0
00000230: bb97 5fbd 1aba 163d dfa6 a5be 0b2e 66c0
00000240: 089f 2cc0 3868 07be c544 82be 6968 e3be
00000250: 36bb 3bbf bff6 8ac0 5f46 f13b 4830 debb
00000260: 5235 273d 6d38 21bd 2152 73bc 6fce 433b
00000270: a61f 903c 9f31 65bc 2ec5 5c3d 7ef3 633d
00000280: 8ba8 8a39 15a9 c03c affa 613d bfcd a6bc
00000290: 0551 363f a08e a83c 2c6b 44bd 512b 443d
000002a0: 6164 2abd 5b12 843d 88e0 c6bb 2775 b43c
000002b0: f27e 76bc 6710 bbba 30e0 2b3d bb1c ffbd
000002c0: 1258 21be 9107 7dbe bec8 b43b 452a a03d
000002d0: 0367 babd 647c 753d 834a 30be a2e5 7fbe
000002e0: 9248 18be aab7 813d fbf8 34be 8caa e43d
000002f0: c531 1dbe 812a ccbd 4be0 73be fe5a 26be
00000300: 16a4 053d 7a12 15bd a9f5 d03c b052 013d
00000310: 809b 94bd b99b 58be d4f3 6d3d a3e6 27be

conv1.bias f4 [8]
-0.4611832 -0.317702 -0.08387389 -0.11356916 -0.19711182 -0.14310642 0.0038477036 -0.24438986
00000000: 3420 ecbe d6a9 a2be 13c6 abbd f396 e8bd
00000010: aed7 49be 7d8a 12be c129 7c3b 5641 7abe

conv2.weight f4 [4, 8, 5, 5]
-0.009649505 -0.036313545 -0.003144121 -0.025448462 -0.09988144 -0.056812923 -0.07119204 -0.005214387
-0.08540358 -0.09764796 0.017280519 -0.011540632 -0.020143032 -0.06200156 -0.026024023 0.007050823
0.013811383 -0.006495496 -0.080210954 -0.06481416 -0.05133105 -0.047441483 0.02404676 -0.019107876
-0.045221325 -1.7740129 -1.5878309 -1.1319685 -0.72754985 -0.2606704 -0.54240394 -0.59543544
0.12475587 -0.34344006 -2.111366 -0.1532142 -0.27150702 0.23888749 -0.9572538 -0.25465074
-0.3378078 -0.5670266 -0.5517523 -0.42748907 -0.1163382 -0.2802122 -0.41829392 0.32888395
-0.20587286 -0.2877604 0.366028 0.038483392 -0.07389983 0.29347813 -0.05491859 -0.27386427
0.034676578 0.004908398 -0.16619211 -0.03983994 0.0023226414 0.34918135 0.46861705 0.14921464
0.18063654 0.22087318 -0.18245569 -0.78086084 0.13640556 -0.058120575 -0.21241339 0.28700116
0.28154513 0.27745286 -0.038789 -0.21583994 -0.19642414 -0.35971484 -0.06195761 0.20253244
-0.41226715 0.28082794 -0.29275075 -0.13678597 -0.24631877 0.18232343 0.061394274 0.02330497
-0.26646772 0.04012407 -0.2301098 -0.286514 0.028404135 0.26679495 0.106444895 -0.022873756
0.04828161 -0.16895215 0.08533219 -0.1066545 0.05191481 0.043916196 0.05136775 0.04245968
0.02374471 -0.1666206 -0.26124388 -0.0996985 -0.2070933 -0.14214906 -0.028126307 0.010411182
0.058135126 -0.19243868 -0.08433203 -0.0511784 0.02663785 -0.07596231 -0.13089211 -0.04707396
-0.08105105 0.007751037 -0.08464974 0.014205536 -0.043922346 0.15319173 0.08103445 0.13903199
0.23292647 -0.19894612 -0.55745465 -0.18784522 1.2121904 0.83148843 0.35150617 -0.44146097
-0.490109 -3.462559 -0.07006623 -0.094722785 -0.21195039 -0.0073836218 -0.78669083 -0.5384648
-0.09908253 -0.7102698 -0.031116271 -0.26760292 -0.38345397 0.0004323406 -0.032659076 -0.18950266
-0.5504588 -0.41467378 -0.22017959 0.4405922 -0.5304414 -0.7170944 -0.28089142 -0.24201088
0.037854113 0.4520827 -0.48867112 -0.04546239 -0.22462174 0.15654014 -0.1316562 0.20533091
-0.1870621 -0.45422998 -0.31949648 -0.17659599 -0.5149798 -0.24072249 -0.15981025 0.07464337
0.014454893 -0.040397875 -0.09827739 -0.047479104 -0.078000285 -0.028074916 -0.059495423 -0.01635142
-0.010563249 -0.058145266 0.03241398 -0.1009169 -0.037673682 -0.078121126 -0.0030746097 -0.03879899
-0.10920976 -0.10046098 -0.07495788 -0.085606195 -0.054980896 -0.017067453 -0.07532681 -0.025238052
-0.080843836 -0.080332614 0.13823175 -0.06863116 0.071492895 -0.104092866 -0.09365518 -0.24755616
-0.113487534 0.0021691564 -0.121540226 -0.06983483 -0.24278744 0.15263353 0.117797546 -0.038012594
-0.13329911 -0.12347181 -0.15675268 -0.23392689 -0.05208731 -0.07173811 -0.11207604 0.011172108
0.03601793 -0.08178904 -0.0079924585 0.025434857 0.030854175 0.024912769 -0.1055074 -0.21655865
-0.18050751 -0.29605365 -0.18831985 -0.40348506 0.03845461 -0.8317919 -0.5670951 -0.2284964
-0.48781398 0.036124125 -0.48698103 -0.6992865 -0.12946805 -0.066823944 -0.17194381 -0.3316528
-0.1473044 -0.037069935 -0.021149704 0.11005034 -0.115287416 0.17606094 -0.027158657 0.07851143
00000000: f518 1ebc 83bd 14bd 990d 4ebb 4b79 d0bc
00000010: a48e ccbd abb4 68bd 22cd 91bd 73dd aabb
00000020: 12e8 aebd a7fb c7bd e08f 8d3c eb14 3dbc
00000030: 0003 a5bc 59f5 7dbd 5530 d5bc 970a e73b
00000040: 2449 623c 2bd8 d4bb a445 a4bd 49bd 84bd
00000050: 8240 52bd 0052 42bd b6fd c43c 1f88 9cbc
00000060: ff39 39bd db12 e3bf 0b3e cbbf 58e4 90bf
00000070: b540 3abf 9776 85be fcda 0abf 756e 18bf
00000080: 0180 ff3d 60d7 afbe 9f20 07c0 2fe4 1cbe
00000090: f802 8bbe ec9e 743e 960e 75bf 9561 82be
000000a0: 25f5 acbe a828 11bf a43f 0dbf d9df dabe
000000b0: b942 eebd f977 8fbe 9f2a d6be 7a63 a83e
000000c0: 56d0 52be 5555 93be 0668 bb3e c3a0 1d3d
000000d0: cb58 97bd c442 963e 51f2 60bd f037 8cbe
000000e0: 0709 0e3d a0d6 a03b 442e 2abe 342f 23bd
000000f0: 7537 183b e6c7 b23e 93ee ef3e b9cb 183e
00000100: c9f8 383e 942c 623e aad5 3abe 7fe6 47bf
00000110: e6ad 0b3e d70f 6ebd e582 59be d1f1 923e
00000120: af26 903e 4d0e 8e3e 37e1 1ebd 2505 5dbe
00000130: 6923 49be 8b2c b8be 43c7 7dbd aa64 4f3e
00000140: ae14 d3be aec8 8f3e 6de3 95be 9f11 0cbe
00000150: fd3a 7cbe feb2 3a3e 9078 7b3d 10ea be3c
00000160: 756e 88be 2359 243d e7a1 6bbe f7b1 92be
00000170: caaf e83c 5999 883e c8ff d93d be61 bbbc
00000180: f0c2 453d cb01 2dbe a5c2 ae3d ad6d dabd
00000190: a0a4 543d 78e1 333d fd66 523d 34ea 2d3d
000001a0: 4484 c23c 979e 2abe c2c1 85be ba2e ccbd
000001b0: 4410 54be 868f 11be 2469 e6bc aa93 2a3c
000001c0: 191f 6e3d a50e 45be 45b6 acbd 71a0 51bd
000001d0: 9f37 da3c 2192 9bbd 9508 06be a0d0 40bd
000001e0: 18fe a5bd 69fc fd3b d85c adbd 56be 683c
000001f0: ebe7 33bd 4bde 1c3e 64f5 a53d 675e 0e3e
00000200: 4784 6e3e 88b8 4bbe 59b5 0ebf 7f5a 40be
00000210: 0e29 9b3f 6ddc 543f 9ef8 b33e 2c07 e2be
00000220: 91ef fabe 919a 5dc0 e27e 8fbd 05fe c1bd
00000230: 8609 59be 4ff2 f1bb 9264 49bf d4d8 09bf
00000240: c8eb cabd 3ed4 35bf 8de7 febc 4003 89be
00000250: 1454 c4be c6ab e239 86c5 05bd fc0c 42be
00000260: deea 0cbf 1f50 d4be c276 61be 4d95 e13e
00000270: 02cb 07bf 8093 37bf 00d1 8fbe b3d1 77be
00000280: ea0c 1b3d 6277 e73e 1a33 fabe c536 3abd
00000290: 3e03 66be 0f4c 203e e2d0 06be 4442 523e
000002a0: 358d 3fbe d590 e8be 0b95 a3be 94d5 34be
000002b0: b7d5 03bf f57f 76be 4ca5 23be a0de 983d
000002c0: 37d4 6c3c 3e78 25bd a845 c9bd 7379 42bd
000002d0: 9dbe 9fbd 5efd e5bc 79b1 73bd 6af3 85bc
000002e0: 7a11 2dbc bb29 6ebd 86c4 043d 85ad cebd
000002f0: b84f 1abd f8fd 9fbd 647f 49bb b1eb 1ebd
00000300: 5ea9 dfbd 7cbe cdbd 8483 99bd 4d52 afbd
00000310: a633 61bd 0bd1 8bbc f144 9abd 08c0 cebc
00000320: 7491 a5bd 6d85 a4bd a08c 0d3e 7e8e 8cbd
00000330: de6a 923d a42e d5bd 49ce bfbd 5d7f 7dbe
00000340: 276c e8bd 6828 0e3b 15ea f8bd 9005 8fbd
00000350: 459d 78be f74b 1c3e d73f f13d 18b3 1bbd
00000360: 907f 08be cade fcbd c683 20be 888a 6fbe
00000370: 8159 55bd 6eeb 92bd 1f88 e5bd 380b 373c
00000380: 8987 133d 0381 a7bd cdf2 02bc c35c d03c
00000390: e5c1 fc3c dd15 cc3c 4414 d8bd 8dc1 5dbe
000003a0: f6d6 38be 5894 97be ebd6 40be 9895 cebe
000003b0: 9582 1d3d 50f0 54bf 252d 11bf f6fa 69be
000003c0: c1c2 f9be e4f6 133d 9455 f9be 7104 33bf
000003d0: 4693 04be feda 88bd 0a12 30be 65ce a9be
000003e0: f7d6 16be a5d6 17bd 2542 adbc 1362 e13d
000003f0: cf1b ecbd 5249 343e d57b debc 9aca a03d

conv2.bias f4 [4]
-0.26344967 -0.13452992 -0.041578285 -0.067970626
00000000: e0e2 86be 36c2 09be fe4d 2abd 2f34 8bbd

conv_transpose1.weight f4 [4, 8, 5, 5]
-0.053256452 -0.04319721 0.026393883 -0.011787582 0.0005553588 -0.10857704 -0.004497844 -0.053248644
-0.06333218 -0.0026774108 -0.002420889 -0.008503869 -0.011005968 -0.0681002 0.0433797 -0.017824708
-0.12608488 -0.055713724 -0.027005166 -0.12514408 -0.013275736 -0.02564299 -0.10532753 -0.088530466
-0.099219 -0.46176293 -0.9419346 0.3670172 -0.120579 -1.3136947 0.6955445 -0.35925037
-0.55152494 0.020564297 1.3112026 -0.14479792 0.08887734 -0.14108497 -0.8587813 -1.0382786
-0.08088887 0.41519386 -0.651703 0.68554837 0.96183497 -0.05993206 -0.06715621 0.58480555
-0.9222831 -0.7425413 -0.058506403 -0.015299147 -0.008655891 -0.04736962 -0.104496226 -0.07331983
-0.07607872 0.010321426 -0.10839754 -0.028978629 -0.036972076 -0.017007928 -0.07130334 -0.033479087
-0.075941496 -0.057279516 0.020549567 -0.01326685 0.0056923083 -0.004979498 -0.086443886 0.0006388179
-0.0760707 -0.10172788 -0.0099243885 -1.1337821 -0.8057381 0.010486151 -0.28702188 0.67365265
-0.5018655 -0.30089813 -0.282038 -0.56809103 0.5222933 -0.32831156 -0.3583117 0.13146986
-0.04586923 -0.48247594 -0.24775334 0.13957511 0.03087378 0.3719412 -0.10498929 -0.088118516
-0.31319928 -0.55679375 -0.3334059 -0.576981 0.37774295 -0.11537304 -0.06966587 -1.2100917
-4.1093097 -0.31548885 -1.1965059 -0.55784374 0.14430593 -1.3449246 0.5668921 -1.7188551
-2.2901094 0.10226243 0.38910183 -0.5279878 -4.751471 -1.3544747 0.20874543 -0.4510788
-3.2134206 -5.711177 -0.7954305 0.024161313 -0.1059823 -0.795371 -1.4611336 -2.9492238
-2.643988 -1.8611004 0.18084824 -1.0807408 -2.5695248 -1.6366574 -1.7877439 -2.2098386
-0.35643196 -0.14941496 0.823206 -0.27900094 -2.9865038 -4.3945374 -1.9570664 -3.0408866
0.9212164 -0.0041433135 -0.026923455 0.113655254 0.33638284 -0.3972238 -0.06997605 -0.02665913
-0.09333342 -0.12953106 -0.08092245 -0.06906253 0.006934914 -0.0026988687 -0.008842455 -0.019654734
-0.04778133 -0.109385036 -0.028853057 -0.062348552 -0.0054274197 0.016172115 -0.08472295 -0.08471626
-0.12477155 -0.049705405 0.0064756805 -0.0664225 -0.06951776 -0.06740053 -0.066743016 0.092070036
0.08667615 0.12844475 0.26542872 0.21477327 0.16038066 0.089081354 0.16159523 0.0022194756
-0.2466607 0.07821371 0.12542471 0.09004478 -0.16294543 -0.4491258 0.06686346 0.11008836
0.15836976 0.10495945 0.01638302 0.051419772 0.093196444 0.17276032 0.2066868 0.22480705
-0.065066256 -0.029019905 -0.09672213 -0.081038415 -0.02919016 -0.0077689653 3.4314291e-07 -0.046805516
-0.10432672 -0.026405241 -0.015709748 -0.082514405 0.010416098 -0.11228993 -0.005433563 -0.10731747
0.024096437 0.0010254234 -0.016680086 -0.008605566 -0.037691876 -0.033641145 -0.0570402 -0.040389843
-0.06935282 -2.978588 -1.578741 -2.1545303 -2.6627164 -6.3484707 -10.472842 -9.095499
-2.2895784 -1.5495874 -6.9005404 -8.6724205 -5.914133 -6.3107395 -8.037963 -6.090378
-0.7478231 1.6121693 0.37168503 -0.18285948 0.4625109 0.26391593 -0.72347987 -1.1827826
-0.64517814 -0.45534024 -0.058306508 -0.02434448 -0.11643724 -0.017073661 -0.07854206 0.030081136
00000000: 7023 5abd 8fef 30bd fc37 d83c b420 41bc
00000010: 8095 113a a45d debd a662 93bb 401b 5abd
00000020: 4db4 81bd 8077 2fbb c7a7 1ebb d053 0bbc
00000030: 6052 34bc 1e78 8bbd eaae 313d 1f05 92bc
00000040: 651c 01be 1334 64bd f039 ddbc c525 00be
00000050: 7982 59bc 3f11 d2bc f6b5 d7bd 764f b5bd
00000060: 5533 cbbd 316c ecbe a022 71bf aee9 bb3e
00000070: 1ff2 f6bd 2627 a8bf 340f 323f aaef b7be
00000080: bd30 0dbf 7576 a83c 7dd5 a73f e845 14be
00000090: 5305 b63d 9478 10be 17d9 5bbf 50e6 84bf
000000a0: 10a9 a5bd 4a94 d43e 02d6 26bf 1980 2f3f
000000b0: d13a 763f 527b 75bd 3289 89bd d1b5 153f
000000c0: bf1a 6cbf 3017 3ebf 69a4 6fbd 46a9 7abc
000000d0: 70d1 0dbc a606 42bd 1e02 d6bd b528 96bd
000000e0: 29cf 9bbd 331b 293c 88ff ddbd 9764 edbc
000000f0: 0870 17bd 3654 8bbc 7c07 92bd 5e21 09bd
00000100: 3787 9bbd ed9d 6abd 9157 a83c 345d 59bc
00000110: 8b86 ba3b 0f2b a3bb 7e09 b1bd 5876 273a
00000120: f5ca 9bbd b556 d0bd e799 22bc c61f 91bf
00000130: da44 4ebf 1bce 2b3c 88f4 92be 8074 2c3f
00000140: 427a 00bf 520f 9abe 4967 90be 6a6e 11bf
00000150: 04b5 053f 7418 a8be a274 b7be 09a0 063e
00000160: 60e1 3bbd 1607 f7be 0db3 7dbe c7ec 0e3e
00000170: 02eb fc3c 146f be3e a004 d7bd 7b77 b4bd
00000180: a85b a0be 098a 0ebf 2eb4 aabe 07b5 13bf
00000190: 8667 c13e b348 ecbd fbac 8ebd 49e4 9abf
000001a0: 777f 83c0 c187 a1be 1b27 99bf d9ce 0ebf
000001b0: efc4 133e 7d26 acbf d71f 113f 7203 dcbf
000001c0: 2791 12c0 f76e d13d 5b38 c73e 352a 07bf
000001d0: 0d0c 98c0 6d5f adbf 5dc1 553e cdf3 e6be
000001e0: afa8 4dc0 f6c1 b6c0 55a1 4bbf f2ed c53c
000001f0: 400d d9bd 6f9d 4bbf 6d06 bbbf 15c0 3cc0
00000200: 1937 29c0 8a38 eebf 4830 393e b755 8abf
00000210: 1873 24c0 fd7d d1bf cbd4 e4bf ff6d 0dc0
00000220: 407e b6be 3c00 19be a1bd 523f 36d9 8ebe
00000230: e122 3fc0 0da0 8cc0 2781 fabf e39d 42c0
00000240: d7d4 6b3f a2c4 87bb 948e dcbc 16c4 e83d
00000250: 5f3a ac3e eb60 cbbe 9a4f 8fbd 3f64 dabc
00000260: 9825 bfbd caa3 04be abba a5bd a870 8dbd
00000270: 463e e33b 81df 30bb f2df 10bc f702 a1bc
00000280: 5bb6 43bd 4305 e0bd 3f5d ecbc 3261 7fbd
00000290: 7fd8 b1bb 627b 843c 3a83 adbd b87f adbd
000002a0: 3a88 ffbd e597 4bbd f231 d43b 8508 88bd
000002b0: 545f 8ebd 4a09 8abd 90b0 88bd 378f bc3d
000002c0: 4483 b13d 0587 033e 46e6 873e 86ed 5b3e
000002d0: d43a 243e 4970 b63d 3879 253e 9f74 113b
000002e0: 9f94 7cbe 822e a03d 566f 003e 6669 b83d
000002f0: 2bdb 26be d1f3 e5be b6ef 883d 0276 e13d
00000300: af2b 223e fbf4 d63d af35 863c 8a9d 523d
00000310: c7dd be3d 15e8 303e b4a5 533e d233 663e
00000320: 7541 85bd 27bb edbc 4116 c6bd 78f7 a5bd
00000330: 3420 efbc ce92 febb 3439 b834 24b7 3fbd
00000340: 3fa9 d5bd ce4f d8bc bbb1 80bc 50fd a8bd
00000350: 48a8 2a3c 43f8 e5bd 080c b2bb 43c9 dbbd
00000360: e465 c53c 8067 863a ada4 88bc 5cfe 0cbc
00000370: cc62 1abd 4ccb 09bd fca2 69bd d26f 25bd
00000380: da08 8ebd 30a1 3ec0 2f14 cabf d3e3 09c0
00000390: f269 2ac0 ac26 cbc0 c390 27c1 2a87 11c1
000003a0: 7488 12c0 e158 c6bf 3ad1 dcc0 3cc2 0ac1
000003b0: 9440 bdc0 94f1 c9c0 7f9b 00c1 60e4 c2c0
000003c0: 5671 3fbf 905b ce3f 804d be3e 843f 3bbe
000003d0: 3bce ec3e fd1f 873e fa35 39bf 6c65 97bf
000003e0: 652a 25bf 5b22 e9be ced2 6ebd 136e c7bc
000003f0: a676 eebd 10de 8bbc a9da a0bd b76c f63c

conv_transpose1.bias f4 [8]
-0.14921823 0.170327 -0.05911808 0.233231 0.20434685 -1.1739552 -0.06261803 0.15279344
00000000: aacc 18be 336a 2e3e cd25 72bd 1bd4 6e3e
00000010: 4d40 513e 2a44 96bf e23d 80bd e275 1c3e

conv_transpose2.weight f4 [8, 1, 5, 5]
0.20792079 -0.1440932 0.18307786 0.18243697 -0.15732267 -0.274041 -0.078170694 0.09139577
-0.06337014 0.15874772 0.12157979 0.0418768 -0.04379782 -0.252943 -0.14203936 -0.0063120425
0.036056686 -0.30698103 0.05778803 -0.046920083 -0.046071544 0.020806925 -0.116709106 0.09729846
-0.183293 -0.066276655 -0.19461171 0.041954916 0.10174667 0.0056720367 -0.038029224 -0.20372277
-0.12347155 -0.1476099 0.08590163 0.029033335 0.4481387 0.23869103 0.38991603 -0.19560748
-0.5221207 -0.46336347 -5.71107 -7.4534707 -1.050941 -3.9452977 -3.1849546 -3.2740183
-2.8172896 -0.82831275 0.13434243 -0.16505806 -0.1123221 0.050117273 -0.0346649 0.09940279
-0.20726754 -0.1825611 -0.09839706 -0.13319643 0.056880374 0.039641038 -0.059518635 0.1135391
-0.18783285 -0.12713616 -0.004681614 -0.18752736 -0.049319807 -0.040797796 -0.056199376 0.049759045
0.015420821 0.07345398 0.056132246 -0.027317777 0.067070164 0.041072484 0.0054492727 0.02558412
0.019101342 -0.029080082 -0.72801936 -0.8484961 -0.13354002 -0.035712253 -1.3269205 -1.2250042
-0.69094074 -0.037675135 0.078850195 -0.06474624 -0.18049893 -0.013730855 0.039076723 -0.020568304
0.041672684 -0.038322 0.020084696 -0.013860297 -0.029506108 0.0069766077 -0.33278015 -0.39086926
-0.89516854 0.029682875 -0.01157559 -0.09885194 -0.2354231 -4.8348517 -0.019377438 0.027751055
0.30133566 0.2866369 0.068219006 0.024670437 0.0934113 0.73016673 0.3222014 0.018613776
-0.020619323 -0.05044625 0.040358502 -0.01721772 0.03174256 -0.065264404 -0.3058445 -0.40097377
-0.0854682 0.04152738 0.17813912 0.390371 0.7865985 0.31445056 0.033148784 -2.6503468
-2.8034358 -3.819563 -1.1396973 -1.7563416 -3.218039 -4.0315223 -3.6209266 -3.5899465
-4.3297048 -2.9883094 -3.9692888 -4.769875 -4.912542 -4.7895465 0.12293127 0.14333864
-0.15930213 -0.047112767 0.1032526 0.21354839 -0.030124644 0.009418924 -0.07973978 0.116270185
-0.11135848 -0.03701077 -0.045892593 0.052212343 0.12318366 -0.1330473 0.1225415 0.16125377
0.1849898 0.020623213 0.10936211 -0.13550416 -0.0066570807 -0.056525715 0.16670723 -0.102982804
0.06900588 -0.30695587 -0.24721868 0.10615148 -0.10510946 0.087440036 0.9854323 0.48313564
-0.3562061 0.041017063 -0.29681438 0.5787481 -0.2336215 0.011625532 -0.014204744 -0.030780286
-0.009292232 -0.020556446 -0.023040103 -0.047787484 0.08617416 -0.09517326 0.018441569 -0.010691257
00000000: 30e9 543e 2b8d 13be c378 3b3e c2d0 3a3e
00000010: 3219 21be 1a4f 8cbe f517 a0bd b52d bb3d
00000020: 34c8 81bd c38e 223e d3fe f83d 0287 2b3d
00000030: 5865 33bd bf81 81be c472 11be 40d5 cebb
00000040: 2db0 133d 9e2c 9dbe 24b3 6c3d 462f 40bd
00000050: 84b5 3cbd 4973 aa3c 2f05 efbd 6a44 c73d
00000060: 29b1 3bbe 0ebc 87bd 4b48 47be ebd8 2b3d
00000070: 8f60 d03d 7edc b93b 88c4 1bbd b49c 50be
00000080: a7de fcbd 0d27 17be 32ed af3d 51d7 ed3c
00000090: 7072 e53e 6c6b 743e 13a3 c73e 544d 48be
000000a0: b4a9 05bf fa3d edbe 16c1 b6c0 d582 eec0
000000b0: 3c85 86bf c27f 7cc0 4cd6 4bc0 8489 51c0
000000c0: 794e 34c0 4e0c 54bf 1091 093e fb04 29be
000000d0: 2109 e6bd c547 4d3d c8fc 0dbd b193 cb3d
000000e0: f13d 54be 4cf1 3abe 6684 c9bd a564 08be
000000f0: 65fb 683d a45e 223d d0c9 73bd 3087 e83d
00000100: 4157 40be fb2f 02be 3a68 99bb 2c07 40be
00000110: 9103 4abd 971b 27bd 5131 66bd 24d0 4b3d
00000120: 9ca7 7c3c 0a6f 963d edea 653d 88c9 dfbc
00000130: 155c 893d 9f3b 283d d08f b23b ca95 d13c
00000140: 6b7a 9c3c 5a39 eebc 7a5f 3abf 0a37 59bf
00000150: b7be 08be 0347 12bd 88d8 a9bf f0cc 9cbf
00000160: 7ee1 30bf 3e51 1abd 367c a13d ad99 84bd
00000170: b6d4 38be 61f7 60bc ea0e 203d dc7e a8bc
00000180: fab0 2a3d 88f7 1cbd a988 a43c 4d16 63bc
00000190: cbb6 f1bc 079c e43b 2962 aabe 0420 c8be
000001a0: c429 65bf 8029 f33c 8ba7 3dbc e372 cabd
000001b0: c112 71be 1bb7 9ac0 6fbd 9ebc 2e56 e33c
000001c0: ab48 9a3e 12c2 923e 68b6 8b3d a819 ca3c
000001d0: 6c4e bf3d 35ec 3a3f 95f7 a43e eb7b 983c
000001e0: dbe9 a8bc baa0 4ebd f54e 253d 2d0c 8dbc
000001f0: 7d04 023d 58a9 85bd a697 9cbe 6f4c cdbe
00000200: f409 afbd 9d18 2a3d 1a6a 363e b5de c73e
00000210: 855e 493f aaff a03e 05c7 073d 489f 29c0
00000220: 7e6b 33c0 b873 74c0 9ae1 91bf cdcf e0bf
00000230: 5af4 4dc0 3b02 81c0 43bd 67c0 afc1 65c0
00000240: f18c 8ac0 7640 3fc0 d408 7ec0 d1a2 98c0
00000250: 8b33 9dc0 f743 99c0 64c3 fb3d 5dc7 123e
00000260: 1920 23be 51f9 40bd 1976 d33d 6eac 5a3e
00000270: f5c7 f6bc d551 1a3c 9c4e a3bd 101f ee3d
00000280: ea0f e4bd 9b98 17bd dff9 3bbd 9cdc 553d
00000290: b747 fc3d 8d3d 08be 0af7 fa3d b51f 253e
000002a0: f76d 3d3e 03f2 a83c 3ef9 df3d 9ac1 0abe
000002b0: a423 dabb 8287 67bd 4db5 2a3e a6e8 d2bd
000002c0: f452 8d3d 5229 9dbe e526 7dbe f265 d93d
000002d0: a143 d7bd c313 b33d 4b45 7c3f 8e5d f73e
000002e0: a560 b6be 8201 283d 0ef8 97be d628 143f
000002f0: 793a 6fbe 0479 3e3c 04bb 68bc f026 fcbc
00000300: 723e 18bc fe65 a8bc 99be bcbc cfbc 43bd
00000310: 147c b03d 33ea c2bd c612 973c 622a 2fbc
