demo_torch/cifar_net.pth (torch_old, 249582 bytes, 10 tensors)

conv1.weight f4 [6, 3, 5, 5]
0	0x3d068312	0.032839842
1	0x3cf8741e	0.030328806
2	0x3de5b50e	0.11216174
3	0xbc8eadb0	-0.017416805
4	0xbd6ac1c2	-0.057313688
5	0x3d903244	0.070408374
6	0xbe093403	-0.13398747
7	0xbdeb9d8c	-0.11504659
8	0xbe02123d	-0.1270227
9	0x3de41fe5	0.11138896
10	0x3ea11ae3	0.31465825
11	0xbf0af486	-0.54279363
12	0xbe8194e9	-0.25308922
13	0x3eb06a2e	0.3445601
14	0xbd1c7b75	-0.038203675
15	0x3e616279	0.2201022
16	0xbf50352d	-0.8133114
17	0xbdd6d733	-0.10490265
18	0x3f26ddc8	0.6518216
19	0xbddac1f4	-0.10681525
20	0xbcccaefe	-0.024985787
21	0xbecf4662	-0.40483385
22	0xbdb3a4f7	-0.08771699
23	0x3eaef041	0.34167674
24	0xbdf2398a	-0.11827381
25	0xbdf9458a	-0.12171467
26	0x3d1c0768	0.038093
27	0x3c80b3c1	0.015710713
28	0x3d44d802	0.048057564
29	0x3bd1b5e9	0.006399859
30	0x3dad0c70	0.08449638
31	0xbdb101fe	-0.08642958
32	0x3c23b636	0.009992173
33	0x3cfc4bad	0.030797804
34	0x3cc08673	0.02350161
35	0x3e653542	0.22383597
36	0xbebb82b0	-0.36623144
37	0xbe322c2d	-0.17399664
38	0x3ea1deee	0.31615394
39	0x3e04c48d	0.12965603
40	0x3eb248c6	0.34821147
41	0xbf377424	-0.7166159
42	0x3c6c1802	0.014410021
43	0x3f42b729	0.7606073
44	0xbe1c26b7	-0.15249144
45	0x3de9a971	0.114092715
46	0xbe8d72c7	-0.2762663
47	0xbd341686	-0.043966793
48	0x3edccc4e	0.43124622
49	0xbd39c55e	-0.04535424
50	0xbe1ba697	-0.15200268
51	0xbd3b7529	-0.04576603
52	0x3cfef1d9	0.031121181
53	0xbe09d887	-0.13461505
54	0xbd772262	-0.060335524
55	0x3d9df2fc	0.07712361
56	0xbdd6f94b	-0.104967676
57	0x3ce4b0a1	0.027916254
58	0x3bd12857	0.0063829827
59	0x3c64bef6	0.013961544
60	0x3e622d65	0.22087629
61	0xbeda83e7	-0.42678759
62	0xbe381308	-0.1797601
63	0x3e92a557	0.2864177
64	0xbcbeb87b	-0.023281327
65	0x3ec27c37	0.37985393
66	0xbf2ac2a0	-0.66703224
67	0xbd69a9d6	-0.057046734
68	0x3f22dda6	0.6361946
69	0xbe87f187	-0.26551458
70	0x3d3483ec	0.044071123
71	0xbeceaf90	-0.4036832
72	0xbd7b2623	-0.061315667
73	0x3eda0e0f	0.4258885
74	0xbdba3a15	-0.090931095
75	0xbdcec69b	-0.10096475
76	0xbe92cd71	-0.28672364
77	0xbe58560f	-0.21126579
78	0xbda023ed	-0.07819352
79	0xbda88e84	-0.08230308
80	0xbdc2580a	-0.09489448
81	0xbe66a885	-0.22525223
82	0xbd8b78f4	-0.06810179
83	0xbe7d8368	-0.24757159
84	0xbe8b6a31	-0.27229455
85	0xbcf91f1f	-0.030410348
86	0xbd84d7cc	-0.064864725
87	0xbd69942a	-0.057026066
88	0xbdca4a57	-0.098774604
89	0xbe553ada	-0.20823231
90	0xbec152de	-0.37758535
91	0xbe465f57	-0.19372307
92	0xbe526f68	-0.2055031
93	0xbe0812f3	-0.13288479
94	0xbe4eaf5e	-0.20184085
95	0xbdedcb69	-0.11611063
96	0xbea1fa8b	-0.31636462
97	0xbe9da27d	-0.3078803
98	0xbe346e8b	-0.17620294
99	0xbeb059d2	-0.34443527
100	0xbe34185b	-0.17587416
101	0xbdace49a	-0.0844204
102	0x3cdd5e8a	0.027022619
103	0xbe17de68	-0.14830935
104	0x3c7d94f5	0.015477409
105	0x3dcd1165	0.10013083
106	0x3dee82d3	0.116460465
107	0x3e38b7a3	0.18038802
108	0xbc38cbcd	-0.011279059
109	0xbbfe3b07	-0.0077585015
110	0x3dc57575	0.09641544
111	0x3e534def	0.20635198
112	0x3e06dfd0	0.13171315
113	0x3e9f30ba	0.31091863
114	0x3e13cc8e	0.144335
115	0xbe13e9f2	-0.14444712
116	0xbd7b2257	-0.061312046
117	0x3d81ab27	0.06331473
118	0x3de09fa8	0.10967952
119	0xbdeb11da	-0.11478014
120	0xbdaebfa3	-0.085326456
121	0xbe0f56f9	-0.13998021
122	0xbdce99b4	-0.1008791
123	0xbd8fd4fc	-0.070230454
124	0x3c4bd05d	0.012439814
125	0xbd509a19	-0.05092821
126	0x3df4df75	0.119566835
127	0x3c9c8380	0.019105673
128	0x3bbadc37	0.005702521
129	0xbd23c7a5	-0.039985318
130	0x3e2f324d	0.17109032
131	0x3e59cbda	0.2126917
132	0x3e95ce0e	0.2925877
133	0x3e354f5f	0.17706059
134	0x3e075417	0.13215671
135	0x3e818933	0.25299987
136	0x3eada5fd	0.33915702
137	0x3ea36c84	0.31918728
138	0x3ee77f40	0.45214272
139	0x3e3c2c7d	0.18376346
140	0x3d825df7	0.063655786
141	0x3e927c72	0.2861057
142	0x3e600710	0.21877694
143	0x3e223263	0.15839534
144	0x3d9e7dca	0.07738836
145	0x3db74170	0.08948028
146	0x3da68a5e	0.0813186
147	0x3e1e9d4f	0.15489696
148	0xbceaaf31	-0.02864799
149	0x3d72ee61	0.059309367
150	0xbe139b9c	-0.14414829
151	0xbdaf994f	-0.08574163
152	0xbdf8bf05	-0.12145809
153	0xbc85a3d6	-0.016313475
154	0xbd6fef03	-0.05857755
155	0xbdb7770b	-0.089582525
156	0xbe5e5d92	-0.21715382
157	0xbd37d4a5	-0.044880528
158	0x3bbc6912	0.00574983
159	0x3da90be1	0.08254219
160	0xbdca1bce	-0.098685846
161	0xbdfc3d60	-0.12316394
162	0x3d7e6a74	0.06211324
163	0x3e285f3e	0.16442582
164	0x3e39b006	0.18133554
165	0x3d952620	0.072826624
166	0xbc0e6d11	-0.008692996
167	0x3dc257b8	0.09489387
168	0x3e1ad106	0.15118799
169	0x3e56929b	0.20954363
170	0x3d4d6f55	0.050155003
171	0x3c5a48f5	0.013323058
172	0x3df9554e	0.12174474
173	0x3dda503a	0.10659833
174	0x3e328f87	0.17437564
175	0xbe4a3537	-0.19746862
176	0xbd81a712	-0.06330694
177	0xbcffeb22	-0.03124005
178	0x3ba41e98	0.00500853
179	0xbbb142ef	-0.0054095904
180	0xbde57ba8	-0.11205226
181	0xbc3d89b4	-0.0115684755
182	0xbe117c29	-0.1420752
183	0x3da13a1d	0.07872412
184	0x3d1072e0	0.035265803
185	0xbdeeddda	-0.116634086
186	0xbd8105ee	-0.06299959
187	0xbdf9942f	-0.12186467
188	0x3c122b9a	0.008921528
189	0x3d05db16	0.03267964
190	0xbe4aedac	-0.19817227
191	0xbe29c195	-0.16577752
192	0xbe348da5	-0.17632158
193	0xbce2e34b	-0.027696272
194	0xbe34780a	-0.17623916
195	0xbe35d524	-0.17757088
196	0xbe1c54fd	-0.15266795
197	0xbe36baf0	-0.17844748
198	0xbde55ca9	-0.11199314
199	0xbe4156c7	-0.18880759
200	0x3dcc160c	0.099651426
201	0x3da79bcc	0.08184013
202	0x3e1d9312	0.15388134
203	0x3e2c27c2	0.16812041
204	0x3e72b7cc	0.23702925
205	0x3cb8691d	0.02251106
206	0x3e22ea65	0.15909727
207	0x3e40c80f	0.18826316
208	0x3ea340cf	0.31885383
209	0x3e9f7c62	0.31149584
210	0xbda52883	-0.080643676
211	0x3dc5f615	0.09666077
212	0x3e67671e	0.2259793
213	0x3e721bdb	0.23643439
214	0x3e3a1a37	0.18174063
215	0x3e0404ba	0.12892428
216	0x3daf92ec	0.08572945
217	0x3e322460	0.17396688
218	0x3dd75002	0.10513307
219	0x3e6aaea6	0.22918186
220	0x3d132ce5	0.035931487
221	0x3d56e5b3	0.052465152
222	0xbb35d88d	-0.0027747483
223	0x3e16b28f	0.14716552
224	0x3dce69e8	0.10078794
225	0xbd027d66	-0.03185787
226	0xbe296c51	-0.16545226
227	0xbdde19c4	-0.10844758
228	0xbe465518	-0.19368398
229	0xbddb5d74	-0.10711184
230	0xbb02bbba	-0.001994832
231	0xbc09d823	-0.008413347
232	0xbadac040	-0.0016689375
233	0x3dd884de	0.105722174
234	0x3e0b8ece	0.13628694
235	0xbceef38f	-0.029168872
236	0x3d751575	0.059834916
237	0x3e228a1c	0.15872997
238	0x3b9bcfb2	0.004754984
239	0x3e1a8356	0.15089163
240	0x3942c1ce	0.0001857348
241	0x3d325cdf	0.0435456
242	0x3e066099	0.13122787
243	0x3d8c5531	0.068521865
244	0x3e006651	0.1253903
245	0x3dde0dba	0.10842462
246	0xbd43cd97	-0.047803488
247	0x3d12e59e	0.03586351
248	0x3d3bcd32	0.045849986
249	0x3e1305b0	0.14357638
250	0xbd96f946	-0.07371764
251	0xbe49cba1	-0.19706585
252	0xbe3cdab0	-0.18442798
253	0xbd55a257	-0.052156772
254	0xbdcbc33c	-0.099493474
255	0xbe2e614c	-0.17029303

conv1.bias f4 [6]
0	0xbdc6410b	-0.09680375
1	0x3e5bd04e	0.2146618
2	0x3e224eed	0.1585042
3	0x3da2b16b	0.07943996
4	0xbed3dcf3	-0.41379508
5	0xbef6cd04	-0.4820329

conv2.weight f4 [16, 6, 5, 5]
0	0xbdaeb919	-0.08531398
1	0x3cfbd43f	0.030740855
2	0x3e6cddcf	0.23131488
3	0x3db4b8f7	0.08824342
4	0xbdfad4be	-0.122476086
5	0xbdf7b2f8	-0.120946825
6	0x3e34ad37	0.17644201
7	0x3df10049	0.117676325
8	0x3cb9b00c	0.022666954
9	0xbe5078a3	-0.2035852
10	0xbd83cd57	-0.0643565
11	0x3e1ddfce	0.15417406
12	0x3d3b440d	0.045719195
13	0x3d5cb220	0.05388081
14	0xbe21e967	-0.15811692
15	0xbd87d152	-0.066317216
16	0x3dc24fff	0.09487914
17	0xbd0735a8	-0.033010155
18	0x3dabad31	0.08382643
19	0xbd7bc23f	-0.061464544
20	0xbd8fcc32	-0.07021369
21	0x3de02a57	0.10945576
22	0xbd43bcb2	-0.047787376
23	0xbd3cf22f	-0.0461294
24	0xbdb5a92c	-0.088701576
25	0xbe53c1e5	-0.20679434
26	0xbe917eb7	-0.28416988
27	0xbd3b12d2	-0.045672245
28	0x3df83d45	0.12121061
29	0x3ea8cd34	0.32969058
30	0xbe4fe68e	-0.20302793
31	0xbe799df0	-0.24376655
32	0xbdbe3ed3	-0.092893265
33	0x3e7d7fe0	0.24755812
34	0x3e8c85fa	0.27445966
35	0xbe6369c7	-0.2220832
36	0xbe2a91cc	-0.1665718
37	0xbd67b4b1	-0.056568805
38	0x3d11dc80	0.035610676
39	0x3e60acf9	0.21940984
40	0xbe039684	-0.12850386
41	0xbd028ca0	-0.03187239
42	0xbd05f00f	-0.03269964
43	0x3e22aec0	0.15886974
44	0x3e0ba5bf	0.13637446
45	0xbe1f7d60	-0.1557517
46	0x3cbddc97	0.023176474
47	0x3c8020b2	0.01564059
48	0x3dfdce6e	0.12392889
49	0x3deb0c7a	0.11476989
50	0xbe63c70e	-0.22243902
51	0xbe556aa1	-0.20841457
52	0x3d87df80	0.06634426
53	0x3e7d88f7	0.24759279
54	0x3e9bca39	0.3042772
55	0xbe65f71e	-0.22457549
56	0xbe3a867e	-0.18215367
57	0xbd82adb1	-0.06380785
58	0x3e40d161	0.18829872
59	0x3e7e29f2	0.24820688
60	0xbe4034fe	-0.18770215
61	0xbdda6701	-0.10664178
62	0xbe06c611	-0.13161494
63	0x3d543b1e	0.05181419
64	0x3e2926ca	0.16518703
65	0xbe19b51e	-0.15010497
66	0xbd723d8d	-0.05914073
67	0xbe0b0b6f	-0.1357858
68	0xbd1e5d4d	-0.038663197
69	0x3cfd15a2	0.030894104
70	0x3c962b63	0.018331235
71	0xbd7898de	-0.06069266
72	0xbcbc4acf	-0.02298489
73	0x3d9c01ce	0.07617532
74	0x3d8d19ad	0.06889663
75	0xbe25b68e	-0.1618292
76	0x3c8952b7	0.016763074
77	0x3e343729	0.17599167
78	0x3e53749a	0.20649949
79	0x3db618f6	0.0889148
80	0xbe1c60b0	-0.15271258
81	0x3d49980f	0.04921728
82	0x3e41b732	0.1891754
83	0x3e4325ad	0.19057341
84	0x3de9ed4f	0.11422216
85	0xbdbdced0	-0.09267962
86	0x3cb8d9ab	0.02256473
87	0x3dc34df0	0.0953635
88	0x3c157c17	0.009123824
89	0xbd80505a	-0.06265326
90	0xbd52e811	-0.051490847
91	0x3d446d36	0.047955714
92	0xbc1f5e3d	-0.009727058
93	0xbd4efdfe	-0.050535195
94	0xbbebe361	-0.0071987365
95	0x3cbb9855	0.022899786
96	0x3c82d1fe	0.015969273
97	0xbd26658a	-0.04062418
98	0xbd850059	-0.06494207
99	0x3d4e60fe	0.050385468
100	0x3cbbfeb1	0.022948595
101	0x3d5ed3bb	0.05440114
102	0x3dae04ef	0.08497035
103	0xbd2fc8a0	-0.04291594
104	0x3a2afc5f	0.00065225916
105	0xbc5430cd	-0.012951088
106	0x3d835290	0.06412232
107	0x3ded169e	0.115765795
108	0xbc08a801	-0.0083408365
109	0xbe3ea415	-0.1861728
110	0x3d6bff8a	0.057616748
111	0x3d98acce	0.07454835
112	0xbd87db92	-0.066336766
113	0xbc65f46b	-0.014035325
114	0xbe103904	-0.1408425
115	0xbb642270	-0.0034810565
116	0x3ca44783	0.02005363
117	0xbde0af9a	-0.10970993
118	0x3da63c99	0.08117027
119	0xbdb8243d	-0.08991287
120	0x3deb141b	0.11478444
121	0x3d8a453a	0.06751485
122	0x3b88ad8f	0.0041710804
123	0x3ddc5e6d	0.10760198
124	0xbd8ff745	-0.07029585
125	0xbd55caf6	-0.05219551
126	0xbca50f6d	-0.020148957
127	0x3a80e86b	0.0009834891
128	0xbc0f9c7a	-0.008765334
129	0x3e1c01ff	0.15235136
130	0xbcb5ce9a	-0.022193242
131	0xbda6b699	-0.081402965
132	0xbd2433ca	-0.040088452
133	0xbdc62bf4	-0.09676352
134	0x3b5a0005	0.0033264172
135	0xbd34790b	-0.044060748
136	0xbd1e047d	-0.0385785
137	0xbd8d3892	-0.068955556
138	0xbe397866	-0.18112335
139	0xbce251cb	-0.027626893
140	0xbcd75b1e	-0.026288565
141	0xbdd9e6d9	-0.10639734
142	0xbdf0b4f1	-0.11753262
143	0x3ccc5361	0.024942102
144	0xbd8e60b3	-0.06952038
145	0xbe098ed9	-0.13433398
146	0xbd990979	-0.0747251
147	0xbd914cb3	-0.07094707
148	0xbdf468f4	-0.11934081
149	0xbd256507	-0.04037955
150	0xbe226074	-0.15857106
151	0x3e8959b9	0.26826265
152	0x3d32f212	0.043687887
153	0xbd1b9277	-0.037981477
154	0xbe948d0d	-0.29013863
155	0x3e1b7c31	0.15184094
156	0x3d83a16f	0.064272754
157	0xbd71bd33	-0.059018325
158	0xba4117d3	-0.0007365916
159	0xbdd8e7c3	-0.1059108
160	0x3e07b27a	0.13251677
161	0xbd7ef022	-0.062240727
162	0x3e0337e3	0.12814288
163	0xbda9d535	-0.08292619
164	0x3e332951	0.1749623
165	0x3ddbdc98	0.10735434
166	0xbe3989e4	-0.18119007
167	0x3e437e7c	0.19091219
168	0xbe2ebfd2	-0.17065361
169	0x3e0f54d8	0.13997209
170	0x3e140c82	0.14457896
171	0x3d2185e0	0.039434314
172	0x3cebced4	0.028785147
173	0x3cb50831	0.022098633
174	0x3e681409	0.22663893
175	0xbd9bc101	-0.07605172
176	0xbe536192	-0.20642689
177	0xbe26a79c	-0.16274875
178	0xbe3b72cc	-0.1830551
179	0xbdc5882a	-0.09645112
180	0xbd7e4c04	-0.062084213
181	0xbe663e74	-0.22484761
182	0xbe2da1ae	-0.16956207
183	0xbe53d0c6	-0.2068511
184	0xbe0aad18	-0.13542593
185	0xbded7a30	-0.11595571
186	0xbda7edca	-0.081996515
187	0xbe011fa2	-0.12609723
188	0xbe522c09	-0.2052461
189	0xbe1410e3	-0.14459567
190	0xbdfdc2a2	-0.12390639
191	0xbdf1e85e	-0.11811899
192	0xbdfb8d3a	-0.12282796
193	0xbe6833a6	-0.22675952
194	0xbdfd48cf	-0.12367403
195	0x3d09f470	0.03368038
196	0xbd53f831	-0.051750366
197	0xbdfdc66d	-0.12391362
198	0xbe598a17	-0.21244083
199	0xbe192ece	-0.14959261
200	0xbe10b0b1	-0.14129902
201	0xbdfd1b08	-0.123586714
202	0xbdcdc029	-0.10046417
203	0xbd7c6fa6	-0.061629914
204	0x3d12f701	0.035880093
205	0xbd93c409	-0.07215125
206	0xbc006f08	-0.007838972
207	0x3c520912	0.012819545
208	0xbba5946a	-0.0050530927
209	0x3d2d0085	0.042236824
210	0xbe133323	-0.14374976
211	0x3d0b7a32	0.03405208
212	0xbd896403	-0.06708529
213	0xbd7b189d	-0.06130277
214	0x3d664758	0.056220382
215	0x3b34c13c	0.0027580997
216	0x3a9e10b6	0.0012059424
217	0x3cb1a16a	0.021683414
218	0x3cc9de91	0.02464226
219	0xbcc9dbed	-0.024641002
220	0xbe1d8885	-0.1538411
221	0xbdc7e3ed	-0.0976027
222	0x3c35c00d	0.011093152
223	0xbdb338dd	-0.0875108
224	0xbe3f363b	-0.18673031
225	0x38fbbcf5	0.00012003809
226	0x3e128dc2	0.14311889
227	0x3e18d649	0.14925493
228	0x3e2e2728	0.17007124
229	0x3e619ef7	0.22033297
230	0xbdc19442	-0.09452106
231	0x3db599b9	0.08867211
232	0xbc6eabaa	-0.014567295
233	0x3de30724	0.11085346
234	0x3d79f43a	0.06102393
235	0x3de787e3	0.11305215
236	0x3da5fbb8	0.08104652
237	0xbc8871cd	-0.016655827
238	0xbcd77d53	-0.026304876
239	0xbc335f79	-0.010948055
240	0xbb9fa19f	-0.0048715617
241	0xbc28b03b	-0.010295923
242	0xbbd3a38b	-0.006458705
243	0xbc3c7714	-0.011503
244	0x3d542bf9	0.051799748
245	0xbc96d649	-0.018412726
246	0x3c8d4942	0.017246846
247	0x3d66d223	0.056352746
248	0xbc24e3d3	-0.010064083
249	0xbd22a0d9	-0.039704178
250	0xbcced424	-0.02524764
251	0xbd08ac68	-0.033367544
252	0x3d874cec	0.066064686
253	0x3cdbb638	0.026820287
254	0xbe1efe4a	-0.15526691
255	0x3d3702b6	0.04468032

conv2.bias f4 [16]
0	0xbee87cdd	-0.45407763
1	0x3f46ad56	0.7760824
2	0xbefe9ecc	-0.49730527
3	0x3e1d8bad	0.15385313
4	0xbe991bf9	-0.29904154
5	0x3dad94dd	0.08475659
6	0x3ed43c55	0.4145228
7	0x3eb96d85	0.3621637
8	0xbbf1be09	-0.0073773903
9	0x3edd613b	0.43238243
10	0xbe8ad024	-0.27111924
11	0xbe89733e	-0.26845735
12	0xbd7d33d6	-0.061817013
13	0x3d49ff4e	0.049315743
14	0x3e92bda2	0.28660303
15	0xbf16a62a	-0.58847296

fc1.weight f4 [120, 400]
0	0x3d29096f	0.041268762
1	0xbd0b2367	-0.03396931
2	0xbcd763fd	-0.026292795
3	0xbcf06a2b	-0.0293475
4	0xbc0fdeef	-0.008781179
5	0x3c9423a5	0.018083403
6	0x3d6879ba	0.056756712
7	0xbd4ddece	-0.05026131
8	0xbc099a01	-0.008398534
9	0x3cb9e7fd	0.022693628
10	0xbd4ec4df	-0.05048072
11	0xbc55a212	-0.013039129
12	0xbafa19b3	-0.0019081145
13	0x3cd92849	0.026508467
14	0x3d38fa77	0.045160737
15	0xbc5def59	-0.013545834
16	0x3cc56e80	0.024100542
17	0xbd15e52d	-0.036595512
18	0xbb41aa01	-0.0029550793
19	0xbd48cb28	-0.04902187
20	0x3cd9e550	0.026598603
21	0x3c5e4ebc	0.013568576
22	0xbd2890ad	-0.0411536
23	0xbd260f39	-0.04054186
24	0x3d21ead1	0.03953058
25	0xba48da3b	-0.00076619134
26	0x3cb17127	0.0216604
27	0x3cecdda4	0.02891428
28	0x3ba0da1a	0.004908812
29	0x3d4585be	0.04822325
30	0x3ab4d384	0.0013795947
31	0xbc20e621	-0.009820492
32	0x3b27c69a	0.0025600553
33	0x3cce445a	0.025179077
34	0x3b109355	0.0022060473
35	0xbd0bb958	-0.034112304
36	0xbb6d2a0d	-0.0036188394
37	0x3c3a4091	0.011367933
38	0x3ca5998d	0.02021482
39	0xbc91b6f0	-0.017787427
40	0xbb84bb82	-0.004050673
41	0x3cc30ccf	0.023809819
42	0x3d01fd69	0.03173581
43	0xbc93237d	-0.017961258
44	0x3c16d0ea	0.009205082
45	0xbd50eebb	-0.05100892
46	0x3ca58314	0.020204104
47	0x3aab8f9a	0.0013089061
48	0xb8cf34c7	-9.88036e-05
49	0xbc96697c	-0.018360846
50	0xbc3c4c98	-0.011492871
51	0xbcab7ed2	-0.020934496
52	0x3c7dd4ac	0.015492599
53	0x3d6108e1	0.05494011
54	0xbc21c503	-0.009873631
55	0x3d08a65d	0.03336178
56	0xbc83d58b	-0.016093036
57	0x3c833ff9	0.016021715
58	0xb8eb7261	-0.00011226978
59	0xba2fafb5	-0.00067019026
60	0xb9085576	-0.00013001807
61	0x3d48c436	0.049015246
62	0x3c1560d2	0.009117322
63	0xbd3aecf2	-0.045636125
64	0x3b41c692	0.002956782
65	0xbd23585b	-0.039879184
66	0xbd1f31f0	-0.038865983
67	0xbd1ad9ad	-0.037805248
68	0xbd2e46b8	-0.04254791
69	0xbd28d507	-0.041218784
70	0xbba9d5fa	-0.0051829787
71	0x3d01aaa0	0.03165686
72	0x3d741b0b	0.059596103
73	0x3d20d388	0.039264232
74	0xbd033cb3	-0.03204031
75	0x3cfd1858	0.030895397
76	0xbc7afa72	-0.0153185
77	0xbd39f918	-0.04540357
78	0xbc1f93f4	-0.009739865
79	0xbbfb74e2	-0.0076738456
80	0xbb239faa	-0.0024966993
81	0x3cf7ba3e	0.030240174
82	0xbcdba24d	-0.02681079
83	0x3cf88c62	0.030340377
84	0x3cd0986e	0.02546331
85	0x3d3139a7	0.043267872
86	0x3c81c7d7	0.015842361
87	0xbd3bf0e6	-0.045884036
88	0x3cce89cf	0.025212197
89	0x3d58f534	0.05296822
90	0x3cb5dea6	0.022200894
91	0x3be4f5c9	0.0069873077
92	0x3d112d5a	0.03544364
93	0x3c1c1ec8	0.009528823
94	0x3d06b84b	0.0328906
95	0xbccba311	-0.02485803
96	0x3d233449	0.039844785
97	0x3d3933d4	0.045215443
98	0xbc2e6303	-0.010643723
99	0x3d5280c6	0.05139234
100	0xbc1ee8cd	-0.009699059
101	0x3bf39db6	0.007434572
102	0xbcc3bc2c	-0.023893438
103	0x3bb84c39	0.005624321
104	0x3b7cd8ee	0.0038581449
105	0x3d3d0fba	0.046157576
106	0x3b83840d	0.0040135444
107	0xbc3df142	-0.011593165
108	0xbc961d81	-0.018324615
109	0xbca268f3	-0.019825434
110	0xbc7afb0f	-0.015318646
111	0xbd342d68	-0.043988615
112	0x3d26f93b	0.04076503
113	0x3d381342	0.04494024
114	0x3d009063	0.031387698
115	0x3d242346	0.040072702
116	0x3ceae4c6	0.02867354
117	0x3cd403dc	0.025880747
118	0xbc55e73e	-0.013055621
119	0xbcea9f6a	-0.028640468
120	0xbcbd9cd6	-0.023146074
121	0xbcc4507b	-0.023964157
122	0x38ea6b76	0.00011178006
123	0xbb89d434	-0.004206205
124	0xbd125e9a	-0.03573475
125	0x3d0a7173	0.0337996
126	0x3ce2d95f	0.027691541
127	0x3d5199f0	0.051172197
128	0x3d2e2502	0.042515762
129	0xbb72a06d	-0.003702189
130	0xbd335da7	-0.043790486
131	0xbd076223	-0.033052575
132	0x3d49cc89	0.049267326
133	0x3c22d81a	0.009939218
134	0x3d45a292	0.048250742
135	0x3cd867a8	0.026416615
136	0x3c52feac	0.012878101
137	0x3cf5eac5	0.030019173
138	0x3ca3b10b	0.019981882
139	0x3c034a6f	0.008013352
140	0xbc95a294	-0.018266
141	0xbcbcaf93	-0.023032939
142	0xbd35cb4b	-0.04438333
143	0x3c0d5296	0.008625647
144	0xbcbb269f	-0.022845564
145	0xbd053098	-0.032517046
146	0xbd04ec22	-0.032451756
147	0x3c94e95a	0.018177677
148	0x3d4bcc7a	0.04975555
149	0x3d15713c	0.03648494
150	0xbd0e9537	-0.03481027
151	0x3d177a06	0.036981605
152	0x3d246d5b	0.040143352
153	0xbcadddf9	-0.021224009
154	0xbaa8f2f6	-0.0012889791
155	0xbaf68245	-0.0018807134
156	0x3c2e5db7	0.010642461
157	0x3cd5f026	0.026115488
158	0xbcdcb9b8	-0.026944026
159	0x3c6694da	0.014073575
160	0x3d2ac6ae	0.041693382
161	0xbc991f0d	-0.018691564
162	0xbc8ce8fe	-0.017200943
163	0x3ce3028f	0.027711181
164	0xbccdb8b2	-0.025112484
165	0xbcb721b9	-0.022354947
166	0x3ce8810f	0.028381852
167	0x3c977b32	0.018491361
168	0xbd137862	-0.036003478
169	0xbd3460b0	-0.04403752
170	0x3b50a8f6	0.003183899
171	0x3c47961c	0.012181785
172	0xbd24c28f	-0.040224608
173	0x3bd6ac65	0.0065513127
174	0xbd33caf9	-0.04389474
175	0x3c4a31ec	0.012341004
176	0xb906b766	-0.00012847557
177	0xbc3d1498	-0.011540554
178	0x3d01377d	0.03154706
179	0x3ce194d4	0.027536787
180	0x3d21413a	0.039368846
181	0xbd584601	-0.052801136
182	0xbd22dc85	-0.039761085
183	0xbd1ac49e	-0.037785165
184	0xbce3a17a	-0.027786959
185	0xbc283441	-0.010266365
186	0x3cee7f2b	0.029113373
187	0x3ce0ebde	0.02745622
188	0x3cdfb071	0.027305814
189	0xbc8d33ff	-0.017236708
190	0xbd03ad3c	-0.03214763
191	0x3c08f3cc	0.008358907
192	0xbc5dfd44	-0.013549153
193	0xbd3c04e7	-0.045903113
194	0x3c8a619a	0.016892243
195	0x3bd839d1	0.006598689
196	0x3c8bc6ef	0.017062632
197	0x3c91ef54	0.017814316
198	0x3c3f3409	0.011670121
199	0xbd2f642b	-0.042820137
200	0xbd1486c6	-0.036261342
201	0x3d5b1e0e	0.05349546
202	0xbd2fbce2	-0.042904742
203	0xbc460707	-0.012086636
204	0x3c63155d	0.013860074
205	0xbb7f9be3	-0.0039002828
206	0x3cd77d69	0.026304917
207	0x3c448f68	0.011997081
208	0xbc88dcb7	-0.016706808
209	0xbd2d1a63	-0.042261492
210	0xbd277a3b	-0.040888052
211	0xbca7b933	-0.020474052
212	0x3c5f1dc2	0.013617935
213	0xbc6d6c0b	-0.0144910915
214	0x3cf5a231	0.029984565
215	0x3d2fc6f7	0.042914357
216	0xbc8acd4f	-0.016943602
217	0xbcc4fa28	-0.024045065
218	0xbc28d986	-0.010305768
219	0xba429570	-0.00074227806
220	0xbcd0d010	-0.025489837
221	0xbb8b942d	-0.0042596073
222	0x3d048eec	0.032362863
223	0xbc9c8e97	-0.01911096
224	0x3c488faa	0.012241283
225	0xbca81ba6	-0.020520996
226	0xbd2605db	-0.040532928
227	0x3d22e221	0.039766435
228	0x3be3a2fe	0.0069469204
229	0x3d0c3147	0.034226682
230	0x3d0622d7	0.03274807
231	0xbc8d98df	-0.017284809
232	0x3cdbf2f2	0.026849244
233	0x3b9ca5cb	0.0047805062
234	0xbd384614	-0.044988707
235	0x3cced8b7	0.025249822
236	0x3c154b00	0.00911212
237	0xbd05b8c9	-0.032646928
238	0x3d1c8137	0.038209166
239	0x3d3eb336	0.046557628
240	0xbbe6529e	-0.0070288917
241	0xbd16a054	-0.036773995
242	0xbc3ed584	-0.011647586
243	0x3ccc3d08	0.024931446
244	0xbc9cca70	-0.019139498
245	0xbcdbf7da	-0.026851583
246	0x3bc5fbc6	0.0060419766
247	0x3d6aab40	0.057292223
248	0xbc184b0e	-0.009295238
249	0x3c99da5a	0.018780876
250	0x3c2285ec	0.009919625
251	0x3c21b374	0.009869445
252	0xbcc463d6	-0.023973387
253	0x3c9bf2f2	0.019036744
254	0xbd08c575	-0.033391435
255	0x3c72df62	0.014823766

fc1.bias f4 [120]
0	0xbc998fe2	-0.018745366
1	0xbcdf3005	-0.027244577
2	0xbc6c917d	-0.014438984
3	0xbc13c374	-0.009018768
4	0x3d47dca0	0.04879439
5	0x3e0c2649	0.1368648
6	0xbd1d27ae	-0.03836792
7	0x3d885328	0.06656486
8	0xbbb16a17	-0.005414258
9	0xbd1b4521	-0.037907723
10	0x3c45f94a	0.012083361
11	0xbd22e549	-0.039769445
12	0x3e318789	0.17336859
13	0x3d1ff3c0	0.039050817
14	0xbd8d66d5	-0.06904379
15	0x3dee9d0a	0.116510466
16	0xbd1fb9e9	-0.038995657
17	0xbd8fae4d	-0.07015667
18	0x3d7f22df	0.062289115
19	0xbcc1dabb	-0.02366387
20	0x3d647b63	0.055781733
21	0x3deef725	0.11668233
22	0xbca43582	-0.020045046
23	0x3d1b87e7	0.037971403
24	0xbd3b3355	-0.04570325
25	0xbbab41b8	-0.00522634
26	0xbd1330d0	-0.035935223
27	0x3defb0ab	0.117036186
28	0xbca63530	-0.020289034
29	0x3d4ccab3	0.049997997
30	0x3c96a90d	0.018391157
31	0x3c8fd656	0.017558258
32	0x3e12bd9c	0.14330143
33	0xbda042e3	-0.07825258
34	0x3e58e33a	0.2118043
35	0x3ddbe6e2	0.10737397
36	0xbd45ed47	-0.04832199
37	0xbc55e149	-0.0130542
38	0xbdc6e5c1	-0.09711791
39	0xbd8c678e	-0.06855689
40	0xbce99b03	-0.028516298
41	0xbceae931	-0.028675647
42	0xbc7b9d7f	-0.015357374
43	0x3a7b0b4e	0.00095765747
44	0xbe23cf4e	-0.15997049
45	0xbd1138d9	-0.035454605
46	0x3cbb01d6	0.022828024
47	0xbc0e78d5	-0.008695801
48	0x3cc8e842	0.024524812
49	0x3e1b5e09	0.1517259
50	0x3ceaa385	0.028642425
51	0xbd368042	-0.04455591
52	0xbd9e5547	-0.07731109
53	0x3dc97f93	0.09838786
54	0xbe2ecd98	-0.17070615
55	0x3c1b5d7b	0.009482737
56	0x3d198c6e	0.03748744
57	0xbd750782	-0.059821613
58	0x3c6b99ac	0.0143799
59	0x3c4867c0	0.012231767
60	0x3dd4c421	0.10388971
61	0x3df9eea3	0.122037195
62	0x3d8a3ce8	0.06749898
63	0x3c5b98d4	0.013403136
64	0x3ade6d05	0.0016969746
65	0x3dba1bf4	0.09087363
66	0x3d36c960	0.04462564
67	0xbde3f0b4	-0.11129895
68	0x3de14a97	0.11000555
69	0x3ce442f5	0.027863959
70	0xbde56146	-0.11200194
71	0xbd846003	-0.06463625
72	0x3d241c1a	0.040065862
73	0xbd40cb65	-0.047068972
74	0xbc42f8f1	-0.011900173
75	0x3da6a18b	0.081362806
76	0xbcd8631c	-0.026414447
77	0x3e2bfcf2	0.1679571
78	0xbd9437da	-0.07237215
79	0x3e1d3a51	0.15354277
80	0x3cfb6689	0.030688541
81	0x3d39cd24	0.045361653
82	0x3dd3c00f	0.10339367
83	0xbd10fe67	-0.035398867
84	0x3c26fe86	0.010192519
85	0x3caaaf98	0.020835683
86	0x3da83707	0.08213621
87	0xbe0a85e9	-0.13527645
88	0x3cb02253	0.021500742
89	0x3d3ccd7d	0.046094406
90	0x3d875fba	0.06610055
91	0xbd7dd697	-0.061972227
92	0xbabc880d	-0.0014383808
93	0x3e18623d	0.14881225
94	0x3dff620f	0.12469875
95	0xbdbf1f33	-0.09332123
96	0x3d86e1c2	0.06586029
97	0x3e040681	0.12893106
98	0x3d9672be	0.07346104
99	0xbd30edf3	-0.043195676
100	0xbd1224f5	-0.035679776
101	0x3c1339d4	0.008985955
102	0x3c267e99	0.010162019
103	0xbca69dd3	-0.020338928
104	0x3cc28440	0.023744702
105	0xbc83664a	-0.016039986
106	0x3d8ad21b	0.06778356
107	0xbe05c312	-0.13062695
108	0xbd509aad	-0.05092876
109	0xbda31a5a	-0.079640105
110	0xbc05a29f	-0.008156448
111	0x3e40fcc6	0.18846425
112	0xbccfc092	-0.02536038
113	0xbd032140	-0.03201413
114	0x3db7f1c3	0.08981659
115	0x3e57af8f	0.21063064
116	0x3da5eba2	0.08101584
117	0xbcc7ff02	-0.02441359
118	0x3d9140c5	0.07092432
119	0x3e07fbfa	0.13279715

fc2.weight f4 [84, 120]
0	0x3d6b2d40	0.0574162
1	0xbc7e5447	-0.015523023
2	0xbd1693a1	-0.036761884
3	0xbd9f263a	-0.07770963
4	0xbd8c89e0	-0.06862235
5	0xbceb2ee3	-0.02870888
6	0xbc8f3ade	-0.017484125
7	0x3dbb5896	0.09147756
8	0x3bafd7fd	0.005366324
9	0x3d033388	0.032031566
10	0xbd01b633	-0.0316679
11	0x3da9e2e7	0.08295231
12	0xbd309e7b	-0.04311989
13	0xbcdfd8b4	-0.027325012
14	0xbdac99fb	-0.08427807
15	0x3d0467a7	0.032325413
16	0xbb47a6d3	-0.0030464425
17	0xbd974048	-0.073853076
18	0x3d145693	0.036215376
19	0xbd434b0a	-0.047678985
20	0xbb3a1621	-0.0028394538
21	0x3ce26b0a	0.02763893
22	0x3d8594ce	0.06522523
23	0xbd82eca9	-0.063927956
24	0xbda4496b	-0.08021816
25	0xbda14787	-0.07874971
26	0x3a88d6e0	0.0010440014
27	0xbd373e45	-0.04473712
28	0xbd4ac7b9	-0.049506877
29	0x3d8e64b3	0.069528006
30	0x3cba1a9d	0.022717768
31	0x3cdc8bc1	0.026922109
32	0xbd9f005d	-0.07763741
33	0xbd986f1d	-0.07443068
34	0x3da90577	0.082529955
35	0xbda06251	-0.07831252
36	0x3c11695c	0.008875217
37	0x3d0dcc27	0.034618523
38	0x3cea1e52	0.028578911
39	0xbd865857	-0.06559818
40	0x3da59b79	0.08086295
41	0x3d90104e	0.0703436
42	0x3dabbf88	0.08386141
43	0xbd0a49f0	-0.03376192
44	0xbd9c7e41	-0.076412685
45	0xbd208ac5	-0.03919484
46	0x3d711834	0.058860973
47	0x3da65eac	0.08123526
48	0x3d531259	0.05153117
49	0x3ca9002f	0.02062997
50	0xbd09e7c2	-0.033668287
51	0xbd4becd8	-0.04978642
52	0xbb6082af	-0.003425758
53	0x3cf5b333	0.029992675
54	0xbd8123d3	-0.06305661
55	0xba58eb98	-0.00082748523
56	0xbdc34c6c	-0.09536061
57	0x3da690b0	0.08133066
58	0xbd3ab295	-0.045580465
59	0xbdad720d	-0.08469019
60	0x3db12f57	0.086516075
61	0xbd228dfc	-0.039686188
62	0xbda1bcb6	-0.07897322
63	0x3d27424a	0.040834703
64	0xbd00dbd3	-0.03145964
65	0x3d628f49	0.05531243
66	0xbc099c4a	-0.008399079
67	0xbd0d62b0	-0.034517944
68	0xbc704a57	-0.0146661615
69	0x3cba98dd	0.022777969
70	0x3cfb187d	0.030651325
71	0x3d2b2508	0.041783363
72	0xbd9ac937	-0.0755791
73	0xbd0a978e	-0.03383594
74	0xbd822ded	-0.06356416
75	0x3d91226f	0.07086646
76	0x3d41d5ea	0.047323145
77	0x3c8b7797	0.017024798
78	0xba0bc0af	-0.00053311413
79	0xbda56401	-0.08075715
80	0xbcbf118b	-0.023323795
81	0xbd6589ac	-0.056039497
82	0xbd72100f	-0.059097346
83	0x3c8d4b07	0.01724769
84	0x3d4ec88b	0.05048422
85	0x3d5eb27c	0.054369435
86	0xbd99dd10	-0.075128675
87	0xbdbb66ba	-0.09150453
88	0xbaf713cc	-0.0018850504
89	0x3d58fefa	0.05297754
90	0xbc8b1125	-0.016975949
91	0x3dc12b1e	0.09432052
92	0xbd7ed98c	-0.062219188
93	0xbd29a5ef	-0.041418012
94	0xbd55626a	-0.052095808
95	0x3adf2325	0.0017024024
96	0xbcd47803	-0.025936132
97	0xbd178e9d	-0.03700124
98	0xbd02190c	-0.031762168
99	0x3cb4cdf0	0.022070855
100	0x3b5973f1	0.0033180679
101	0xbd9d4bba	-0.07680459
102	0xbcaadb37	-0.020856483
103	0x3d54f04a	0.05198697
104	0xbcc375ef	-0.023859946
105	0xbcaf6564	-0.021410652
106	0xbd6c7ae0	-0.05773437
107	0xbbb1ae4d	-0.0054223896
108	0xbc45fedf	-0.012084692
109	0x3d62cfcf	0.055373963
110	0x3bc3d5d1	0.0059764166
111	0xbcf9be29	-0.030486183
112	0x3d39a5ca	0.045324124
113	0xbd98bee7	-0.07458287
114	0x3b75ec4e	0.0037524882
115	0x3d77cd22	0.060498364
116	0x3d5f5d11	0.054532114
117	0x3d681758	0.056662887
118	0x3da66235	0.081242
119	0x3cfb52c3	0.030679112
120	0x3dbaae1a	0.091152385
121	0xbdad6954	-0.08467355
122	0x3d49396d	0.04912703
123	0xbc28c352	-0.010300474
124	0xbd653b1b	-0.05596457
125	0x3d46917e	0.048478596
126	0x3ce2e402	0.027696613
127	0xbd7b50dd	-0.061356414
128	0xbbb4f32b	-0.005522152
129	0xbd11966e	-0.03554385
130	0xbc7dd7c0	-0.015493333
131	0xbc08ee62	-0.008357616
132	0xbd93e5ac	-0.07221541
133	0x3d619732	0.05507583
134	0xbda12dcb	-0.078700624
135	0x3bfcdddb	0.007716877
136	0x3bfd2f40	0.00772658
137	0xbd1a7a09	-0.037714038
138	0xbce76adc	-0.028249197
139	0x3d1340e9	0.035950575
140	0xbdbe4e03	-0.09292223
141	0x3c70dd8c	0.014701258
142	0x3d5b10b0	0.05348271
143	0x3ccc5f1a	0.024947692
144	0x3da098dc	0.078416556
145	0xbd1ed5e8	-0.038778216
146	0xbdc54e38	-0.0963406
147	0xbcc172a5	-0.023614237
148	0xbd9c31a4	-0.07626656
149	0x3dae9eef	0.08526408
150	0x3d1bd4c0	0.03804469
151	0x3d85a951	0.06526435
152	0x3d205d07	0.039151218
153	0x3dae236d	0.08502851
154	0xbd13fb26	-0.036128186
155	0x3c4d0c9c	0.012515213
156	0x3d8d8e0f	0.06911861
157	0x3d72d9fe	0.059289925
158	0xbd67ab8b	-0.05656008
159	0xbdaa3cb2	-0.08312358
160	0xbc1b992e	-0.00949697
161	0x3c922db9	0.017844068
162	0xbbde96a3	-0.0067928596
163	0xbd15f5de	-0.03661143
164	0xbdb46c96	-0.088097736
165	0xbd802f03	-0.06258967
166	0x3dad18d8	0.08452004
167	0x3d6c3940	0.057671785
168	0xbd59a447	-0.053135183
169	0x3cce74bd	0.02520215
170	0x3d2fce05	0.042921085
171	0x3d81e00e	0.06341563
172	0xbd8e9fa7	-0.06964045
173	0x3c33e355	0.010979493
174	0xbdbc683e	-0.0919957
175	0x3d9cdb99	0.076590724
176	0x3d862d44	0.065516025
177	0xbcb06a63	-0.021535104
178	0xbd26bf59	-0.040709827
179	0x3d1d0ed2	0.038344212
180	0xbd21605b	-0.039398532
181	0x3ca09f6a	0.019607265
182	0xbda37a53	-0.07982316
183	0xbccfda01	-0.025372507
184	0x3d5069dd	0.05088221
185	0x3b81559f	0.0039469744
186	0xbc86e495	-0.016466418
187	0xbd6c2702	-0.05765439
188	0x3d1a38cb	0.03765182
189	0xbd3c8f6e	-0.046035223
190	0xbcea611a	-0.028610755
191	0xbcc28278	-0.023743853
192	0x3ca6dc1e	0.020368632
193	0xbd7b5f35	-0.061370093
194	0x3d2b5bf9	0.04183576
195	0xbd006ab1	-0.03135175
196	0x3c4adddc	0.012381997
197	0x3c60a4ab	0.013711135
198	0xbd56fb79	-0.052485917
199	0xbd8f981c	-0.070114344
200	0xbd991b30	-0.07475889
201	0xbd5ed0da	-0.054398395
202	0x3beb0414	0.007172117
203	0xbd57acc6	-0.052655004
204	0xbd3c3307	-0.0459471
205	0xbdad3548	-0.08457428
206	0x3d48f18e	0.04905849
207	0xbd5f836b	-0.05456869
208	0xbd30ba8b	-0.04314665
209	0xbd972d40	-0.07381678
210	0x3ce30fdb	0.027717521
211	0xbbe68a24	-0.0070355106
212	0xbc782d14	-0.015147466
213	0xbcda9a61	-0.026684942
214	0xbd52c7c2	-0.051460035
215	0x3cf61897	0.030041022
216	0x3d401972	0.046899267
217	0x3c53022a	0.012878934
218	0xbdaa5945	-0.08317808
219	0xbdb584cd	-0.0886322
220	0x3d9b6888	0.07588297
221	0x3caa13e0	0.02076143
222	0xbd346f67	-0.044051554
223	0xbd81092f	-0.0630058
224	0x3d5858ae	0.052818947
225	0xbcc0fab8	-0.023557052
226	0xbd26a81a	-0.040687658
227	0xbd932e84	-0.071866065
228	0xbda653bf	-0.08121442
229	0x3d8d6897	0.069047146
230	0x3d3c68e2	0.04599846
231	0x3d71473b	0.05890582
232	0xbd8e3ae1	-0.06944824
233	0xbc0106ea	-0.007875184
234	0xbc824ac6	-0.015904795
235	0xbdb991b1	-0.090609916
236	0xbd8c37d3	-0.06846585
237	0xbd885e65	-0.06658629
238	0x3d8ebb4f	0.0696932
239	0x3d8d8c38	0.0691151
240	0xbdb23be3	-0.08702829
241	0x3b992f9f	0.0046748663
242	0xbd7eb109	-0.062180553
243	0x3b7d65e0	0.0038665459
244	0x3cf1f5b1	0.0295361
245	0x3da47498	0.08030051
246	0xbd7e896f	-0.062142786
247	0xbdab5982	-0.08366682
248	0xbd9b8fd9	-0.07595796
249	0xbd12b3a7	-0.03581586
250	0x3cf70df3	0.030158019
251	0x3cc814ed	0.02442404
252	0xbc2fbe87	-0.010726578
253	0xbc88cdb3	-0.016699648
254	0x3c88fdd6	0.0167226
255	0x3d981075	0.07425014

fc2.bias f4 [84]
0	0x3d492159	0.04910407
1	0xbd752cff	-0.059857365
2	0x3dc5782d	0.09642062
3	0xbd1c5dd7	-0.03817543
4	0x3dac948c	0.084267706
5	0x3e2783c4	0.16358858
6	0x3e857422	0.26065165
7	0xbd74baf0	-0.05974859
8	0x3d35297f	0.044229027
9	0x3e5899b6	0.21152386
10	0xbda3065a	-0.07960196
11	0x3dc9d782	0.09855558
12	0xbd70d0b0	-0.05879277
13	0x3de180c2	0.11010887
14	0xbdcca462	-0.09992291
15	0xbabb3015	-0.0014281297
16	0x3e17e099	0.14831771
17	0x3d6863d2	0.05673582
18	0x3dd2b12f	0.10287701
19	0x3dbd021a	0.092289165
20	0xbe06523b	-0.13117306
21	0x3dde07d0	0.10841334
22	0xbcc98a31	-0.024602028
23	0x3d59c35f	0.053164836
24	0x3d408270	0.046999395
25	0xbc48ea6d	-0.012262923
26	0x3cc1731b	0.023614457
27	0x3d4191ce	0.04725819
28	0xbb4e3494	-0.0031464444
29	0xbd8bb84d	-0.06822262
30	0xbd3a7081	-0.04551745
31	0xbc9670d0	-0.01836434
32	0x3db46241	0.08807803
33	0x3e508fb5	0.2036732
34	0xbd687f82	-0.056762226
35	0x3be2bd45	0.0069195353
36	0x3e0ffcc8	0.14061272
37	0xbd6c86a1	-0.05774558
38	0xbc834331	-0.01602325
39	0xbccd7035	-0.025077919
40	0x3e1d396e	0.15353939
41	0x3e9d1a65	0.306842
42	0x3db05995	0.086108364
43	0x3d2f97ca	0.042869367
44	0x3e354d56	0.17705283
45	0xbe25d505	-0.16194542
46	0x3dd8e253	0.10590043
47	0x3de6ab24	0.11263111
48	0x3dd10f68	0.10208017
49	0xbd47d375	-0.048785646
50	0xbd7c0924	-0.061532155
51	0xbc9a3352	-0.0188233
52	0xbdc0a508	-0.09406477
53	0x3e6f7dd1	0.23387839
54	0xbd7ea7b0	-0.062171638
55	0x3d83ce88	0.06435877
56	0x3eda9598	0.42692256
57	0x3e2eda73	0.1707552
58	0xbd922b42	-0.07137157
59	0x3e3d7158	0.18500268
60	0x3ec966ca	0.39336234
61	0x3d1dcfd5	0.038528282
62	0x3e1fad74	0.15593511
63	0x3ec91a9e	0.3927812
64	0x3dbfeca2	0.09371306
65	0x3a7ec68d	0.00097189174
66	0xbd2b011d	-0.04174911
67	0xbe05421f	-0.13013504
68	0x3e4dc1bb	0.20093434
69	0xbdb79878	-0.08964628
70	0x3e2c888c	0.16848963
71	0x3db831e7	0.08993893
72	0xbd8cc013	-0.06872573
73	0xbccf9683	-0.025340324
74	0xbd7d4f00	-0.06184292
75	0x3db1694e	0.086626634
76	0xbd43c7f4	-0.047798112
77	0x3e1bee90	0.15227723
78	0x3e007902	0.12546161
79	0x3e1bb68f	0.1520636
80	0xbdcb6510	-0.099313855
81	0x3e52a459	0.20570506
82	0xbc26ee85	-0.010188703
83	0xbd8daafe	-0.0691738

fc3.weight f4 [10, 84]
0	0x3ca12693	0.019671714
1	0x3dc5b586	0.096537635
2	0x3da17d1f	0.07885193
3	0x3e7af333	0.24506836
4	0x3e36936e	0.17829677
5	0xbe4c36e7	-0.19942819
6	0x3dbda035	0.09259073
7	0xbde0a315	-0.109686054
8	0x3dfb52b7	0.12271636
9	0x3e8383ab	0.25686392
10	0x3d007142	0.03135801
11	0x3e7e5587	0.24837314
12	0xbb75087d	-0.0037389093
13	0xbaacf1ae	-0.0013194585
14	0x3de904f4	0.11377898
15	0x3e0fff1c	0.1406216
16	0xbdab54da	-0.083657935
17	0x3d1cbebc	0.038267836
18	0x3e322c84	0.17399794
19	0x3d139cc3	0.03603817
20	0x3d4243ab	0.047427814
21	0x3de99ba7	0.114066415
22	0x3e079a8a	0.13242546
23	0xbde8e080	-0.11370945
24	0xbd32a0c8	-0.043610364
25	0x3d17b469	0.037037287
26	0xbd24549e	-0.04011976
27	0x3e56d4f7	0.20979677
28	0x3dbea74e	0.093092546
29	0xbd4a54e3	-0.04939736
30	0x3e536fba	0.20648089
31	0xbdc35df7	-0.09539407
32	0x3dc8cb07	0.098043494
33	0x3dc95d06	0.09832196
34	0xbdd63f8a	-0.10461338
35	0xbdc4e279	-0.09613509
36	0x3e4051af	0.1878116
37	0x3dfca106	0.123354
38	0x3ccc78aa	0.02495988
39	0x3cae1b20	0.021253169
40	0xbd707514	-0.058705404
41	0xbdb8e16a	-0.09027369
42	0x3e7d8b6d	0.24760218
43	0x3e39d86b	0.18148963
44	0xbcd6f8b7	-0.026241643
45	0xbd49e43c	-0.049289927
46	0xbdae0284	-0.084965736
47	0xbe3d8c60	-0.1851058
48	0x3e3667cf	0.17813037
49	0x3da7b5f3	0.08189001
50	0x3d6a5802	0.057212837
51	0xbd4567de	-0.04819476
52	0xbd0b6940	-0.03403592
53	0xbe17746b	-0.14790504
54	0xbde2cbb5	-0.1107401
55	0xbe24c751	-0.16091658
56	0xbeade19b	-0.33961186
57	0xbe166fc8	-0.14691079
58	0x3e258b9a	0.16166535
59	0x3bfc4bbd	0.0076994584
60	0xbeb87f5e	-0.36034673
61	0xbcd7e467	-0.026354028
62	0x3e33a716	0.17544207
63	0xbe0b33c9	-0.13593973
64	0x3d54cecb	0.051955026
65	0x3c420003	0.011840823
66	0x3ba5d61b	0.0050609238
67	0x3dc72812	0.0972444
68	0x3e1e65c8	0.15468514
69	0x3dc01355	0.09378687
70	0x3e17ba71	0.14817216
71	0x3c8ea4d5	0.017412582
72	0xbd91ac72	-0.071129695
73	0xbdd52aea	-0.10408576
74	0x3d785246	0.060625337
75	0x3e678bec	0.2261197
76	0x3dd7a711	0.10529912
77	0xbe459a8d	-0.19297238
78	0x3e0974b3	0.13423423
79	0x3e2938b4	0.16525537
80	0xbc66af3b	-0.014079864
81	0x3d34cf0d	0.04414277
82	0x3b4f1523	0.0031598292
83	0x3e10e817	0.14151035
84	0xbd695359	-0.056964252
85	0x3d5751ed	0.052568365
86	0xbdac8c11	-0.08425153
87	0x3e56519e	0.20929572
88	0x3c00225d	0.007820693
89	0x3d2e64f7	0.042576756
90	0xbdc0f35c	-0.09421417
91	0xbe08ee92	-0.13372257
92	0x3da376ff	0.07981681
93	0xbda29ec1	-0.07940436
94	0x3d256d40	0.040387392
95	0xbe1eda18	-0.15512884
96	0xbcbc0893	-0.022953307
97	0x3de3fb8f	0.11131965
98	0x3d8fddd4	0.07024732
99	0x3d8f6c66	0.07003097
100	0xbe09e4b4	-0.1346615
101	0x3dee5b2f	0.11638486
102	0xbdabd6c6	-0.08390574
103	0xbc82c97d	-0.015965218
104	0x3ea0fbd9	0.31442145
105	0x3dfaefa7	0.12252741
106	0xbdb61218	-0.0889017
107	0x3cffe5b9	0.03123747
108	0xbd6b65ef	-0.05747026
109	0x3d0fcf3e	0.03510975
110	0x3e6d26d2	0.2315934
111	0x3e81b589	0.25333813
112	0x3c2d40a4	0.010574494
113	0xbd9e3321	-0.07724596
114	0x3dc605a4	0.096690446
115	0x3e0b0049	0.13574328
116	0xbd9e63b1	-0.077338584
117	0xbe3f5bbe	-0.1868734
118	0x3d526292	0.051363535
119	0xbd43c483	-0.04779483
120	0x3e2b4e5b	0.16729109
121	0xbe0f0c66	-0.13969573
122	0x3cbea976	0.023274165
123	0x3d651d84	0.05593635
124	0xbdbf6a4d	-0.09346447
125	0xbe3abedb	-0.18236868
126	0x3e11d117	0.14239918
127	0xbd98a382	-0.07453062
128	0xbe47b5f5	-0.19503005
129	0x3f02cf90	0.51097965
130	0xbde44747	-0.111464076
131	0xbe1ab4e8	-0.15108073
132	0xbda1bc29	-0.07897217
133	0x3d702876	0.058632337
134	0xbd5f9d98	-0.054593652
135	0x3d5806af	0.05274075
136	0xbddeca89	-0.10878474
137	0x3c896532	0.016771886
138	0x3c37373a	0.011182601
139	0xbd37fd75	-0.04491945
140	0xbe764c26	-0.24052486
141	0xbe1d2ce5	-0.15349157
142	0x3d854b2a	0.06508477
143	0x3d5de239	0.05417082
144	0xbe677e46	-0.22606763
145	0x3c357e45	0.011077468
146	0xbe1bf95c	-0.15231842
147	0xbe240c06	-0.16020212
148	0x3cbe6013	0.023239171
149	0x3cf735db	0.030177047
150	0x3da95b2a	0.08269341
151	0x3df7da5a	0.12102194
152	0xbead4e69	-0.33848885
153	0x3e192fc9	0.14959635
154	0xbd9c5fd5	-0.07635466
155	0xbd514c57	-0.051098194
156	0xbd6f8fa7	-0.058486607
157	0x3d3c3063	0.045944583
158	0xbd8d6989	-0.06904895
159	0xbdfc8bdb	-0.12331363
160	0x3c42413f	0.011856376
161	0xbe4c53b9	-0.19953813
162	0x3de6d3da	0.11270876
163	0xbd5ee913	-0.054421496
164	0x3e8f8720	0.2803278
165	0xbe5b317f	-0.214056
166	0xbda55c7d	-0.08074281
167	0x3d1863b6	0.037204467
168	0xbc291392	-0.010319607
169	0xbd50e275	-0.050997216
170	0x3da7ff9c	0.082030505
171	0x3c1d5a28	0.009604014
172	0x3e24b451	0.1608441
173	0x3d12b69c	0.03581868
174	0x3de9b185	0.11410812
175	0xbe6357b6	-0.22201428
176	0x3ca34167	0.019928647
177	0x3db01dcb	0.085994326
178	0xbd21bd5b	-0.039487224
179	0x3e276afa	0.16349402
180	0x3ddf8029	0.109131165
181	0xbdc0db29	-0.094168015
182	0xbdeb3f26	-0.11486654
183	0xbd37617f	-0.044770714
184	0x3dc389c6	0.095477626
185	0xbe123381	-0.1427746
186	0xbdb8ab95	-0.09017102
187	0x3e226715	0.15859635
188	0xbd367fe2	-0.044555552
189	0x3ccdde1e	0.025130328
190	0x3e1a5c72	0.15074328
191	0x3dd15b85	0.10222534
192	0x3d72b489	0.059254203
193	0xbd864a3b	-0.06557127
194	0xbd48ebf4	-0.049053147
195	0xbda57b52	-0.08080162
196	0x3d49e117	0.049286928
197	0x3dbc3919	0.09190578
198	0xbe400713	-0.18752699
199	0x3d8f438a	0.06995304
200	0x3d4a164d	0.049337674
201	0x3db94d8f	0.09047996
202	0xbdaa0094	-0.083008915
203	0x3dcc07e9	0.09962446
204	0xbc868a65	-0.016423414
205	0xbdef073a	-0.116713
206	0x3c44f981	0.012022377
207	0x3d2961c7	0.041353013
208	0xbd947566	-0.072489545
209	0x3e4cf60d	0.20015736
210	0xbdb0a42c	-0.08625063
211	0xbd22e343	-0.039767515
212	0xbd9d5a9f	-0.076833
213	0xbe885461	-0.26626876
214	0xbda7b5d9	-0.081889816
215	0x3db5126d	0.08841405
216	0xbd3ce73e	-0.046118967
217	0xbe51819f	-0.20459603
218	0x3b39469b	0.0028270844
219	0x3b60239f	0.003420092
220	0x3ce7b46a	0.02828427
221	0x3e8a8703	0.2705613
222	0xbe2a660f	-0.16640495
223	0x3e241d31	0.1602676
224	0x3e0014c2	0.12507918
225	0x3d0684bb	0.032841425
226	0x3c81e7f7	0.01585768
227	0xbb9a8c27	-0.0047164145
228	0x3c3e0e2e	0.01160006
229	0x3e4c57fd	0.1995544
230	0x3dedd094	0.11612049
231	0x3e13b360	0.14423895
232	0x3def3c0f	0.11681377
233	0xbc23c7f9	-0.009996408
234	0x3d7fa973	0.06241746
235	0xbe272685	-0.16323288
236	0x3e739ea8	0.23790991
237	0xbcd807e2	-0.026370946
238	0x3e75eb4c	0.2401554
239	0x3e26266f	0.16225599
240	0x3b97df07	0.004634741
241	0xbdfc8dfb	-0.12331768
242	0x3d66828b	0.05627684
243	0x3e3ff626	0.18746242
244	0xbd51133a	-0.051043727
245	0xbd8d3d28	-0.0689643
246	0xbe19ae21	-0.15007831
247	0x3de708a4	0.11280945
248	0xbc5d043b	-0.013489778
249	0x3e683181	0.22675134
250	0x3db77144	0.089571506
251	0xbdc65272	-0.09683694
252	0xbdc249eb	-0.09486755
253	0x3d067bb5	0.03283282
254	0x3d634086	0.055481456
255	0xbd8feefd	-0.07028005

fc3.bias f4 [10]
0	0xbe6d7d48	-0.23192322
1	0xbeef5f7a	-0.4675253
2	0x3e6e217d	0.23254962
3	0x3e7a29e4	0.24430043
4	0x3ef7aeef	0.4837565
5	0xbe4b35f9	-0.19844808
6	0x3dca5c8d	0.09880934
7	0xbe760d74	-0.2402857
8	0x3ec2e6f7	0.38066837
9	0xbe5fd02a	-0.21856752
